log/dqn/best_model.pth (torch, 7895 bytes, 6 tensors)

main.0.weight f4 [32, 8]
00000000: a048 fb3e 5e51 ffbe a402 1b3f 5d9e 1f3e
00000010: 75c3 98bf 351d 48be 4545 fe3d 1b96 47be
00000020: 8485 943e 5c2c 0abf 213b 6bbe a1a9 fcbe
00000030: 580a 863e c1cb 143c 5315 7c3d ff03 8b3e
00000040: 9037 10bf 98a8 1bbf 503e 0ebf a5f3 5bbf
00000050: b2dc 9b3e 0b0c 04bf 303d d73e 5d1d 0e3d
00000060: 8819 943c 539f d13e 817d 8cbf 7a2a cebf
00000070: 0e10 fcba a97c c33e a77b 273d 2c79 b0be
00000080: 9487 1f3f cf57 ff3d a53d 233e d464 42be
00000090: b624 15bd cc54 8dbf 5cbb c23e e405 c23e
000000a0: 9cb2 60be a53a 5cbf f613 783d f963 d83e
000000b0: bd09 bfbd 362d 9fbe d310 26be c9e6 1d3f
000000c0: 9a06 753e 54da f43f 2f79 793f 9a60 173d
000000d0: 138c cdbe 2fa4 80be 8b60 9f3d 1f45 bcbc
000000e0: f36d b23e 0615 e53c b515 4d3f bba7 27be
000000f0: bfda 4ebf b97c a4bf 5e94 b03e 4687 843e
00000100: bf63 943e 8384 aebf 6ae8 ce3e 655b 42bf
00000110: 7a17 92be a3c2 953e 1eef a33e 444d 363f
00000120: 3461 a3be 5b09 34bd 7036 1fbf 74a6 2dbe
00000130: 60aa 253f da06 2bbd 3d13 033f 73c3 ae3e
00000140: 3f83 093f 53f2 003f 8a2f 3b3b 9ff4 f93d
00000150: 8620 9abf 2d0f 66bf 9b5e d63c 73f9 07bd
00000160: b0c7 01bf 7560 503b 0a0a ed3e f6ea 82bd
00000170: 1d39 043e 64ca 103f 6191 19bf 63fb 87be
00000180: 3c49 653c 46c1 e83d 6877 e73d 177a e93d
00000190: a547 fabf b910 06be 83e5 39be 928e 93be
000001a0: 02c4 f73d 8532 eb3e 50bb f1bc 9c89 843f
000001b0: 48bb 47bf 2198 96bf 2109 4ebf 138c fc3d
000001c0: d709 193e 1604 093f 4140 cfbc 54b7 71bf
000001d0: fee4 1c3f e365 03be 27d2 24be 7e4e a03c
000001e0: aa56 4abe c535 5d3e dd29 fcbe fe60 aa3e
000001f0: a02a aabe 605b e73d 345e dd3e ca75 a9be
00000200: 6689 1c3d c8b4 5a3e 54ee 74be c81f 973f
00000210: 19b1 1ebf 2af4 52bf 57b2 c13e 8941 ae3d
00000220: cf80 00bf 1b1a 673e 74c3 d03e 94a1 6e3e
00000230: e20c 8e3f 38bc 37bf a2f5 edbd 334b 10bf
00000240: 30f1 9fbe 54db 35bf 36b4 bbbe e221 9fbe
00000250: b770 083f 9b76 e53e 5c8d 173f 018d 54bd
00000260: 4d2e 60bd 8b91 743e 3470 14bf 93d3 9dbd
00000270: 94f4 3a3f 02f6 ba3e 4ac0 0d3e ec28 333f
00000280: d919 413f b537 3d3f 81e1 a73f 094d a43e
00000290: 75db bcbf 5e33 1d3e d91b 1dbf 22f3 123f
000002a0: d64c 173e 38cc afbf 0296 343e 4796 a6bf
000002b0: 1103 2dbf 2b68 10bd c306 b03e de63 613d
000002c0: c5fc b8be 565b f3bd 231f 02bf 5e6e 1bbd
000002d0: 3b5a 843e 1932 19be 1ee9 a4be 02b8 093f
000002e0: e89d 9b3e 69fb 4e3f 4f58 b3bd 7f03 ba3f
000002f0: 2d42 f23d 6d21 13bc 04e1 003e 0f3e 533e
00000300: 9b99 59bf ebb4 0bbe 5082 77be 6829 783c
00000310: 8da7 18bf af5a ccbd 8eb7 1e3f ec3f c83e
00000320: f792 bdbe 33d1 0b3f c767 203f 7c69 23bf
00000330: 11e1 443f cb4a 3d3e ee3a 24be 9fd4 36bd
00000340: 047e be3e dd74 2a3f 5423 d7be 4853 e1bf
00000350: eea6 1dbf f523 fdbe 07f0 95be bbd0 e8be
00000360: 7a1a c03e ce0c 3f3e 72c5 cdbf 5a84 c6be
00000370: 16a4 393e 6a4a cb3d 672f b4be 02ed b4be
00000380: d717 943d dc7a 07bd ef89 0b3e b670 ba3e
00000390: e4ce bb3e 813a 6c3f f2ac 493e 3f92 223e
000003a0: 7831 7abf d47b e2bd 4e61 d6be d3ac 20bf
000003b0: 3879 763f d1bc 173f fbf6 1a3f c6a9 c5be
000003c0: db95 8c3d 5ed7 29bf 008a f0bc 8f86 2ebf
000003d0: 8dc3 b3be 11e7 72bd 9c0f 743d 875f 4fbe
000003e0: 600f 1cbe e51e 9e3e 3763 53bf 01c5 8a3e
000003f0: a0af cebc 8b01 873f fd57 93bc 5d4b e63d
0.49078846 -0.49866766 0.60550904 0.15587755 -1.1934649 -0.19542392 0.12415556 -0.19490854
0.29008114 -0.5397394 -0.22971775 -0.49348167 0.26179767 0.009081782 0.061543774 0.27151486
-0.5633478 -0.6080413 -0.5556383 -0.8591865 0.30441815 -0.51580876 0.4203887 0.03469597
0.01807858 0.40941867 -1.0975801 -1.6106713 -0.0019230859 0.38181046 0.04088941 -0.34467447
0.6231625 0.1246792 0.15941484 -0.18983775 -0.036411963 -1.1041503 0.3803357 0.3789512
-0.21943134 -0.86026984 0.06056591 0.42263773 -0.09328029 -0.3108918 -0.16217355 0.61680275
0.239283 1.9129128 0.97450536 0.03695736 -0.4014593 -0.25125262 0.07782086 -0.022982178
0.3484951 0.027964126 0.8011125 -0.16372578 -0.8080253 -1.2850562 0.34488195 0.25884455
0.2898235 -1.3634189 0.40411693 -0.75920707 -0.28533536 0.2925006 0.3201837 0.7121165
-0.31910098 -0.043954235 -0.6219244 -0.16958028 0.64713097 -0.04175458 0.5120123 0.3413349
0.5371589 0.5036976 0.002856227 0.12204861 -1.2041175 -0.89866906 0.026168158 -0.033196878
-0.50695324 0.0031795774 0.46296722 -0.063924715 0.12912412 0.56558824 -0.59987456 -0.2655898
0.013994511 0.11364989 0.11302072 0.1140024 -1.9553114 -0.13092317 -0.18153958 -0.2881971
0.120979324 0.4593698 -0.029508263 1.0354495 -0.78020144 -1.1765176 -0.8048268 0.123314045
0.1494516 0.5352186 -0.025299193 -0.9442036 0.61286914 -0.12831835 -0.16095792 0.019568678
-0.19759622 0.21602543 -0.4925069 0.33277124 -0.33235645 0.11296725 0.43235934 -0.33097678
0.03821697 0.21358025 -0.2391904 1.1806574 -0.6198898 -0.82403815 0.37831375 0.085085936
-0.50196546 0.22568552 0.4077412 0.23303825 1.1097682 -0.71771574 -0.11619116 -0.56364745
-0.312387 -0.71037793 -0.36660928 -0.31080538 0.5329699 0.4481705 0.5920007 -0.051892284
-0.054731656 0.23883645 -0.5798371 -0.0770637 0.73029447 0.36515814 0.13842884 0.69984317
0.75430065 0.7391313 1.3115693 0.32090023 -1.4754473 0.15351626 -0.6137062 0.5740224
0.14775404 -1.3734198 0.17635348 -1.3014611 -0.67582804 -0.035255592 0.3438016 0.05502688
-0.36130348 -0.11882655 -0.5082876 -0.03794705 0.2585009 -0.14960517 -0.32209104 0.537964
0.3039391 0.8085237 -0.08757078 1.4532317 0.11829028 -0.008980137 0.12585837 0.20629142
-0.8500001 -0.13643233 -0.24170804 0.015146591 -0.5963066 -0.09978234 0.6199883 0.3911127
-0.37026188 0.5461609 0.6265835 -0.6383283 0.76905924 0.18485563 -0.16038105 -0.044636365
0.37205517 0.6658457 -0.4201914 -1.760354 -0.6158284 -0.49441496 -0.2928469 -0.4547175
0.375202 0.18657228 -1.607588 -0.3877285 0.18129 0.09926303 -0.35192415 -0.35337073
0.072311096 -0.033076152 0.13626836 0.36414117 0.36681283 0.9227677 0.1969488 0.15876101
-0.97731733 -0.110587746 -0.41871113 -0.6276371 0.96278715 0.59272486 0.6053311 -0.3860609
0.0686452 -0.6634425 -0.029362679 -0.6817407 -0.3511013 -0.059302393 0.0595852 -0.20251285
-0.1524024 0.30882946 -0.82573265 0.27103427 -0.025230229 1.0547346 -0.017986292 0.11244843

main.0.bias f4 [32]
00000000: 592d ca3e a356 1c3f 2feb 003f e963 093d
00000010: 944b 393e c50f 8a3d 9346 c53e 17b5 273f
00000020: 7f47 2a3e 86a5 ea3c 7422 c23d 38ee 34bf
00000030: 45c7 9dbd d448 163e 10f1 c43e ee03 cebd
00000040: e287 12be cf43 193f 4f15 a5be 0bd4 943c
00000050: 20b4 3fbc ad1e a33d 30b2 d03e cd94 873f
00000060: ddfd bf3e 018d 83bc b6fd f33e 06f2 b3bc
00000070: f318 993e 0b46 a73d 4aa9 3b3f f3aa 483e
0.39487723 0.610697 0.5035886 0.033542547 0.18095237 0.06741289 0.38530406 0.65510696
0.16628836 0.02864338 0.09479228 -0.7067599 -0.07704023 0.14676219 0.38465166 -0.10059343
-0.14309648 0.5986909 -0.3224282 0.018167516 -0.01170066 0.07964835 0.40760946 1.0592285
0.3749837 -0.016058447 0.47654504 -0.021965992 0.29901847 0.081676565 0.7330519 0.19596462

main.2.weight f4 [32, 32]
00000000: de5f 81bf c533 14bf 5f11 9dbf 69a3 673e
00000010: b5ad a7bf 50a7 03bf c99d 703e 2c1b 14bf
00000020: f666 5d3e 8160 8c3e 9fb8 0c3e b9b4 993f
00000030: 6959 90be 165c 273f ec92 a83e b26b f4be
00000040: 9b91 8b3e 7a3d 463e fa27 143f da4c 573e
00000050: e5fe 573e 9cc9 0ebe 43eb 243f 26e6 403e
00000060: 078f 2abe 5a6f 5dbd 6cd8 cf3e be29 21be
00000070: 2114 4bbe 2b5b 103f e7f7 b5bf ae74 8b3e
00000080: 912d cf3d 6ca7 8ebd 85ec 27be 80e7 cd3d
00000090: aac2 0ebd 8a22 d33c fd64 d0bd 4a36 c0bd
000000a0: 3f73 963a 2fda 2cbe 6037 0cbe 5235 b5bc
000000b0: a3b4 c03d e263 22be 10a5 903d 7f3c 5ebd
000000c0: 29a2 1cbe f22f a6bd 02c8 ad3d 49e2 40be
000000d0: 6444 66bd 80c5 e13d f568 78bd 07c1 ba3b
000000e0: a72f cb3b 546f 76bc 7bac 2ebe e5f1 87bd
000000f0: 22cc 9a3c b7d4 37be 079b e93d e980 0dbe
00000100: 355c a7be aca0 183d 6a50 44be be0c 063f
00000110: cb70 dcbe 0900 42bf 82fb 1fbd 1141 32be
00000120: 4081 ec3e cb9b 153e f531 603e 6cd4 a33f
00000130: dc8d 17bf 8d21 e63e 8390 c13e 9d10 39bf
00000140: fead 8abe ca54 c0be f513 123f 09a8 8f3d
00000150: b72a 003e 2913 563f 1b78 003f fcf4 b0be
00000160: 7471 eabd c146 d5bd b0d3 cd3e edc8 6c3e
00000170: ce2a 06be bf31 333f 4d73 d8be 95ec a43e
00000180: cc89 13bf 8717 7ebe d8cf 99be 9758 263f
00000190: 9b90 2fbf ddf6 efbf 3e10 b53e a30b 0dbf
000001a0: 70c5 d53e cab0 093e fd0d 1c3e b731 703f
000001b0: 4642 cabe afbb 0ebe 5916 333f 15e0 92be
000001c0: d7e6 4d3f 3652 9bbe 51b2 12be 3840 e5be
000001d0: 24e5 4a3e 9014 643f 4b05 77be 2cdf a6be
000001e0: 8454 533e 831f a93c 1850 ac3e 4599 92bf
000001f0: fd9b 71be ff04 f53e 6bab 5ebd 867d 7c3d
00000200: 4e3e e0bd 1f26 e93d ff92 163f c419 90be
00000210: 6d38 853d b9ce 1c3e 8c3c 1c3e 69ef df3d
00000220: 8772 c2bd 806d 413e cd49 2ebf 3ce3 71be
00000230: 6935 733f 3b10 12bf da82 72bd 9449 a73f
00000240: e7bc 1dbf 7a1d f83e 91df 43bf 8224 08c0
00000250: 0c78 e4bd 4595 093e f308 93bf a672 fcbd
00000260: 9973 67be 32a1 c63e 4434 e4bd 3427 e23e
00000270: 4d0b 93bd bf34 fd3e 64d0 f13e 83f5 c73d
00000280: 8c3c 2abd 45de b8bd f72a 89be 9431 75be
00000290: 2ca2 29be ca2d 48bf 2fbc 9f3e 95f6 d93d
000002a0: 36a2 dcbe f4d9 293f 1dfb ab3e 2863 82bf
000002b0: cafd b2be a801 003e cdc0 8dbd eefa 0c3e
000002c0: 90df 953e f003 df3b 1c3e 0c3f ab97 223e
000002d0: 0e4e ec3e d76f a5bf 38a1 19be 18fb c63e
000002e0: 0169 cc3e 1733 ccbd 9be2 f8bd a485 043e
000002f0: 6345 18be 6330 3a3e 22cf 7dbe 45c8 5a3d
00000300: 7b2d 05bf e873 e3bd b92d c6be e671 213f
00000310: a4b5 61be eb1a 16bf e084 ec3c 4a77 093d
00000320: bce3 613e 57b4 a23e b801 d8bd 6435 913f
00000330: 2f67 07bf 93e0 dd3e 151b 493e 420d f6be
00000340: d9bd 6dbf c221 c5be 919b 983e 53b2 d23e
00000350: 0a87 8e3e 7f9e 223f bac3 ff3e f948 50be
00000360: a7be a23e c0fc 2bbe 8f46 de3e 1b27 853e
00000370: 9c4f 6a3d 89cc 533f 23ee afbe 5c8f 113f
00000380: 0eda 0d3f eb56 e63e 6951 773e 2f9c e83e
00000390: 21bc 763c bf43 2ebf 72bf 13be 8e03 493e
000003a0: da47 2d3d bfaf 9b3e b890 a0bf 6950 1bbf
000003b0: 7b63 5b3e 7b13 55bf 043c bb3e a4f4 3cbf
000003c0: d29f 343e 2164 90bf 2580 c6bb f0e5 09bf
000003d0: 9b02 4cbd c454 a63e 4cbb 9dbe 2658 b5bf
000003e0: 7295 49be 33d5 30bf 8ab8 833e aa28 b83e
000003f0: 1093 35be 76fd 0c3f 5e4a 813e cf1a 9e3e
-1.0107381 -0.57891494 -1.2270926 0.2262093 -1.3099886 -0.51427174 0.2349769 -0.5785396
0.21621308 0.27417377 0.13742302 1.2008277 -0.28193215 0.65374887 0.32924592 -0.47738415
0.27259526 0.19359389 0.578735 0.2102541 0.21093328 -0.13944095 0.6442148 0.18837795
-0.16656123 -0.05406127 0.40594804 -0.1573858 -0.19831897 0.5638911 -1.4216279 0.27237457
0.10116113 -0.06965527 -0.16398819 0.10053921 -0.034853615 0.025773305 -0.10175512 -0.09385355
0.0011478438 -0.16880105 -0.13692999 -0.022120152 0.09409454 -0.15858415 0.07062733 -0.054256912
-0.15296234 -0.081146136 0.08485414 -0.18836321 -0.056217566 0.11023998 -0.06064697 0.00569928
0.006200749 -0.015041191 -0.17057984 -0.066379346 0.018896166 -0.17952238 0.11406522 -0.13818707
-0.32687536 0.037262604 -0.191713 0.52363193 -0.43054804 -0.75781304 -0.039058216 -0.17407633
0.4619236 0.14610212 0.21894057 1.2799201 -0.59200835 0.44947472 0.37805566 -0.72290975
-0.2708587 -0.3756469 0.570617 0.07014472 0.12516294 0.83622986 0.50183266 -0.34561908
-0.11447421 -0.10413886 0.40200567 0.23123522 -0.13102266 0.6999778 -0.42275468 0.32211748
-0.57632136 -0.24813662 -0.30041385 0.6497893 -0.68580025 -1.8747212 0.35363954 -0.5509588
0.41752195 0.13446346 0.15239711 0.9382586 -0.39503688 -0.13938783 0.69955975 -0.28686586
0.8043036 -0.3033616 -0.14325835 -0.44775558 0.19813973 0.89093876 -0.24123113 -0.32592142
0.20637709 0.020644909 0.33654857 -1.1453024 -0.23594661 0.47855374 -0.054362696 0.061643146
-0.10949384 0.11384224 0.5881805 -0.28144658 0.06504903 0.15313233 0.15257472 0.10934336
-0.094945006 0.18889427 -0.6808136 -0.2362184 0.9500337 -0.57056016 -0.05920682 1.3069329
-0.6161637 0.4845999 -0.7651301 -2.1272283 -0.111557096 0.13435848 -1.1487106 -0.12326555
-0.22602691 0.38794857 -0.111427814 0.44170535 -0.0717989 0.49454305 0.47229302 0.097636245
-0.04156165 -0.090267695 -0.26790592 -0.23944694 -0.1656577 -0.7819487 0.3119826 0.10642735
-0.43092507 0.66348195 0.33590022 -1.018651 -0.3495925 0.12500632 -0.069215395 0.13767597
0.29272127 0.0068058893 0.5478227 0.15878169 0.461533 -1.2924756 -0.15002906 0.38863444
0.39923862 -0.09970682 -0.121525966 0.12941605 -0.14870219 0.1818252 -0.24786046 0.05341365
-0.5202252 -0.11106092 -0.3870676 0.6306442 -0.22041947 -0.58634824 0.028871953 0.03356103
0.2205953 0.31778213 -0.10547203 1.1344419 -0.5289182 0.433354 0.19639237 -0.4805699
-0.9286781 -0.38502318 0.29806188 0.41151676 0.27837402 0.63523096 0.49954015 -0.20340337
0.3178608 -0.16795635 0.43413207 0.26006398 0.057204828 0.8273397 -0.3436137 0.56859374
0.5541085 0.44988188 0.2415215 0.4543166 0.015059502 -0.6807212 -0.144285 0.19630262
0.04230485 0.3040752 -1.2544165 -0.6066957 0.21424668 -0.8323285 0.36569226 -0.7381079
0.17639092 -1.1280557 -0.0060577565 -0.5386648 -0.049807172 0.32486546 -0.3080696 -1.4167526
-0.19685915 -0.69075316 0.2572673 0.35968524 -0.17731881 0.5507425 0.2525205 0.30879828

main.2.bias f4 [32]
00000000: 55a0 0c3e 8a48 35be 5ea2 7bbd d7e4 b4bd
00000010: 3656 b73e edc2 ac3e d8d0 333e 6b3a 86be
00000020: 6175 52bc 0fb4 6b3e e763 283e ddb7 b63e
00000030: bc0a f23d 5e50 9a3c 08cc 07be 2d0a f13e
00000040: 7a5f 1c3e dd7c 9bbe 9b20 fcbd 2ace 963e
00000050: 5b3e 013f 1149 143e 5757 063e aaef e03d
00000060: a732 9ebe 5f4b f1ba a23a d1bd 7375 1c3e
00000070: 4204 a53e bb09 04be 8e1a 003d d96b e53e
0.13733037 -0.17703453 -0.061434142 -0.0883271 0.3580796 0.33742467 0.17560136 -0.26216444
-0.012845368 0.23017906 0.1644436 0.35687152 0.11818454 0.01883715 -0.13261425 0.47078076
0.15270796 -0.303687 -0.123109065 0.29454166 0.5048577 0.14480998 0.13119255 0.10983212
-0.3089802 -0.0018409303 -0.102162614 0.15279178 0.3222981 -0.12894337 0.031275325 0.44808844

main.4.weight f4 [4, 32]
00000000: 01d7 4ebf 98ea e73d c65c fcbe 1e7b 1dbf
00000010: 35e4 7e3f cf60 1dbd fcca a1be 57dc cc3c
00000020: 4c96 e8be 2844 09bf 0220 853d 8ba5 7e3f
00000030: aba3 edbe b8e7 353f 5184 15bf 0442 973f
00000040: 8af0 7c3f 1339 323f 6c5a b93d 320e 663f
00000050: 3f74 823f c516 88bf aaf2 813f 81fe cc3f
00000060: 9306 63bf f06f dcbe 1f85 7d3e 4337 b3bd
00000070: ee69 29bf b91c 49be 5421 5bbf 289d 03bf
00000080: 3465 f2be 6bc7 0e3e f472 26bf c248 49bf
00000090: bb7a 933f d3bc 0b3e c8cb 26bf 8ce7 95be
000000a0: c271 d0be fb8c 35bf 9b4d 51be d03b d23f
000000b0: 4d0c 37bc d0fa 013f 1b10 e5be da1d 463f
000000c0: 58cd 603f 83b4 b73e 7c10 213f fab2 ac3d
000000d0: c85e 5c3f fdef 74bf 1ad8 563f 8033 1940
000000e0: 5bdd d5be 3f84 b8be 45cf c93e ab51 a13e
000000f0: fcfe 08be 63ab fcbe 7222 ccbd 3ac2 2fbf
00000100: 306b 76be 0be9 453c 0bee 9bbe 54df bfbd
00000110: ae83 a63f 8a58 5bbf ddb6 b1be a5f0 76bf
00000120: 176d f5be 6760 9dbd 05d1 dbbe ff58 793f
00000130: 336f ec3e 7765 033f b674 0cbf 9a4d 613f
00000140: cb0f 663f cf2a 52bf a546 743f 7b3a 863f
00000150: 5c6c 3b3f d4dd 4ebf 3263 4f3f c408 d53f
00000160: 1f40 b5be 660f 44bf 8ccc 7d3d 5d8b ebbe
00000170: ad55 333e 218f dbbe 376d d1be 1251 3cbf
00000180: 1cf8 c1be bf0c c5bd 5a71 dbbe c17e eabe
00000190: 1a67 a93f d795 053f 5e81 a5be c9bd f3be
000001a0: e54c 86be 5b4a ecbe 052a 2abf 22e3 cb3f
000001b0: 74d9 493e 4818 7d3f 1da6 0bbf 2d7a 683f
000001c0: cfa7 773f 8443 3d3f 41a1 8e3d 9091 e53e
000001d0: 92c1 0d3f 31f5 46bf 8e1c 5a3f 6997 1340
000001e0: 256e 51bf ee3b a5be 1e92 1d3f 011f 0cbf
000001f0: 6ae8 00bf 8275 cfbe 335c d8bd e94a 4cbf
-0.8079682 0.11324042 -0.4928953 -0.61515987 0.99566966 -0.038422402 -0.31600177 0.02500741
-0.45427167 -0.53619623 0.06500246 0.9947135 -0.4641393 0.710567 -0.58405024 1.1817021
0.98804533 0.6961834 0.0905045 0.8986541 1.0191725 -1.0631949 1.015218 1.6015168
-0.88681906 -0.43054152 0.24757813 -0.08750775 -0.6617726 -0.19639863 -0.8559773 -0.51411676
-0.47342837 0.1394326 -0.65019155 -0.78626645 1.1521829 0.1364625 -0.65154696 -0.2927822
-0.4071179 -0.70918244 -0.2043976 1.6424503 -0.011172366 0.50773335 -0.4473885 0.773893
0.8781333 0.35879907 0.6291578 0.084325746 0.86082125 -0.95678693 0.83923495 2.3937683
-0.41770443 -0.36038396 0.39415947 0.3150762 -0.13378519 -0.49349508 -0.099675074 -0.6865574
-0.24064326 0.012079488 -0.3045505 -0.09368768 1.3008935 -0.85681975 -0.34709826 -0.96460944
-0.4793479 -0.07684403 -0.42932907 0.9740142 0.46178588 0.513267 -0.54865587 0.88009036
0.8986785 -0.8209657 0.95420295 1.0486597 0.7321222 -0.8080723 0.81010735 1.66433
-0.35400483 -0.76585996 0.06196265 -0.46004763 0.17513151 -0.42882636 -0.40903637 -0.73561203
-0.37884605 -0.09621572 -0.42859918 -0.4579983 1.3234589 0.5218176 -0.32325262 -0.47605732
-0.2623054 -0.4615048 -0.66470367 1.592869 0.19711858 0.98865175 -0.54550344 0.90811425
0.9674043 0.73931146 0.069643505 0.44837618 0.5537349 -0.7771788 0.8519982 2.3061163
-0.8180869 -0.32272285 0.6155108 -0.5473481 -0.50354636 -0.4051934 -0.105644606 -0.79801804

main.4.bias f4 [4]
00000000: 5cdf 3e3e 315b 32be 31f1 8d3d 3686 3abe
0.18639892 -0.174176 0.06930769 -0.1821526
