log/dqn/best_model_4.pth (torch, 7895 bytes, 6 tensors)

main.0.weight f4 [32, 8]
0	0xbed68f96	-0.41906422
1	0x3ed751d8	0.4205463
2	0xbe4319ce	-0.19052812
3	0x3f9875f1	1.1910993
4	0x3bfd7297	0.0077346074
5	0x3e39f38c	0.18159312
6	0x3d8a84ef	0.06763636
7	0x3e5eb161	0.21747352
8	0x3e71541b	0.2356724
9	0x3c7443e9	0.014908769
10	0x3e243949	0.16037478
11	0xbe782f1b	-0.2423672
12	0x3ebd6dca	0.36997825
13	0x3f81111c	1.0083346
14	0xbe88dd8e	-0.26731533
15	0xbe30b0c6	-0.17254934
16	0x3ec6c9f7	0.38825962
17	0xbdad4ef2	-0.08462323
18	0xbd364422	-0.04449857
19	0xbf3d617d	-0.7397688
20	0xbf41b52e	-0.75667083
21	0xbe045e56	-0.12926611
22	0x3ec7aed9	0.39000586
23	0xbda22c68	-0.07918626
24	0xbde5f974	-0.1122922
25	0x3e8a6da5	0.27036777
26	0xbf285e54	-0.65768933
27	0x3f1fced9	0.62425
28	0x3f813c2f	1.0096492
29	0x3e7dbb3e	0.24778458
30	0x3e3beaf8	0.18351352
31	0x3e8b1779	0.27166346
32	0xbd487719	-0.048941705
33	0xbd876565	-0.06611136
34	0xbf0c408c	-0.5478599
35	0xbe8597c9	-0.26092365
36	0xbfba89c7	-1.4573296
37	0x3edf6d84	0.4363824
38	0xbe37189f	-0.17880486
39	0x3eff3e42	0.49852186
40	0xbec433a1	-0.3832064
41	0x3f6a7a05	0.9159244
42	0xbeae9dd5	-0.3410479
43	0x3e46dd6f	0.19420408
44	0x3cf29466	0.029611778
45	0xbe7e8154	-0.24854022
46	0xbea06efa	-0.31334668
47	0xbd00a5cb	-0.031408112
48	0x3e467aa7	0.19382726
49	0x3eab3962	0.33442217
50	0xbf1be145	-0.6089061
51	0xbf664bce	-0.8995942
52	0x3ead2154	0.3381449
53	0x3eadd753	0.33953342
54	0xbeb66fa0	-0.35632038
55	0xbf6e9e70	-0.93210506
56	0xbf5121ad	-0.8169201
57	0x3d1a2dc4	0.0376413
58	0x3eff3b9f	0.49850175
59	0x3e90e639	0.28300646
60	0xbd750859	-0.059822414
61	0x3f41675f	0.75548357
62	0xbdcdcea2	-0.10049178
63	0x3f09d0e5	0.5383437
64	0xbe9ef91f	-0.3104944
65	0xbe366399	-0.17811431
66	0x3e1cdb93	0.15318136
67	0x3bedddab	0.007259091
68	0xbfa4da04	-1.2879033
69	0xbf0253ee	-0.50909317
70	0xbe3eb9d6	-0.18625578
71	0xbeb8dfcd	-0.36108246
72	0xbf315359	-0.69267803
73	0x3cb667d1	0.0222663
74	0x3f9ce489	1.2257243
75	0x3e6ad389	0.22932257
76	0xbeb574b8	-0.35440612
77	0x3f132f66	0.574942
78	0xbda584ba	-0.08081956
79	0x3e8d0297	0.27541038
80	0xbe8ef3bb	-0.27920327
81	0xbd388500	-0.045048714
82	0x3e11bf26	0.14233074
83	0x3e6c852a	0.23097673
84	0xbe0d0d4b	-0.13774602
85	0xbf0bfe0c	-0.5468452
86	0xbe78943e	-0.242753
87	0x3e6d9f0e	0.23205206
88	0x3ee745bc	0.4517039
89	0xbf220161	-0.63283354
90	0xbe3e116f	-0.18561338
91	0xbd9c821f	-0.07642006
92	0xbeee229a	-0.46510774
93	0xbf1aaa8a	-0.6041647
94	0xbe6b0537	-0.22951208
95	0x3ec484f5	0.38382688
96	0x3ef6c2eb	0.48195586
97	0xbdea043c	-0.11426589
98	0x3e57caa6	0.21073398
99	0xbd8b3673	-0.06797495
100	0xbf4ea3dc	-0.8071878
101	0xbf3be808	-0.73400927
102	0x3d916d74	0.07100955
103	0xbe2f926f	-0.17145704
104	0x3ece30ad	0.40271512
105	0x3bd42601	0.006474257
106	0xbdb230f9	-0.08700747
107	0x3d48ecfa	0.049054123
108	0x3f112ed3	0.56712073
109	0xbe9527d7	-0.29131958
110	0xbe0c8387	-0.13722049
111	0x3eb929bc	0.36164653
112	0xbe0ef5b8	-0.13960922
113	0xbdf9e1eb	-0.122012936
114	0xbe3b0a3b	-0.18265621
115	0xbf1c3671	-0.6102057
116	0x3f277359	0.6541038
117	0x3f3f6564	0.74764085
118	0x3f172d63	0.5905363
119	0xbe5fdd0b	-0.21861665
120	0xbf2faac8	-0.68619967
121	0xbdfa2355	-0.1221377
122	0xbdf87d4b	-0.12133273
123	0x3e81b826	0.25335807
124	0xbdc613e0	-0.096717596
125	0x3da0ea24	0.07857159
126	0x3ee0ee00	0.4393158
127	0x3e1fa569	0.15590443
128	0x3f47cbfb	0.78045624
129	0x3f24381e	0.6414813
130	0xbf44cfee	-0.76879776
131	0x3fb93e45	1.4472128
132	0xbf1cd3f0	-0.6126089
133	0xbedbd473	-0.42935523
134	0xbf975876	-1.1823871
135	0xbea30324	-0.31838334
136	0x3c125cf7	0.008933297
137	0xbe005c23	-0.12535147
138	0x3e9f0480	0.3105812
139	0xbe2d9511	-0.16951396
140	0x3e267e70	0.1625917
141	0x3f306a5d	0.689123
142	0x3ef4186c	0.47674882
143	0xbccf1d9a	-0.02528267
144	0x3d3c6378	0.0459933
145	0xbcea661e	-0.028613146
146	0x3e93d23c	0.28871334
147	0x3eabd5b3	0.33561477
148	0xbf17bb0d	-0.5926979
149	0x3d74af6b	0.059737604
150	0x3eb1d484	0.3473245
151	0x3ed178f5	0.40912595
152	0x3c1f5441	0.009724678
153	0x3e71d1c5	0.23615177
154	0x3e3986da	0.18117848
155	0xbdd0986c	-0.10185322
156	0xbf8b7b83	-1.0897068
157	0xbe83370c	-0.25627935
158	0x3c59b0b7	0.013286761
159	0x3e6affb5	0.22949107
160	0x3ebcb558	0.36857104
161	0xbfa78a1a	-1.308902
162	0xbe34cdcf	-0.17656635
163	0xbec9eef0	-0.39440107
164	0x3e538c02	0.20658877
165	0xbe3a709b	-0.18207018
166	0xbea981cc	-0.3310684
167	0x3ef41e1f	0.4767923
168	0xbd2b05f7	-0.041753735
169	0x3d914809	0.07093818
170	0x3eff18ad	0.49823514
171	0xbedb74ef	-0.4286265
172	0xbf80a6a2	-1.0050852
173	0x3d213c85	0.039364357
174	0xbe2ae432	-0.16688612
175	0xbdfcd2ad	-0.12344871
176	0x3f0b4c8e	0.5441369
177	0x3f3c5ed6	0.7358221
178	0xbc3eb0a1	-0.011638791
179	0xbf00bb3b	-0.5028569
180	0x3df93683	0.121686004
181	0x3e6dbb70	0.23216033
182	0xbceb170e	-0.028697517
183	0xbf2fbb81	-0.68645483
184	0x3ddcd7de	0.10783361
185	0xbea2d7f3	-0.3180538
186	0x3f20a632	0.62753594
187	0xbee66be5	-0.45004192
188	0x3f49fa0f	0.78897184
189	0xbeff5331	-0.49868158
190	0x3ef1c5b7	0.47221157
191	0xbe94ec8e	-0.29086727
192	0xbed58502	-0.4170304
193	0xbc81ab19	-0.015828656
194	0x3ef21617	0.47282478
195	0x3e9b3126	0.30310935
196	0xbe578d5c	-0.21050018
197	0x3f890911	1.0705892
198	0xbe90907e	-0.2823524
199	0x3ece7996	0.40327138
200	0x3e4cfdf8	0.20018756
201	0x3e9cb7a8	0.3060887
202	0x4007ae7c	2.1200247
203	0xbee80773	-0.45318183
204	0x3da267c3	0.07929947
205	0x3ebbfe23	0.36717328
206	0x3f288f1a	0.65843356
207	0x3eb84362	0.3598891
208	0x3d63fadd	0.055659164
209	0xbb79c18b	-0.0038109745
210	0xbe842462	-0.25809008
211	0x3e6f9cdd	0.23399682
212	0x3f87d7db	1.0612749
213	0x3ea604bc	0.32425487
214	0xbf25c17f	-0.64748377
215	0x3ec68b70	0.38778257
216	0x3de1e6e6	0.110303685
217	0x3ea10424	0.31448472
218	0xbea89ea4	-0.32933533
219	0x3f4ec610	0.8077097
220	0x3a92dbba	0.00112044
221	0x3f325bd8	0.6967139
222	0x3ecb6018	0.3972175
223	0x3da6f0e0	0.08151412
224	0x3e053a95	0.13010629
225	0x3ddb837a	0.107184365
226	0xbe9718de	-0.2951116
227	0x3f61fb13	0.88273734
228	0xbe137ac6	-0.14402303
229	0x3eeadadf	0.4587011
230	0x3d37b1fb	0.04484747
231	0x3e554262	0.20826104
232	0x3d2f2ae6	0.04276552
233	0x3d5e6dd0	0.054303944
234	0x3f53c2d9	0.8271919
235	0x3f9fa973	1.2473587
236	0xbfa6d9e3	-1.3035244
237	0x3c873069	0.016502576
238	0x3f22e648	0.6363263
239	0xbe8b3612	-0.2718969
240	0xbf11a069	-0.5688539
241	0xbf45728d	-0.77127916
242	0xbe680e91	-0.22661807
243	0xbf658c14	-0.8966687
244	0xbe33ea6c	-0.17569894
245	0xbf083cd1	-0.532178
246	0x3ed3b718	0.41350627
247	0x3eb5dcef	0.3552012
248	0xbd9556bc	-0.07291934
249	0xbaf3a7ca	-0.0018589434
250	0x3e83af08	0.25719476
251	0xbf135c66	-0.57562864
252	0xbe8e0105	-0.27735153
253	0x3e275bf4	0.16343671
254	0xbebb509a	-0.36584932
255	0x3ee722ce	0.4514374

main.0.bias f4 [32]
0	0x3ea50f59	0.32238272
1	0x3ebaa185	0.36451355
2	0x3ed55abb	0.41670784
3	0x3ece956b	0.40348372
4	0x3cc03ae9	0.02346559
5	0x3e78a09a	0.24280015
6	0x3f04a628	0.51816034
7	0xbd8a2f65	-0.06747321
8	0x3e2ae36a	0.16688314
9	0xbd7c0fae	-0.06153839
10	0x3ee0769e	0.43840498
11	0xbe28c4f4	-0.16481382
12	0x3e00d4b7	0.12581144
13	0xbe336d57	-0.17522179
14	0xbea4dc0f	-0.3219914
15	0xbeee983c	-0.4660052
16	0x3dece21e	0.11566566
17	0xbe3cd89d	-0.18442006
18	0xbe8311cc	-0.25599515
19	0x3e2739f9	0.16330709
20	0x3f03e5e9	0.5152269
21	0x3e8e71f5	0.27821317
22	0x3eb8f593	0.36124858
23	0x3f214fff	0.6301269
24	0xbd8b4f20	-0.06802201
25	0x3ef7e8fd	0.48419943
26	0x3ee0a4c4	0.43875706
27	0x3f480060	0.7812557
28	0x3e83dfa5	0.25756565
29	0x3e9a8952	0.30182892
30	0xbe63501a	-0.22198525
31	0xbe6f16ff	-0.23348616

main.2.weight f4 [32, 32]
0	0xbee79f26	-0.45238608
1	0x3e9cd880	0.30633926
2	0xbf544499	-0.8291717
3	0x3dce7825	0.100815095
4	0x3e17bc4f	0.14817928
5	0x3dbb7811	0.0915376
6	0x3e947fd4	0.29003775
7	0x3edf4b26	0.4361202
8	0xbc1831f0	-0.00928925
9	0x3fc2bbfb	1.5213617
10	0x3cccc193	0.024994647
11	0xbf20aad2	-0.6276065
12	0xbeea688f	-0.45782897
13	0xbe858b0f	-0.26082656
14	0xbf1f6fb9	-0.6227985
15	0xbeba667b	-0.3640631
16	0xbebe05fc	-0.3711394
17	0xbe4642cb	-0.19361417
18	0xbf83063a	-1.0236275
19	0xbeb893b1	-0.3605018
20	0x3dc15af0	0.09441173
21	0x3ce4a19d	0.027909094
22	0x3e826009	0.25463894
23	0x3ef17834	0.4716202
24	0x3f1d4b0e	0.6144265
25	0x3e9f6ec8	0.31139207
26	0x3f139cb7	0.57661
27	0xbf007e50	-0.5019274
28	0xbeb6d197	-0.3570678
29	0xbefa7d6e	-0.4892382
30	0x3b34424a	0.0027505332
31	0x3b5161c6	0.0031949147
32	0xbdfe7ae9	-0.12425787
33	0x3e864040	0.26220894
34	0x3df32491	0.11872209
35	0xbea82d0b	-0.32846865
36	0x3e60eea8	0.2196604
37	0x3ec38c72	0.3819309
38	0x3cdde24f	0.027085451
39	0x3ea1e97b	0.31623444
40	0x3d921de5	0.07134608
41	0xbf391a34	-0.7230561
42	0x3ee207d1	0.44146588
43	0x3f28a0dd	0.6587046
44	0x3ef1bc14	0.47213805
45	0x3dc48886	0.09596352
46	0x3eff7e15	0.4990088
47	0x3f14199b	0.5785157
48	0xbeb2a34f	-0.3489022
49	0x3f048772	0.51769173
50	0x3eb582cf	0.35451362
51	0xbde3af3d	-0.111174084
52	0xbdbf740a	-0.093483046
53	0x3e77e103	0.24206929
54	0xbd3cfdab	-0.046140354
55	0xbe20f6c1	-0.15719129
56	0x3f00f477	0.50373024
57	0x3e433417	0.1906284
58	0x3e5d6c17	0.21623264
59	0xbd433ac9	-0.047663484
60	0x3ee333e6	0.44375533
61	0xbe33c7db	-0.17556708
62	0x3e0c8a0f	0.1372454
63	0xbdce445d	-0.10071633
64	0xbf0ea0fd	-0.557144
65	0xbe964ec1	-0.2935696
66	0xbe98684a	-0.29767066
67	0x3e8b0587	0.27152655
68	0x3e7083ec	0.23487824
69	0x3d8db5f3	0.0691947
70	0xbe866495	-0.26248613
71	0x3e37121e	0.17878005
72	0xbd684f40	-0.056716204
73	0xbd8c1b31	-0.06841124
74	0x3ec693af	0.3878455
75	0x3e989198	0.2979858
76	0xbcf80f4a	-0.030280728
77	0x3f0d4f46	0.55199087
78	0xbf04216a	-0.51613486
79	0x3e333e06	0.17504129
80	0xbf4caf84	-0.79955316
81	0xbecf2795	-0.40459886
82	0x3e2751aa	0.16339746
83	0x3e8c8abf	0.27449605
84	0x3f00b9ef	0.5028371
85	0xbf7cf7ed	-0.98815805
86	0xbf33376d	-0.7000645
87	0x3dda0771	0.106459506
88	0x3e1bb2f4	0.15204984
89	0xbd819830	-0.063278556
90	0x3e2d9bb3	0.16953926
91	0xbedb2ef9	-0.42809275
92	0xbe9833c2	-0.29726988
93	0xbef91b04	-0.48653424
94	0x3e833fdf	0.25634667
95	0xbd23cccc	-0.03999023
96	0xbf03cb3d	-0.5148199
97	0xbe8e3b94	-0.2777983
98	0xbf0d35b6	-0.5516008
99	0xbe1c983d	-0.1529245
100	0x3f836c01	1.0267335
101	0x3e9d2f90	0.3070035
102	0x3f3700b5	0.71485454
103	0xbedae313	-0.4275137
104	0x3f87fad5	1.0623423
105	0x3f358f30	0.7092161
106	0xbf41d6b4	-0.75718236
107	0xbebc2fd7	-0.3675525
108	0xbddb3857	-0.10704105
109	0xbe7f567a	-0.24935332
110	0xbf326757	-0.69688934
111	0xbf8b27d2	-1.0871527
112	0x3ecb518a	0.39710647
113	0xbf00bc6c	-0.5028751
114	0xbfd844fc	-1.6896052
115	0xbdc730f8	-0.09726137
116	0x3ef1ba8d	0.4721264
117	0xbd055d7b	-0.032559853
118	0x3f550a59	0.83218914
119	0xbebb652d	-0.36600628
120	0xbe12123e	-0.14264771
121	0xbddf31c0	-0.10898161
122	0xbd972486	-0.07380013
123	0xbe796f2f	-0.2435882
124	0xbf2934ba	-0.6609608
125	0xbaf88d8e	-0.0018963085
126	0xbf83b571	-1.0289747
127	0xbe167330	-0.14692378
128	0x3f292d8f	0.6608514
129	0x3dc31e85	0.095273055
130	0xbd4161ac	-0.047212288
131	0x3e9a4727	0.3013241
132	0xbe9f8b09	-0.31160763
133	0x3cc5b615	0.024134675
134	0x3ce3f469	0.027826505
135	0x3ebd4f4a	0.36974555
136	0x3c6c7c45	0.014433925
137	0x3e0fcf30	0.1404388
138	0x3e285aae	0.16440842
139	0x3e4923e7	0.19642602
140	0x3e59e475	0.21278556
141	0x3dbbca55	0.09169451
142	0x3ebc444d	0.3677086
143	0x3e656058	0.22400033
144	0xbdc64403	-0.09680941
145	0x3dd37296	0.1032459
146	0x3e5879cd	0.21140213
147	0xbdb16102	-0.08661081
148	0xbe9ae8c4	-0.3025571
149	0x3d484d92	0.0489021
150	0x3d350e55	0.04420312
151	0xbe7bca4f	-0.24588893
152	0x3f0d1145	0.55104476
153	0x3dce8dca	0.10085638
154	0x3f0f3945	0.5594676
155	0x3e0432af	0.1290996
156	0x3e558d1e	0.20854613
157	0x3e94a74b	0.29033884
158	0xbe0d5554	-0.13802081
159	0x3f188899	0.5958343
160	0x3f500910	0.8126383
161	0x3ef0d310	0.47036028
162	0xbe870923	-0.26374158
163	0x3ef2ab80	0.4739647
164	0xbed877b3	-0.42278823
165	0xbe229616	-0.15877566
166	0x3d5121bc	0.051057562
167	0x3e53956f	0.20662473
168	0xbd9cd1b2	-0.07657184
169	0xbe0ab86b	-0.13546912
170	0x3ce933a1	0.028467001
171	0xbd3678de	-0.04454886
172	0xbe736e37	-0.23772512
173	0x3eadd051	0.33947995
174	0x3f008051	0.50195795
175	0xbdd33d07	-0.103143744
176	0x3bf1c66a	0.007378389
177	0x3e864a32	0.26228482
178	0xbf002529	-0.500567
179	0xbe5b617c	-0.21423906
180	0x3deb75a0	0.114970446
181	0x3e1019ca	0.14072338
182	0xbc6bfea9	-0.014403977
183	0xbf022315	-0.5083478
184	0x3e4a5932	0.19760588
185	0xbee4497d	-0.44587317
186	0x3f26d9ec	0.6517627
187	0x3ed381e9	0.4131005
188	0x3e9a1058	0.30090594
189	0xbe390499	-0.1806816
190	0xbedf75ca	-0.43644553
191	0x3f155414	0.5833142
192	0xbe9c4bb6	-0.30526513
193	0x3e245a83	0.16050152
194	0xbd45392b	-0.048150223
195	0xbdb9c218	-0.090702236
196	0xbe0efadf	-0.13962887
197	0x3e44ddd7	0.1922525
198	0x3dc84e42	0.097805515
199	0x3e6b7642	0.2299433
200	0x3e5c55f9	0.21517171
201	0x3d39463a	0.04523299
202	0x3ec01ed2	0.37523514
203	0x3e341b66	0.17588577
204	0x3eb26fae	0.3485083
205	0x3f000865	0.5001281
206	0x3edc51c9	0.43031147
207	0x3edac35a	0.42727166
208	0x3e838dfe	0.2569427
209	0x3f3570a4	0.70875
210	0x3e4a7a87	0.19773303
211	0xbd5fa1d1	-0.05459768
212	0xbee9c2ee	-0.45656532
213	0x3eccc5e7	0.39994738
214	0x3d7adc51	0.061245266
215	0x3e58ac6b	0.21159522
216	0x3e8f2090	0.2795453
217	0xbba0c6c6	-0.004906508
218	0x3f272e24	0.6530478
219	0xbee6bb73	-0.45064887
220	0xbe430cc8	-0.19047844
221	0x3e2ba7ea	0.16763273
222	0x3e8a422d	0.27003613
223	0x3e125c55	0.14293034
224	0x3f2928fc	0.6607816
225	0x3e7b056c	0.24513787
226	0xbedac54e	-0.42728657
227	0x3f000503	0.5000765
228	0xbebcbb17	-0.36861488
229	0x3e1fd44a	0.15608326
230	0x3e095a9d	0.13413472
231	0x3eb87461	0.3602629
232	0xbeef4d83	-0.46738824
233	0x3e440696	0.19143137
234	0x3e9e422f	0.3090987
235	0x3d3087d3	0.043098282
236	0x3e440ab2	0.19144705
237	0x3eb044cd	0.3442749
238	0x3e9a5ab1	0.30147317
239	0x3e963976	0.29340714
240	0x3e8f46ac	0.27983606
241	0x3ea7019e	0.3261842
242	0xbd8f1245	-0.069859065
243	0xbb600b6c	-0.0034186495
244	0xbea0fc17	-0.3144233
245	0xbc98e43c	-0.018663518
246	0xbdd6de3c	-0.104916066
247	0x3e0db78f	0.13839553
248	0x3efe7741	0.4970036
249	0xbb3cb3e9	-0.0028793758
250	0x3f348e18	0.7052932
251	0xbe1d9618	-0.15389287
252	0x3d74ec0a	0.059795417
253	0x3dcc5cec	0.09978661
254	0xbdf3b678	-0.119000375
255	0x3ec2f2e5	0.3807594

main.2.bias f4 [32]
0	0x3ee96988	0.45588326
1	0x3e9bd352	0.30434662
2	0xbebba23b	-0.3664721
3	0x3ed654af	0.41861483
4	0xbc6c1409	-0.014409074
5	0x3e2f46de	0.17116877
6	0x3c68af4c	0.01420195
7	0x3da83760	0.08213687
8	0x3e46169d	0.19344564
9	0x3eaab757	0.33343002
10	0xbd9cef9e	-0.07662891
11	0x3e8143ca	0.2524703
12	0x3b8e5c21	0.0043444787
13	0xbe351c0c	-0.1768648
14	0x3e4ef325	0.2020994
15	0x3eaa21b2	0.33228832
16	0xbd0bf883	-0.034172546
17	0x3eb00a8c	0.34383047
18	0xbe01f6e5	-0.12691839
19	0x3c877558	0.016535446
20	0x3dafcef8	0.08584398
21	0x3e200c0c	0.15629596
22	0x3e7cad7d	0.24675556
23	0x3d84a59b	0.06476899
24	0x3e7470a5	0.23871095
25	0x3ea750c2	0.326788
26	0x3e8ad748	0.27117372
27	0x3ea10bfb	0.31454453
28	0xbe0df965	-0.13864668
29	0x3da42b83	0.08016112
30	0x3e84f442	0.25967604
31	0x3e83568a	0.25651962

main.4.weight f4 [4, 32]
0	0x3fa7f307	1.3121041
1	0xbe9a1f14	-0.30101836
2	0xbe9f22c7	-0.3108122
3	0x3ff847ad	1.9396874
4	0xbe844ef5	-0.2584149
5	0xbf707929	-0.93934876
6	0xbf2aac1c	-0.6666887
7	0xbed38b56	-0.41317242
8	0xbee05e04	-0.43821728
9	0x3f75e98d	0.96059495
10	0xbf4af587	-0.79280895
11	0x3e2ecf23	0.17071204
12	0xbe8c2e75	-0.27379194
13	0x3bf409a0	0.0074474365
14	0x3f6ea19c	0.93215346
15	0xbe0d5137	-0.13800512
16	0xbf0e33f9	-0.55548054
17	0xbf131b65	-0.57463676
18	0xbdd0d5d3	-0.10197034
19	0xbe98e3da	-0.29861337
20	0xbf0e2fa8	-0.5554147
21	0xbe23c67a	-0.15993682
22	0x3f037a2e	0.51358306
23	0x3f57aa7d	0.8424452
24	0xbf18b02d	-0.5964382
25	0x3f8fe363	1.1241268
26	0xbe6550eb	-0.22394149
27	0x3f796ef7	0.97434944
28	0xbe28deae	-0.16491196
29	0xbefec1b8	-0.4975717
30	0x3f9c3380	1.2203217
31	0xbe5a9144	-0.21344477
32	0x3fab9da3	1.3407482
33	0xbe87ff91	-0.2656217
34	0x3dd3d18c	0.10342702
35	0x40005566	2.0052123
36	0xbeb18f89	-0.3467982
37	0xbe6c0477	-0.23048578
38	0xbdff8d96	-0.12478177
39	0xbec46bd3	-0.38363513
40	0xbec2fe51	-0.38084653
41	0x3f8bdba0	1.0926399
42	0xbf0b815d	-0.5449427
43	0xbf02c759	-0.5108543
44	0xbe3343ac	-0.17506284
45	0xbdaba79d	-0.08381579
46	0x3f22c2c0	0.63578415
47	0xbe955009	-0.29162624
48	0xbec16f90	-0.37780428
49	0x3e8cf709	0.27532223
50	0x3dbb8031	0.0915531
51	0xbed2aa3e	-0.4114551
52	0xbeebadd6	-0.46031064
53	0xbea71479	-0.32632807
54	0x3f608055	0.8769582
55	0x3f951b3b	1.1648935
56	0x3e082229	0.13294281
57	0x3f4b895e	0.7950648
58	0xbe653dc3	-0.22386841
59	0x3f705786	0.9388355
60	0xbf11d818	-0.5697036
61	0xbf11f647	-0.57016414
62	0x3f98e069	1.1943485
63	0xbe7933b2	-0.24336126
64	0x3fcd10cb	1.602075
65	0x3c9588fd	0.018253798
66	0x3f39fdb8	0.7265277
67	0x3fe29d8d	1.7704331
68	0xbeba37d5	-0.3637072
69	0xbed7ae4c	-0.42125165
70	0x3c1acfbf	0.009448945
71	0xbf102aac	-0.5631511
72	0xbc255e42	-0.010093274
73	0x3f809296	1.0044734
74	0xbf1d5c48	-0.61468935
75	0xbe2ed265	-0.17072447
76	0xbe07831c	-0.13233608
77	0x3dfb6370	0.122748256
78	0x3fa45429	1.2838184
79	0xbe98eb96	-0.29867238
80	0xbe2a9228	-0.16657317
81	0xbf9bc882	-1.2170565
82	0x3d139434	0.03603001
83	0xbe8e6cc7	-0.27817366
84	0xbf047ef5	-0.5175622
85	0xbeecbd53	-0.46238193
86	0x3e0767d6	0.13223204
87	0x3f80d231	1.0064145
88	0xbe81888d	-0.25299492
89	0x3f5b8671	0.85752016
90	0xbe5fdef9	-0.21862401
91	0x3f9e33ed	1.2359596
92	0x3c80aa68	0.015706256
93	0xbf75dfcd	-0.9604462
94	0x3f69239d	0.91069967
95	0xbe994514	-0.29935515
96	0x3fa4e46a	1.2882206
97	0xbec54896	-0.3853194
98	0xbf573b89	-0.8407522
99	0x3ff2c656	1.8966777
100	0xbdb07539	-0.086161084
101	0x3c89f076	0.016838294
102	0x3d8d4a5d	0.06898949
103	0xbe68e66a	-0.22744146
104	0xbc8aa8e8	-0.016926244
105	0x3f8d24c7	1.1026849
106	0xbf1eb4a6	-0.619944
107	0xbe40092c	-0.18753499
108	0xbebeb085	-0.3724405
109	0x3d8d4d1c	0.06899473
110	0x3f4a8470	0.79108334
111	0xbee94cfd	-0.4556655
112	0x3de148bb	0.110002
113	0xbf15c623	-0.5850546
114	0x3ddb7232	0.107151404
115	0xbd75525a	-0.05989299
116	0xbf3287f6	-0.6973871
117	0xbec6cdba	-0.38828832
118	0x3f851359	1.039653
119	0x3f44bd3b	0.7685124
120	0xbd66549a	-0.056233026
121	0x3f9b1314	1.2115197
122	0xbf0d403d	-0.55176145
123	0x3f309087	0.6897053
124	0x3f3c7587	0.7361683
125	0xbf66c6bb	-0.9014699
126	0x3f8f16f0	1.1178875
127	0xbf10a950	-0.5650835

main.4.bias f4 [4]
0	0xbd757d01	-0.059933666
1	0x3d843df3	0.064571284
2	0x3d0716fb	0.0329809
3	0xbda31941	-0.07963801
