log/dqn/best_model.pth (torch, 7895 bytes, 6 tensors)

main.0.weight f4 [32, 8]
00000000: 2e39 9fbd 84ec 26be f448 943e e800 4ebc
00000010: da88 c33c 7cff b23e 3a0b 053f 660c 54bd
00000020: bd8b 39bc aae7 bebe 0711 51be e097 76be
00000030: f80c ddbe a0c3 a1be 3447 333e f76d fcbd
00000040: 2ba4 09bc 95b6 ecbe 299d e43d e91e 4bbe
00000050: 7981 bcbd 132f 9abe 4966 52be e7f2 dd3e
00000060: 3238 63be 4599 b83e b5ad 4cbe 6233 51be
00000070: ea03 21bc fbaa ca3e 0c0a fc3e ba46 e83d
00000080: b97e a23e 94db 9ebe 3666 96bd 7349 943d
00000090: 2547 a6bd 9cfd b53e 37a4 55be d6c9 05be
000000a0: d31b dd3d 0ebe 7f3e e234 3c3e df9a 8cbd
000000b0: f566 e93d 5f20 793e b672 1f3d 388e b13e
000000c0: 78f4 8bbe c605 de3e 2f28 943e bc87 bdbe
000000d0: cf73 ba3e 2c9f 99bd 73f0 84be b1e5 ffbe
000000e0: 0741 693e 6fe6 c0bd 9a30 ef3d 0410 023e
000000f0: 2062 a9be 9110 ac3d b650 e9bd 5cbc 80be
00000100: 85dc a7be 749c e43c 2d43 59be db59 1e3e
00000110: d747 c43e e316 fa3e c416 44be 869c a63e
00000120: 325f 9d3e a3db 9d3c a097 6a3e 3556 09bf
00000130: e240 61be fdc3 efbe 5906 04be 7b87 f03e
00000140: 7a07 32be 7398 093f 264d 75bd 50e4 d33e
00000150: 4ed7 a63e 89f7 573e 3e93 2dbe e158 7c3e
00000160: 2e59 97be 544e 25bf 10cb 253e 2cc6 c8be
00000170: f0e5 013e ad1e 8ebd fd7e 053f 59c5 c8bd
00000180: 611c a2bd d44d a9be 99f4 a23e 1582 0f3e
00000190: 960d e1bd 3e57 93be b2c2 67bd f0aa b0be
000001a0: 85e1 353e 5f4c 1b3e a6b3 fb3d 5079 283d
000001b0: f048 0a3e 0d68 963e 22b9 d73e d318 003f
000001c0: a292 ba3e 8f94 18bf 6e17 18be c7b7 163d
000001d0: 9082 40be a32d 8b3c 0b75 893e 99ee 9a3e
000001e0: 33ce d1bd 6170 863e 7506 623e bc5e 0d3e
000001f0: a3bf 02bf e3cf 05bf fbf4 acbe d794 eebd
00000200: b783 43be 1bc8 5fbd 524c d73d 471a 3d3e
00000210: 2e96 963e 1922 9b3e 0fa5 32bd 11a1 9abe
00000220: cbbb 3c3e af57 dbbe 9e6a 5abe 45ad 11be
00000230: ca31 20be f65b d43e 72fe 67be a516 cebe
00000240: b260 3a3e 3cb2 abbe 4f1c a1be 9aa2 48be
00000250: ca9c 5abd 5474 873e 6b10 89bc 660a 81be
00000260: 2e40 29be e8b4 9a3e 6fd9 093d 25b1 bcbe
00000270: 46c7 81be 5edc 963c 5ec2 d3be ed39 77be
00000280: ccb1 553e 7fec 07bf 63fe 843e e7bf 53be
00000290: e6b0 4b3d abd2 8bbb 731b cc3e e97e 8b3e
000002a0: 5549 d83d afc6 1c3e 8ce4 b33e 9e33 3e3e
000002b0: 48e3 c8be 811d 05bf 0b10 5f3e a532 9c3e
000002c0: c5b1 39be 7f71 82be d95b 9a3e c088 3cbd
000002d0: 3c52 bfbe e2c7 53be bac1 f23e 1f80 483e
000002e0: f731 c5be d1ad e2be fe76 b4be bca1 623d
000002f0: 122d 9c3e 4289 b43d d95b fa3e b3e2 143f
00000300: 2f33 66be 5569 0bbf 67eb 92ba 7c2c 313d
00000310: ab6b 3bbc 2eee d33d 7533 1f3f 636a cc3e
00000320: 9940 0fbd 5f90 debe 504c 783d 08d8 2ebe
00000330: 1c82 b23e c7b1 d53e 8685 103f f6fd 0f3f
00000340: 7f3f 363c 2be7 aa3e 2fad 823e 2f7d 803d
00000350: 6d21 9c3e d0f6 a0be 0f29 8b3c 2db1 73be
00000360: 4ffa c4be f4a4 84bd 68a4 e3be f5fe a93d
00000370: e6a5 623d 601c 583b ef72 b43e e48d e03e
00000380: ca81 cebd 7e85 b93c 8b14 0b3e 7028 66be
00000390: 13d8 bf3e 5473 563e 790e 9d3e 4078 a03e
000003a0: 759e 2f3e 4654 833d b071 cebe f338 f0bd
000003b0: af5e 2b3d e5bf ce3e 9123 1f3e 4317 e33e
000003c0: 5f6d 833e 0dd7 6ebe 809c 02bd 4417 1a3e
000003d0: fbb6 4abb 8c93 163e 737b 8cbd 1d53 f03e
000003e0: 0075 ac3e ef24 02bf f4d7 793e b2e5 da3c
000003f0: 2458 eebe 0178 b83d 3ab4 793e c2a4 24be
-0.07774578 -0.16301161 0.2896191 -0.012573458 0.023868967 0.34960544 0.51970255 -0.051769637
-0.01132482 -0.3728612 -0.20416652 -0.24081373 -0.43173957 -0.31594563 0.1750763 -0.12325662
-0.008400957 -0.4623305 0.111627884 -0.1983601 -0.092043824 -0.3011404 -0.20546831 0.43349382
-0.22189406 0.36054435 -0.19988139 -0.20429757 -0.009827593 0.39583573 0.49226415 0.11341615
0.31737307 -0.310269 -0.07343714 0.07240572 -0.081190385 0.3554505 -0.20863424 -0.13065276
0.10796323 0.24974844 0.18379548 -0.06865477 0.113965906 0.24328755 0.038927756 0.34678817
-0.27334952 0.4336378 0.28936908 -0.3701762 0.3641648 -0.07501063 -0.25964698 -0.49979928
0.22778712 -0.09418952 0.11679192 0.12701422 -0.33082676 0.08401597 -0.113923475 -0.25143707
-0.3278543 0.027906634 -0.21217032 0.15463965 0.3833606 0.48845586 -0.1914931 0.32541293
0.3073669 0.01926977 0.22909403 -0.53647166 -0.21997407 -0.46829215 -0.12893046 0.46978363
-0.17385665 0.53748244 -0.059888028 0.41385126 0.3258614 0.21090521 -0.169507 0.2464328
-0.29560226 -0.64572644 0.16190743 -0.39213693 0.1268537 -0.06939445 0.52146894 -0.09803266
-0.07915569 -0.3306719 0.31827238 0.14014466 -0.109889194 -0.28777498 -0.05658216 -0.34505415
0.1776181 0.15165852 0.122901246 0.041131318 0.13504386 0.2937626 0.42133433 0.5003788
0.36439997 -0.5960168 -0.14852688 0.036796357 -0.18799806 0.016989535 0.2684711 0.3026016
-0.102444075 0.26257613 0.22072776 0.1380567 -0.51073664 -0.52270335 -0.33780655 -0.11649483
-0.19093214 -0.054634195 0.10512604 0.18467055 0.29411453 0.30299452 -0.043614443 -0.3020101
0.18431012 -0.42840335 -0.21329734 -0.14226253 -0.15643993 0.4147641 -0.22655657 -0.4025165
0.18200949 -0.3353442 -0.3146691 -0.19593278 -0.053372182 0.2645594 -0.016731462 -0.25203246
-0.16528389 0.30216146 0.033654626 -0.368539 -0.25347346 0.018415626 -0.41359228 -0.2414319
0.20868605 -0.5309524 0.25975332 -0.20678674 0.04972925 -0.004267057 0.39864692 0.27245262
0.10560862 0.15310167 0.35135305 0.18574378 -0.39235902 -0.51998144 0.21783464 0.3050739
-0.1813422 -0.25477216 0.301482 -0.046028852 -0.37367427 -0.20681718 0.47413427 0.19580124
-0.38514683 -0.44273236 -0.35247034 0.055330023 0.30503136 0.08815242 0.488982 0.58158416
-0.22480462 -0.544576 -0.0011209071 0.043255314 -0.011439244 0.103481635 0.6218789 0.39924917
-0.034973715 -0.4346952 0.060619652 -0.17074597 0.3486489 0.41737196 0.5645374 0.5624689
0.011123537 0.33379492 0.25522754 0.06273877 0.30494252 -0.31438303 0.016987352 -0.23798056
-0.3847222 -0.06476775 -0.4446137 0.08300582 0.055333994 0.0032975897 0.35243937 0.43858254
-0.10083349 0.022646662 0.13582055 -0.22476363 0.3746954 0.20942432 0.30675104 0.31341743
0.1715029 0.06412558 -0.40321112 -0.11729612 0.041838344 0.4038078 0.15540911 0.44353685
0.2566938 -0.23324223 -0.03188753 0.15047938 -0.0030931819 0.14704722 -0.068594836 0.4693841
0.33683014 -0.50837606 0.24398786 0.026720855 -0.4655162 0.09007264 0.24385157 -0.16078475

main.0.bias f4 [32]
00000000: 2907 393c d879 17be c336 eebd 4a8e 953e
00000010: 3036 483e fb60 f4bd ce74 523c 1c48 073e
00000020: b919 273e 0679 cd3d e2f9 f0bd 9577 7a3d
00000030: 41b8 49be e2e3 863d bbf6 b63e ddc8 2ebe
00000040: 2f89 b6bd 9c14 2bbd 63a3 e4bd 2192 c5bd
00000050: f7ef 38bc 55cd e3bc 4c1b 853e 99e9 c63e
00000060: 5853 ab3e 7bd8 833e 5092 993e 859f 0b3d
00000070: 6f9d 4dbe f34b 9ebd 1cf8 963e b592 7a3e
0.011293211 -0.14792573 -0.11631539 0.2921012 0.19551921 -0.1193256 0.012845231 0.13211101
0.16318406 0.10032849 -0.11766411 0.0611492 -0.19699194 0.06586434 0.35735115 -0.17068811
-0.089128844 -0.0417677 -0.11163976 -0.096470125 -0.011287681 -0.02780787 0.25997388 0.38850096
0.33462024 0.257511 0.2999444 0.034087677 -0.20079587 -0.0772933 0.29486167 0.24470027

main.2.weight f4 [32, 32]
00000000: 82f5 81bc 90f0 cdbc 0e20 c3bd 5544 3f3d
00000010: 7424 a43d 7182 b2bc fce8 21be 375e 653d
00000020: e3b8 d1bc ec8f 0ebe fa7a 2abe 8620 d2bd
00000030: ca8d d93d 036b 993d 24f7 f73d e7ce 03be
00000040: 7d45 be3b ceca 96bb b7a6 b8bd 2618 a93d
00000050: 07d7 18bc c82a 11be 32e2 bdbd 3b57 1ebe
00000060: c37e 823d a900 12be e2cc a1bb 7ff8 01be
00000070: 03ae f3bd 5ad2 ebbc e055 9a3d 9e96 593d
00000080: 3bcc 073e 3e59 293e d07b ca3e 42dd 13bd
00000090: 8f7a 1e3d 1a12 243d 028d d3bd 9ded ee3d
000000a0: 72a9 3c3e 020b 1c3d 67f7 7cbd 7576 073e
000000b0: 7c6e 6d3e 6130 333e ba78 f43d d7c9 923e
000000c0: 011b 103e 062a 003d 97ba 3a3e 38d9 77be
000000d0: f19b 993d e31c be3e 177d bd3e 1a9a 883e
000000e0: 0a1f a73e 6c03 533e dfea 0bbe 9fec 9b3e
000000f0: 17bf 64bd 3eb7 b93e 4d7b 353e a101 953e
00000100: 2a5e 333e ca7a 2d3e b630 e23d 0b43 db3b
00000110: 275b deb8 bcb5 743d 7c9e 92be 1cfe 313e
00000120: dd4e dc3c f34f 473d f2be adbb 880b 193e
00000130: 6f41 653c 14c0 c23d e94f ab3e 16a3 b13e
00000140: d7dc b33d c9f2 803c d7ed 2abd 5be8 12be
00000150: 8a76 a73e 35c6 743e 71c8 9a3e daa4 473e
00000160: 9bb8 153e 4554 053e 4954 02be 911e 263e
00000170: c650 603e b989 563e a152 e33d 1f91 f7bc
00000180: fa46 89bd dd64 48be 2f4a 05bd ac0d c73d
00000190: c1f5 3dbd ddd9 0abe 8104 073e 6662 743d
000001a0: 1b26 973d 9303 87bd d3e3 c43b 7827 803d
000001b0: 042a 50be 8392 4f3e bde0 813e 3cb8 3c3e
000001c0: b5ab 1ebe 70ff 03bb 6851 de3d 2bcf 00bc
000001d0: 1323 86bd 0084 3bbc 3701 983d c0a0 b93c
000001e0: 3bf6 0c3e 340d b13d a018 58bd 5e24 383e
000001f0: 33c5 ad3d 3864 603d a613 ba3c 355b f2bc
00000200: c8ce 4abd 6599 e4bc 46c9 96bd e7a6 d03d
00000210: b218 bfbd f430 f93d 5a8a cf3d c9b6 b2be
00000220: 0402 5d3d ba0a 90be 97b1 c73d 905e babd
00000230: 46ac 7cbd c85e 543e e72d 7fbc 553b acbe
00000240: b689 ffbd 1e82 aabd 2808 8ebd 7bc6 18bd
00000250: 948b f3bc 43e1 bbbe fd67 f03d 06b8 04bd
00000260: f294 ed3b c2b5 2f3b cf10 0dbd e1c4 563e
00000270: 8167 b5bd e5e0 ae3e 3715 22be ce05 afbc
00000280: 5264 323c 9f1c 00be c02e 503c dd1e cb3d
00000290: eb91 833c d079 b0bd 914b 15be ab3b 17be
000002a0: bf67 293d 4024 86bc f317 aebd fd59 a83d
000002b0: e82a f13c a717 d93d b675 64bc 832f 1fbe
000002c0: 44d9 fb3c f39a 023e 0425 03be b8d7 093e
000002d0: 3bd2 35be d48b ecbd 6a6f 213b ce5f ef3c
000002e0: f7d4 00be 8b2d 783b 9858 0abd eccc 1d3d
000002f0: 1db6 3abe ef87 20be 7d57 023e f8f7 813d
00000300: 08dc 8fbb 1639 3f3e f42a a93e c783 e83d
00000310: 7396 ccbd ff4d 2f3e c9c6 b4be 34b8 0bbd
00000320: 20d8 46be 7c45 003e 48af b63d 6dc8 aa3d
00000330: 0d9b 4cbc b9a1 333e dab0 2c3e 6589 303e
00000340: 69df 1cbd 51e8 1d3d 057e b6bd 68f0 96be
00000350: 822d 743e 423b a13e e558 993e c010 8c3c
00000360: 82d9 913e f680 303e aaf7 e13d 5468 5a3e
00000370: a80d 2bbd 432d 6b3e cbda f3bd 64c5 a3bb
00000380: 521a 803d ff2c a83c ada9 1b3e 7429 bdbd
00000390: 62b9 61bd b0b0 db3b 0f6d 2d3d 332e 5c3e
000003a0: 9ac1 8dbc 7377 c8bc 5585 8d3d 9f21 5c3e
000003b0: 3f49 2f3e ea2b bf3d 6a1a 3a3e 6e5e e83d
000003c0: e6f5 133e a527 3f3e 88a5 f13d 582b 22be
000003d0: 7b74 c53d 1737 343e 8e76 f73d 241b 523c
000003e0: 74d0 733d 1f00 983d 084e 3d3e 528b 9a3d
000003f0: 2558 5fbd aded 45be 5640 17be 7ef8 8b3e
-0.015864138 -0.025139123 -0.09527598 0.046696026 0.080147654 -0.021790715 -0.15811533 0.055998053
-0.025600856 -0.1392209 -0.16648474 -0.102601096 0.10622747 0.07491114 0.12107685 -0.12871896
0.0058066235 -0.004601813 -0.09016173 0.08256559 -0.00932861 -0.14176476 -0.09271659 -0.15462963
0.06371834 -0.14258064 -0.004937754 -0.1269245 -0.118984245 -0.028786827 0.075359106 0.053122155
0.13261501 0.1653795 0.39547586 -0.03609968 0.0386911 0.040056325 -0.103296295 0.11666415
0.18424013 0.038096435 -0.06175938 0.13228782 0.23186678 0.17498924 0.11937089 0.28669617
0.14072801 0.031290077 0.18235241 -0.24203956 0.075004466 0.37131414 0.37009498 0.2668007
0.32640868 0.20606774 -0.13663815 0.30453965 -0.0558463 0.36272615 0.17722817 0.29102805
0.1751639 0.16941372 0.11044447 0.0066913418 -0.00010602763 0.059743628 -0.2863654 0.17382091
0.026893074 0.04866023 -0.0053023035 0.14945805 0.013992651 0.09509292 0.33459404 0.34694737
0.08782356 0.015740769 -0.041730728 -0.14346449 0.32707626 0.23903735 0.3023105 0.1949648
0.14621203 0.13020428 -0.12727465 0.16222598 0.21905813 0.20950975 0.110997446 -0.030220566
-0.06702991 -0.19569726 -0.03254145 0.097194046 -0.046376947 -0.13559671 0.13185312 0.059664153
0.07380315 -0.065924786 0.006008604 0.06257528 -0.20328528 0.20270734 0.25366774 0.18429655
-0.15495189 -0.0020141266 0.10855371 -0.007861893 -0.065496586 -0.0114450455 0.07422107 0.02265966
0.13765804 0.086450964 -0.05275786 0.17982623 0.084848784 0.054783076 0.022714447 -0.029584507
-0.04951361 -0.027905175 -0.073626086 0.10188084 -0.09330882 0.1216754 0.1013381 -0.3490508
0.053957 -0.28133184 0.097506694 -0.091000676 -0.06168773 0.20739281 -0.015574909 -0.33639017
-0.12477438 -0.08325599 -0.069351494 -0.03729866 -0.029729642 -0.366953 0.11738584 -0.03240206
0.0072504217 0.0026811217 -0.034439858 0.20973541 -0.088576324 0.34155956 -0.15828405 -0.021365073
0.010888176 -0.12510918 0.012706459 0.09917996 0.01606079 -0.08616984 -0.14579608 -0.14768855
0.041358706 -0.016374707 -0.08500662 0.08220289 0.029439405 0.106002145 -0.01394408 -0.15545468
0.030743249 0.12754421 -0.12807089 0.13461196 -0.17755978 -0.115501076 0.0024633058 0.029220488
-0.1258124 0.0037868943 -0.033775896 0.038525507 -0.18233533 -0.15676855 0.12728687 0.063461244
-0.0043902434 0.1867412 0.33040583 0.113532595 -0.099896334 0.17119597 -0.3530791 -0.034111217
-0.19418383 0.12526506 0.08920151 0.083390094 -0.012488139 0.17542161 0.16864339 0.17239912
-0.038298998 0.038551632 -0.08910755 -0.2948029 0.23845485 0.31490523 0.29950634 0.01709783
0.28486258 0.17236695 0.11033566 0.2132886 -0.04176107 0.22966485 -0.11906966 -0.004997896
0.0625502 0.020529268 0.15201445 -0.09236422 -0.055108435 0.0067044124 0.042340335 0.21501999
-0.01730423 -0.02447102 0.06910197 0.214972 0.17117785 0.09334548 0.18174139 0.11346136
0.14449272 0.18667467 0.11799151 -0.15836847 0.096413575 0.1759914 0.120831594 0.012823854
0.05952497 0.07421898 0.18486798 0.075461045 -0.05452742 -0.19328947 -0.14770636 0.27338022

main.2.bias f4 [32]
00000000: 8916 25be fe4b f83d 7549 ec3d 74b6 d6bd
00000010: b5ff 76bd 2c54 3bbe feb6 b73d 9a04 7d3d
00000020: 2512 63bd 4988 c13d f156 83bd 1142 02be
00000030: 2814 2fbd efe0 983d 6980 d83c b4c4 1a3e
00000040: eec6 a93d 3b22 56bc 1a33 133e 75ac 85bd
00000050: 4a96 27be 1a21 4cbd 0bcd ec3d acf2 373e
00000060: 7cbb 8dbd e09e 25be 5705 f73d 6621 9cbd
00000070: 8a03 99bd 8d2b 353e fe27 4c3e 30a3 cebc
-0.16121878 0.12123869 0.11537448 -0.10484019 -0.060302455 -0.18293828 0.0897045 0.061771967
-0.055437226 0.094498225 -0.06413067 -0.12720515 -0.042743832 0.07464778 0.026428418 0.15114099
0.08289896 -0.013069685 0.14374962 -0.06527034 -0.16365924 -0.049836256 0.11562546 0.17963666
-0.069205254 -0.16173887 0.12061565 -0.07623558 -0.07471378 0.17692395 0.19937131 -0.025224298

main.4.weight f4 [4, 32]
00000000: d6a5 20bd 7237 2bbe 1796 e9bd fb12 a0ba
00000010: c253 3abe 8cea 043e 18a7 95bd 2d1a 893d
00000020: 4384 78be bc55 a2bd 4334 2cbe caf7 0d3e
00000030: 457a 5cbe d011 c0be e812 67be efae b13e
00000040: 4825 98be f01d 83be 402b 06be 1ee7 07be
00000050: a813 373d 8bb0 3cbe a2a9 38be ac79 bf3e
00000060: e17e 3fbe 4f46 debd f6fb 113e 18a2 2ebd
00000070: 36ba 6bbd 5cc4 29bd 8fa6 5abe 8af9 acbd
00000080: 5a5f fabd 1009 64be f68c a3be 10d8 08be
00000090: 2bc9 85be 437d 33bd 8858 2dbe e42d d83c
000000a0: 509a c7bd 9363 b63c 0282 93be 8319 72bd
000000b0: 52ed 79be f441 99be 6be7 58be 4a42 a93e
000000c0: c102 8dbe 72ed 3d3d 7d02 583d c3ab e43d
000000d0: 2b8c 0a3e 5a08 7ebe af9d f4bd 2590 003f
000000e0: 05ea 71be e830 dd3c 938e 11be a00f cebb
000000f0: a03b 83be 2933 cabd efc2 4fbe 0b70 7bbd
00000100: 0ad4 023e 7ee6 47be f8fb abbe c7b6 03be
00000110: bd4c 49be e564 8f3c bcd3 77be cf11 94be
00000120: ebbc 89be fc03 41be 6420 4abe bbaa 95bd
00000130: 3cea d2bd 430a 59be 827d 4ebd 7e27 153f
00000140: 9e5c 54be dd51 81be 3e1a 8fbe ab64 aabb
00000150: d820 babc a6b0 9ebe 2663 3cbe bc84 e73e
00000160: 4e17 a4bb 65e4 b13d 443d a9bd 0a55 803d
00000170: f4d3 45be 4607 22be 61d7 1dbe 26be 43be
00000180: 0f61 213d d8ad dbbd 379d a2be 2f2f a7bd
00000190: 6096 693d eac9 113e 26a8 a5be 7280 f7bd
000001a0: 494f 90be af43 14be 69c1 88be 77d3 5ebe
000001b0: a1ee 04be ba2f 3fbe 782e 7ebe d475 423e
000001c0: c033 09be 8213 23be 70bc 9abe 67cd 8dbd
000001d0: 0cfe 8e3d e7a0 d9bd 6ff7 d0bc a864 e13e
000001e0: 5c70 64be 7972 70be 954e 9d3d d02a 733d
000001f0: 2fe4 edbc fc75 90be 6a5a 77be 0ef5 2abe
-0.039220653 -0.1672037 -0.114055805 -0.0012212688 -0.18196014 0.12980098 -0.07307261 0.06694446
-0.24269204 -0.07926509 -0.16816811 0.13864055 -0.21531017 -0.3751359 -0.22565806 0.34703776
-0.29715943 -0.25608778 -0.13102436 -0.13271758 0.04469648 -0.18426721 -0.1803346 0.37397516
-0.18700744 -0.10853254 0.14256272 -0.042635053 -0.05755063 -0.04144703 -0.213526 -0.08446033
-0.12225218 -0.22269082 -0.31943482 -0.13363671 -0.2613004 -0.04382063 -0.16928303 0.02638907
-0.0974623 0.022264278 -0.28810126 -0.05910636 -0.24406937 -0.2993313 -0.21182029 0.33058387
-0.27541164 0.046369024 0.052736748 0.111655734 0.13530032 -0.24807873 -0.11944138 0.5021995
-0.23624428 0.02700086 -0.14214544 -0.0062884837 -0.25631428 -0.09873039 -0.20289205 -0.06138615
0.12776199 -0.1952152 -0.33590674 -0.12862693 -0.1965818 0.017504165 -0.24201864 -0.28919837
-0.26901945 -0.18849176 -0.19738919 -0.07307955 -0.10298583 -0.21195321 -0.050412662 0.58263385
-0.20738456 -0.2525777 -0.2794971 -0.005199989 -0.02272074 -0.30994147 -0.18397197 0.45218456
-0.005007661 0.08686141 -0.082636386 0.0626622 -0.19319135 -0.15823087 -0.15414192 -0.19115505
0.039399203 -0.107265174 -0.3176057 -0.081632964 0.057028174 0.1423718 -0.3235485 -0.12085046
-0.2818549 -0.14478944 -0.2671006 -0.21760355 -0.12981655 -0.1867055 -0.24822414 0.1899026
-0.13398647 -0.1592541 -0.3022189 -0.06923943 0.06982049 -0.10626393 -0.02550861 0.44022107
-0.22308487 -0.23481168 0.07681004 0.059367 -0.02903947 -0.28215015 -0.24155584 -0.16695043

main.4.bias f4 [4]
00000000: 5bb9 babd 96bd bebd b80a 353d 9a57 903d
-0.09117385 -0.093135044 0.044199675 0.07047959
