log/dqn/best_model_dd.pth (torch, 7895 bytes, 6 tensors)

main.0.weight f4 [32, 8]
0.025213223 0.30842292 0.9158655 -0.63579094 -0.83310163 0.24070346 0.092084646 -0.051806416
0.01568316 0.54753375 -0.70947737 1.2131405 -0.7829599 -0.5823107 -0.09382153 -0.121497184
0.103517905 0.31358176 -0.49561343 -0.25522712 0.24331523 -0.5645363 -0.73650575 0.44405708
0.67296904 -0.11006683 0.074465744 -0.236896 -0.28956595 -0.29741502 0.3950491 0.2281281
-0.5564012 0.29791278 -0.4153243 -0.55505836 -0.34176812 1.2695484 0.11328994 -0.03970574
-0.13953668 0.6808477 0.13783936 0.4136093 -0.92484677 -0.19171642 0.20321575 -0.7998396
0.073707856 0.42655683 -1.133569 -1.1045465 0.6708714 -0.10470458 0.08024617 -0.030852506
0.19395392 0.036217682 0.686783 -0.6215153 1.6204933 0.38662374 0.0072000492 0.55045104
-0.10549227 -0.77466464 -1.0725952 -0.5434002 0.67178446 0.13495299 0.22832052 0.14231585
-0.1708067 -0.29049525 1.1108888 1.1519606 -0.04380318 0.45620352 0.4107918 0.2795436
0.045732643 -0.35284045 -0.1952838 -1.3065523 0.20593409 0.27166998 -0.03532161 -1.1066412
0.050168 -0.080566816 -0.4489573 -0.5291891 0.14336762 -0.30174807 0.47913292 -0.048542727
0.008489306 0.12841506 0.23023596 -0.8494786 0.10047371 -0.27598977 0.5949493 0.11129089
0.58137655 -0.19318037 0.38008654 -0.49140167 0.35914755 0.3865644 0.48352405 0.24806179
-0.4061427 0.6776529 -0.43177316 1.1876364 0.18787205 -0.066585466 -0.08736277 -0.16298708
-0.43333822 -0.18526231 -0.035332594 -0.4469547 1.065598 0.15251338 -0.47552615 0.45807338
0.1676789 -0.35551882 -1.5689192 -0.3500278 -0.90637016 -0.2044402 0.3208875 0.12217257
0.34586224 -0.34783214 0.42220715 -0.97617304 -0.5900941 -0.41795084 0.01080621 0.10539085
0.18739809 -0.38313124 0.43952078 -0.09007709 -0.9395186 -0.27360326 -0.07476989 0.36469567
-0.26039213 0.89663804 0.99172515 -0.46705475 0.22918233 -0.03765147 -0.7483989 -0.28686833
-0.28338158 -2.415994 0.31889093 -0.027854957 -0.19585036 -0.49132136 0.104149 0.1750895
-0.7506098 -0.08155026 0.34625936 -0.3130602 0.8841167 0.3023406 -0.21445239 -0.41114354
-0.34432495 0.016628582 0.45513022 -0.63239527 -0.43865466 0.8362641 -0.42299098 0.3997837
0.37439466 0.6120254 0.8972071 -0.222606 -0.522594 -0.83396995 0.11229273 -0.095256604
-0.146713 0.44637364 0.53664875 -0.4572794 -0.8123067 0.14340703 -0.40028405 -0.88868856
-0.27732438 -0.38136816 0.0008785659 -0.5388564 -0.104554 0.5471431 0.17451183 -1.0220308
0.25821045 0.18779232 0.1114499 -0.7138706 -0.20210996 1.2835631 -0.15874094 -1.3789061
-0.23783533 0.15557973 -0.051828146 -0.3857962 0.41251513 0.25090823 0.47523758 0.21626642
0.25666043 0.16286346 0.03723662 -0.19115564 0.40453342 0.73992693 -0.25609255 -0.54014313
0.29087082 0.26837876 -1.0776182 -0.78794 -2.076587 -0.12600484 0.20477228 0.5520395
-0.24037486 -0.40381604 -0.23101632 -0.15943791 0.43363485 0.17956129 0.29890013 0.005783968
0.22628078 0.528864 -0.52976555 -0.15405665 1.136315 -0.4700609 -0.8538431 -0.34635264
00000000: f68b ce3c 9ce9 9d3e 2976 6a3f 32c3 22bf
00000010: 2646 55bf f87a 763e e096 bc3d f732 54bd
00000020: f879 803c 2c2b 0c3f 4fa0 35bf 3048 9b3f
00000030: 0f70 48bf 5012 15bf 8125 c0bd 84d3 f8bd
00000040: 3201 d43d ca8d a03e 0bc1 fdbe 21ad 82be
00000050: a127 793e 7385 10bf a48b 3cbf 735b e33e
00000060: b347 2c3f b86a e1bd 7f81 983d dd94 72be
00000070: fd41 94be c846 98be e043 ca3e 6a9a 693e
00000080: 4f70 0ebf 0688 983e 63a5 d4be 4e18 0ebf
00000090: 3bfc aebe 9080 a23f 8e04 e83d 7ca2 22bd
000000a0: b4e2 0ebe 094c 2e3f c325 0d3e 99c4 d33e
000000b0: c2c2 6cbf 4f51 44be ca17 503e 4ac2 4cbf
000000c0: 25f4 963d a865 da3e ca18 91bf c861 8dbf
000000d0: 3abe 2b3f 5b6f d6bd 1b58 a43d 65be fcbc
000000e0: db9b 463e fe58 143d 03d1 2f3f a01b 1fbf
000000f0: 536c cf3f 8cf3 c53e 64ee eb3b 5cea 0c3f
00000100: 550c d8bd 6c50 46bf cd4a 89bf 471c 0bbf
00000110: 11fa 2b3f 1e31 0a3e dbcc 693e 3fbb 113e
00000120: f4e7 2ebe cbbb 94be 9b31 8e3f 7273 933f
00000130: f76a 33bd 8293 e93e 4e53 d23e 5720 8f3e
00000140: 2752 3b3d 81a7 b4be 7af8 47be 1b3d a7bf
00000150: 63e0 523e 5418 8b3e 64ad 10bd 6ba6 8dbf
00000160: f67c 4d3d 3700 a5bd bbdd e5be f078 07bf
00000170: f6ce 123e b97e 9abe e950 f53e bdd4 46bd
00000180: bb16 0b3c 3d7f 033e fac2 6b3e 6e77 59bf
00000190: 29c5 cd3d 884e 8dbe 994e 183f 7aec e33d
000001a0: 18d5 143f 13d1 45be b49a c23e 0099 fbbe
000001b0: 30e2 b73e c5eb c53e 7790 f73e e903 7e3e
000001c0: f0f1 cfbe a97a 2d3f 5f11 ddbe 7804 983f
000001d0: 8861 403e f65d 88bd 41eb b2bd 16e6 26be
000001e0: 82de ddbe 67b5 3dbe e9b8 10bd 3fd7 e4be
000001f0: 8465 883f 782c 1c3e 2a78 f3be 9888 ea3e
00000200: 04b4 2b3e 9006 b6be 58d2 c8bf d836 b3be
00000210: e007 68bf c658 51be 5e4b a43e 9d35 fa3d
00000220: db14 b13e 0e17 b2be 892b d83e 7ae6 79bf
00000230: 6810 17bf a7fd d5be 880c 313c 28d7 d73d
00000240: 49e5 3f3e c729 c4be de08 e13e 567a b8bd
00000250: 4a84 70bf ba15 8cbe f520 99bd 64b9 ba3e
00000260: 1e52 85be 128a 653f b3e1 7d3f cd21 efbe
00000270: c6ae 6a3e 6e38 1abd 1297 3fbf 68e0 92be
00000280: 6417 91be a59f 1ac0 ac45 a33e 1430 e4bc
00000290: ff8c 48be 798e fbbe 124c d53d a94a 333e
000002a0: f727 40bf d303 a7bd e848 b13e 6d49 a0be
000002b0: 7955 623f 63cc 9a3e 6899 5bbe 6881 d2be
000002c0: 5c4b b0be aa38 883c d406 e93e a8e4 21bf
000002d0: 5897 e0be 6715 563f 4692 d8be 73b0 cc3e
000002e0: a8b0 bf3e b2ad 1c3f 5daf 653f d4f2 63be
000002f0: b8c8 05bf 0e7f 55bf bbf9 e53d e515 c3bd
00000300: ef3b 16be 168b e43e d061 093f 8720 eabe
00000310: 55f3 4fbf 4bd9 123e 08f2 ccbe 1881 63bf
00000320: 76fd 8dbe b042 c3be 8f4f 663a 7ef2 09bf
00000330: 6820 d6bd 9211 0c3f 3bb3 323e e8d1 82bf
00000340: 2934 843e a14c 403e d83f e43d 39c0 36bf
00000350: eaf5 4ebe cc4b a43f fc8c 22be ff7f b0bf
00000360: 1b8b 73be 4b50 1f3e c049 54bd 1487 c5be
00000370: 2f35 d33e 0b77 803e 5752 f33e f274 5d3e
00000380: ff68 833e aec5 263e 6d85 183d 4ebe 43be
00000390: 011f cf3e da6b 3d3f 901e 83be d246 0abf
000003a0: 05ed 943e f168 893e 65ef 89bf 70b6 49bf
000003b0: cde6 04c0 6a07 01be d3af 513e 7652 0d3f
000003c0: d424 76be fac0 cebe 8b8f 6cbe b143 23be
000003d0: 6305 de3e eade 373e 7009 993e 7187 bd3b
000003e0: 26b6 673e a263 073f b79e 07bf 07c1 1dbe
000003f0: c572 913f d3ab f0be 7695 5abf 2255 b1be

main.0.bias f4 [32]
0.2734298 0.11872897 0.33626613 0.33479545 -0.10127138 0.7572821 0.37538388 0.25807524
-0.50663185 -0.28334892 0.41536158 0.29074928 0.17135175 0.35548216 0.26202232 -0.10258501
0.43509525 -0.19663832 -0.0063567017 -0.18642439 0.77135193 0.25532866 0.38691399 0.31742957
0.47723344 -0.3110151 -0.08993521 0.09395827 -0.21225227 0.15283255 0.2404466 0.27436852
00000000: fefe 8b3e 2d28 f33d 132b ac3e 4f6a ab3e
00000010: 5f67 cfbd 3ddd 413f 5132 c03e 7022 843e
00000020: a0b2 01bf 1c13 91be 46aa d43e 17dd 943e
00000030: d576 2f3e c201 b63e ca27 863e 1718 d2bd
00000040: cec4 de3e 8e5b 49be e14b d0bb 09e6 3ebe
00000050: 5277 453f 70ba 823e 9719 c63e 2186 a23e
00000060: f157 f43e 5f3d 9fbe f42f b8bd 326d c03d
00000070: a958 59be 2380 1c3e a237 763e 087a 8c3e

main.2.weight f4 [32, 32]
0.22515999 0.59355444 0.8005966 0.032721773 0.028638922 0.14599659 -0.068698384 -0.31795323
-0.35707566 -0.39973935 -0.12401302 0.13482836 0.30534893 0.08719079 -0.011799343 0.27446684
0.112952076 0.44916308 0.80269617 -1.5658803 -0.2242257 0.31576487 -0.07535958 -0.052743454
0.28770217 0.49925324 0.12156184 -0.03994562 -0.5173279 0.1563803 0.21619436 -0.22846343
-0.040065058 0.09283285 0.116070166 -0.14015146 -0.13490233 -0.11528214 -0.17078687 0.024259433
-0.0342532 -0.091332644 -0.06838143 -0.01762183 -0.12237257 -0.12874445 0.04786235 0.16672926
-0.11938207 -0.1674567 -0.119242266 -0.07818876 -0.10639093 -0.060334414 -0.087574236 -0.1591515
0.077312045 -0.026024207 0.08709758 -0.022569492 0.13845877 0.12455724 -0.15730618 0.012141042
0.4521489 0.41708264 0.17603788 0.11640083 0.15004076 -0.38920346 0.022158502 0.05377836
0.5813081 0.4119403 -0.54837376 0.02278619 -0.05065492 0.26576525 1.0089769 0.2760624
-0.10470835 0.35510695 0.32158455 -1.4878535 -0.20150791 0.97369856 0.080450036 0.07954443
-0.16159476 0.69158626 0.40871733 0.21385993 0.5187424 -0.25038227 0.16231534 -0.3687284
-1.1371807 -0.16243882 0.23587142 0.20750114 0.13972817 -0.12244981 0.79064435 0.19594055
-0.4680634 0.047449715 0.24395631 0.35063678 0.049681798 0.15012838 0.117212094 -0.072056025
0.56732297 -0.85642 -0.4459884 0.16099077 0.07410987 -0.18172021 -0.2837163 -0.90978783
-0.75116676 -0.43050152 -0.19576506 0.1926767 0.28830364 0.22621192 0.14985298 0.5798792
0.36346275 0.20831172 0.43223497 0.38264692 0.13230297 -0.58501524 -0.0818816 0.23399101
1.0070294 0.34434807 -0.0032215226 -0.06096395 0.13314806 0.3671867 0.21510966 0.13022742
-0.12137228 0.30096206 0.5815834 -0.49930683 -0.6282588 -0.04377044 0.06979002 0.123809926
0.29065397 0.42754602 0.21773688 0.38246784 0.18752898 -0.036574535 0.092365906 -0.09077853
-0.0032545247 0.087521926 0.07667116 -0.095487855 -0.075525396 -0.098412 -0.19876389 -0.17383617
0.12690338 0.13935934 -0.017158879 0.1371964 0.05230905 0.0024591386 0.012239638 0.020837523
-0.1748787 -0.123165555 -0.12892255 -0.15065297 -0.046599343 0.11052674 -0.07026364 -0.18365274
-0.16261578 0.03416577 -0.15701553 0.0361487 -0.11342349 -0.083692744 -0.005375031 0.044938587
0.43300816 0.008552462 -0.089967445 0.07117778 0.13687754 -0.7276077 0.008053935 -0.06369879
0.91851276 0.63387424 -0.5377945 0.14987573 0.40087077 0.17375821 0.48177204 0.4994577
-0.30808148 0.51476413 0.35943267 -0.25912294 -0.062551044 0.23611304 -0.21353859 0.29717395
-0.4215941 0.40431467 0.3062019 0.2544214 0.021838438 0.040274374 0.074967526 -0.8045396
0.9531187 -0.87736344 0.0947358 0.3556732 0.09160591 0.3122229 -0.14193329 -0.13526057
-1.6869283 0.32018384 -1.4027346 0.3200346 -0.04785215 0.10335256 -0.29839668 -1.530372
-0.2654781 -0.4284539 -1.1351277 -0.32439125 -0.97641724 -0.094332375 -0.030790707 0.118615076
0.43951318 0.2961219 1.0701283 0.06914297 -0.07488133 -1.9158796 0.25536522 0.4928147
00000000: 5790 663e 2ff3 173f e6f3 4c3f 4407 063d
00000010: 2c9c ea3c 2180 153e bdb1 8cbd c4ca a2be
00000020: 9fd2 b6be a3aa ccbe 8afa fdbd 7210 0a3e
00000030: b256 9c3e 1691 b23d 0852 41bc eb86 8c3e
00000040: 6b53 e73d b4f8 e53e 7f7d 4d3f c46e c8bf
00000050: 6c9b 65be efab a13e 2056 9abd 8509 58bd
00000060: b34d 933e 1f9e ff3e 6af5 f83d 059e 23bd
00000070: 9a6f 04bf 2822 203e 0e62 5d3e 51f2 69be
00000080: 421b 24bd 261f be3d 32b6 ed3d dd83 0fbe
00000090: d623 0abe 0b19 ecbd c1e2 2ebe b8bb c63c
000000a0: 154d 0cbd 9c0c bbbd 900b 8cbd a85b 90bc
000000b0: 789e fabd 96d5 03be 500b 443d 13bb 2a3e
000000c0: 967e f4bd c579 2bbe 4a35 f4bd 6e21 a0bd
000000d0: 7de3 d9bd 3821 77bd 1f5a b3bd 9cf8 22be
000000e0: c755 9e3d b830 d5bc 3760 b23d a8e3 b8bc
000000f0: 23c8 0d3e de17 ff3d df14 21be 39eb 463c
00000100: 1080 e73e db8b d53e 4643 343e 8f63 ee3d
00000110: 49a4 193e ad45 c7be bf85 b53c b346 5c3d
00000120: 9cd0 143f d7e9 d23e 3962 0cbf 1baa ba3c
00000130: 897b 4fbd 6212 883e 2826 813f 0d58 8d3e
00000140: 5571 d6bd 94d0 b53e bba6 a43e fc71 bebf
00000150: 1758 4ebe 4f44 793f fdc2 a43d 31e8 a23d
00000160: 1979 25be cc0b 313f 6643 d13e 19fe 5a3e
00000170: 4dcc 043f 1b32 80be fe35 263e f8c9 bcbe
00000180: 238f 91bf 5d56 26be 4788 713e 2e7b 543e
00000190: e714 0f3e f7c6 fabd ab67 4a3f a4a4 483e
000001a0: 02a6 efbe a25a 423d afcf 793e aa86 b33e
000001b0: 247f 4b3d 41bb 193e e50c f03d 1c92 93bd
000001c0: 143c 113f 573e 5bbf 9758 e4be c4da 243e
000001d0: eac6 973d dd14 3abe 4343 91be dbe7 68bf
000001e0: 774c 40bf b26a dcbe a376 48be 0a4d 453e
000001f0: 899c 933e 19a4 673e 0f73 193e f772 143f
00000200: ca17 ba3e ab4f 553e e74d dd3e 4cea c33e
00000210: 6e7a 073e 8fc3 15bf 8ab1 a7bd 579b 6f3e
00000220: 57e6 803f 644e b03e 2e20 53bb 56b5 79bd
00000230: f757 083e e5ff bb3e b545 5c3e 565a 053e
00000240: 0892 f8bd b317 9a3e a6e2 143f 25a5 ffbe
00000250: 92d5 20bf a248 33bd 12ee 8e3d 0f90 fd3d
00000260: 99d0 943e 50e7 da3e 6bf6 5e3e d3d2 c33e
00000270: 9907 403e 2ecf 15bd 562a bd3d 18ea b9bd
00000280: dd49 55bb b23e b33d c505 9d3d 238f c3bd
00000290: 0fad 9abd 3b8c c9bd c388 4bbe 1c02 32be
000002a0: f6f2 013e 37b4 0e3e c790 8cbc 377d 0c3e
000002b0: 0442 563d 8029 213b c388 483c 74b3 aa3c
000002c0: 6713 33be 393e fcbd 4604 04be c644 1abe
000002d0: f4de 3ebd d85b e23d 62e6 8fbd 770f 3cbe
000002e0: c084 26be 68f1 0b3d aec8 20be a910 143d
000002f0: 934a e8bd 1a67 abbd 0721 b0bb 8611 383d
00000300: 3fb3 dd3e a01f 0c3c da40 b8bd a8c5 913d
00000310: a029 0c3e 8044 3abf a7f4 033c 8374 82bd
00000320: a723 6b3f 9545 223f e6ac 09bf 0679 193e
00000330: ef3e cd3e aced 313e d3aa f63e ebb8 ff3e
00000340: dbbc 9dbe 95c7 033f 8f07 b83e c3ab 84be
00000350: c31a 80bd 9ec7 713e dca9 5abe 2f27 983e
00000360: 2fdb d7be 5502 cf3e 7fc6 9c3e 8643 823e
00000370: 86e6 b23c bef6 243d 9388 993d 4ff6 4dbf
00000380: 96ff 733f e49a 60bf d804 c23d cc1a b63e
00000390: e19b bb3d aedb 9f3e f656 11be bf81 0abe
000003a0: 44ed d7bf 23ef a33e cf8c b3bf 93db a33e
000003b0: 9e00 44bd 82aa d33d 73c7 98be 3be3 c3bf
000003c0: bfec 87be 4f5e dbbe dd4b 91bf 9c16 a6be
000003d0: 7bf6 79bf 5531 c1bd cb3c fcbc 76ec f23d
000003e0: df07 e13e 4a9d 973e f7f9 883f d49a 8d3d
000003f0: 625b 99bd 8b3b f5bf 3bbf 823e 3552 fc3e

main.2.bias f4 [32]
-0.03196069 -0.14536381 -0.1144065 0.36372396 0.039021887 -0.11323276 -0.12330794 0.11331595
-0.03538518 0.16184394 -0.2452837 0.25002196 -0.07193611 -0.06675089 -0.107184306 0.3170033
0.26707628 0.048903156 0.118670836 0.14116754 -0.26224872 0.047125347 -0.1845615 -0.14597838
0.38994017 0.060699794 -0.24919713 0.03289099 0.06887448 0.20087643 0.15157402 -0.11970522
00000000: 36e9 02bd 40da 14be f44d eabd 073a ba3e
00000010: 6ad5 1f3d 94e6 e7bd e088 fcbd 3112 e83d
00000020: 0df0 10bd 6bba 253e a62b 7bbe e102 803e
00000030: 3d53 93bd b1b4 88bd 7283 dbbd 424e a23e
00000040: 39be 883e ad4e 483d b209 f33d 398e 103e
00000050: 7745 86be 8206 413d b1fd 3cbe 5b7b 15be
00000060: 3da6 c73e 59a0 783d 882d 7fbe b4b8 063d
00000070: 100e 8d3d 8db2 4d3e 3836 1b3e 0328 f5bd

main.4.weight f4 [4, 32]
-0.43083438 0.07955049 -0.38808557 0.90772665 -0.44713935 -0.115430765 -0.2611747 -0.9654388
0.4552225 -0.3778058 -0.1753545 -0.6137594 0.15845567 0.04728484 -0.45315176 -0.5385389
1.4150327 -0.07104222 0.17970274 -0.43774742 -0.4566619 0.35987455 -0.13817994 -0.3651185
1.5101771 0.35510734 -0.29776227 0.87391114 -0.02338526 -0.5894548 1.4211922 0.035001993
-0.55631787 0.10579242 -0.2297683 1.227638 -0.2679981 -0.047857918 -0.26185194 -1.4347779
0.91615087 -0.040972505 -0.5438241 0.06080559 -0.16255097 -0.15509221 -0.316582 -0.02428074
1.9101546 0.1661178 0.060469825 -0.39274484 -0.1593873 -0.066763 -0.44837973 -0.40123588
1.2740388 0.5304307 -0.49756387 0.9238949 -0.6810772 -0.6359973 0.9876854 -0.17304514
0.09868414 0.102716245 -0.6936208 0.16848682 -0.43185005 -0.13147706 -0.4428903 -0.6602654
0.88235265 -0.5464111 -0.21328492 -0.48086947 0.26887754 0.0945205 0.3942602 -0.57207906
1.2790021 -0.2874254 -0.3336551 -0.37620088 -0.33786073 0.66665435 0.649704 -0.20307286
1.15884 1.129863 -0.49785548 1.4558324 -0.6238641 -1.1301545 1.6775573 0.09863527
-0.8757068 -0.058496915 0.035489812 1.1800662 -0.11632227 -0.15248993 -0.33978376 -0.9692185
0.91403973 -0.79146904 -0.42095706 0.23151322 -0.68184465 0.029597819 0.02344637 -0.45425814
1.2323682 0.58517456 -0.6928987 -0.27736697 -0.38449112 0.38306814 0.4764835 -0.41201508
1.1165725 0.97096145 -0.45914462 0.71257937 -0.5266048 -0.53021413 1.3521397 -0.13552603
00000000: 5396 dcbe 5eeb a23d 27b3 c6be c660 683f
00000010: 73ef e4be f766 ecbd b1b8 85be ff26 77bf
00000020: ec12 e93e c36f c1be 2190 33be 561f 1dbf
00000030: 3442 223e c0ad 413d 8203 e8be afdd 09bf
00000040: cb1f b53f 957e 91bd ff03 383e 6e20 e0be
00000050: 97cf e9be 7a41 b83e 0b7f 0dbe d0f0 babe
00000060: 7c4d c13f a1d0 b53e 4c74 98be a4b8 5f3f
00000070: 7292 bfbc 83e6 16bf a0e9 b53f 405e 0f3d
00000080: d96a 0ebf b2a9 d83d 6248 6bbe 3e23 9d3f
00000090: 0c37 89be aa06 44bd 7511 86be cda6 b7bf
000000a0: dd88 6a3f c9d2 27bd 0e38 0bbf 480f 793d
000000b0: c373 26be 7ed0 1ebe 0917 a2be 67e8 c6bc
000000c0: f27f f43f c91a 2a3e 35af 773d da15 c9be
000000d0: 6d36 23be 0abb 88bd 0792 e5be ca6e cdbe
000000e0: b413 a33f 4eca 073f b1c0 febe 6084 6c3f
000000f0: 135b 2ebf b8d0 22bf f3d8 7c3f bf32 31be
00000100: e91a ca3d e55c d23d 2291 31bf cf87 2c3e
00000110: 731b ddbe eca1 06be 84c2 e2be 2707 29bf
00000120: dde1 613f 99e1 0bbf 5d67 5abe 8634 f6be
00000130: 51aa 893e f793 c13d 79dc c93e c673 12bf
00000140: 57b6 a33f 6c29 93be d7d4 aabe 679d c0be
00000150: 15fc acbe dca9 2a3f 0053 263f 55f2 4fbe
00000160: de54 943f 5a9f 903f eae6 febe b758 ba3f
00000170: 8fb5 1fbf e7a8 90bf 33ba d63f 4a01 ca3d
00000180: 522e 60bf 769a 6fbd c45d 113d 690c 973f
00000190: 5f3a eebd 5226 1cbe 23f8 adbe b41e 78bf
000001a0: 82fe 693f b79d 4abf af87 d7be cd11 6d3e
000001b0: 5f8d 2ebf 2077 f23c 9a12 c03c 8694 e8be
000001c0: 3ebe 9d3f 00ce 153f cf61 31bf 0b03 8ebe
000001d0: 05dc c4be 8221 c43e a5f5 f33e a4f3 d2be
000001e0: d9eb 8e3f ee90 783f 0115 ebbe 9a6b 363f
000001f0: 92cf 06bf 1dbc 07bf ea12 ad3f 56c7 0abe

main.4.bias f4 [4]
-0.24780977 -0.033672035 -0.060800735 0.45350027
00000000: d8c1 7dbe b0eb 09bd 310a 79bd 3031 e83e
