log/dqn/best_model_3.pth (torch, 7895 bytes, 6 tensors)

main.0.weight f4 [32, 8]
0	0xbdf49cd6	-0.119439766
1	0xbfb16430	-1.38587
2	0xbebcddfa	-0.36888105
3	0x3e113b0d	0.14182682
4	0xbe6b7128	-0.22992384
5	0xbe90553b	-0.28190026
6	0x3df4bf71	0.11950577
7	0xbe05abf2	-0.13053873
8	0xbdaa03e8	-0.08301526
9	0xbff924e0	-1.9464378
10	0xbcf2f16c	-0.029656135
11	0xbe382218	-0.17981756
12	0xbd3ca40f	-0.046054896
13	0xbefe4e28	-0.49669003
14	0x3e4f40bc	0.20239538
15	0x3e3f88d8	0.18704545
16	0x3da61a48	0.081104815
17	0x3f0906d0	0.5352602
18	0xbc9e4396	-0.019319337
19	0x3da81ae5	0.08208255
20	0xbc9a1b3e	-0.018811818
21	0xbe839187	-0.25696966
22	0x3de4d312	0.11173071
23	0xbf3d65f2	-0.7398368
24	0xbdc1a9cd	-0.09456215
25	0x3db73108	0.08944899
26	0xbf33e3be	-0.7026938
27	0xbe254f37	-0.161435
28	0x3e9c5418	0.30532908
29	0xbe1db1b0	-0.15399814
30	0x3f0c816d	0.5488499
31	0xbe8011f2	-0.2501369
32	0xbd33dba8	-0.043910652
33	0xbf463433	-0.774234
34	0xbd99f380	-0.07517147
35	0x3cd0cdbb	0.025488725
36	0x3e4f5d1e	0.20250365
37	0xbea16867	-0.31524965
38	0x3e2545be	0.16139886
39	0x3f01504b	0.5051314
40	0xbe41dc1d	-0.18931623
41	0xbe435fbf	-0.19079493
42	0xbf308a23	-0.6896078
43	0x3e3603e2	0.17774919
44	0x3e20f251	0.15717436
45	0x3dad7833	0.08470192
46	0xbd5e3d64	-0.054257765
47	0x3dfc1b04	0.1230984
48	0x3b839781	0.0040158634
49	0x3e0ef0c7	0.13959037
50	0xbeaf8bd1	-0.3428636
51	0xbeee3767	-0.46526644
52	0x3e749162	0.23883584
53	0x3e960721	0.29302314
54	0xbf1a3d68	-0.6024995
55	0x3ee9f85b	0.45697293
56	0xbe72e9b4	-0.23721963
57	0x3e6540b0	0.22387958
58	0x3dba8dad	0.09109054
59	0xbe7b1a6c	-0.24521798
60	0xbd8c6a6b	-0.06856235
61	0x3dcdce0f	0.10049068
62	0xbf15405a	-0.5830132
63	0x3ecb98e3	0.3976508
64	0xbeeb91d7	-0.46009704
65	0x3e711243	0.23542123
66	0xbe1d4d0b	-0.15361421
67	0x3d7de632	0.06198711
68	0x3e8ccc87	0.27499792
69	0x3ea7e827	0.32794306
70	0xbdacc313	-0.08435645
71	0x3be91f16	0.0071143014
72	0xbef045aa	-0.4692815
73	0x3e3af906	0.18259057
74	0xbeb305cc	-0.3496536
75	0xbe9bb25e	-0.3040952
76	0xbe571060	-0.2100234
77	0xbed5fb56	-0.41793317
78	0x3d0730f6	0.033005677
79	0x3d08f2d6	0.03343471
80	0xbe63cc01	-0.2224579
81	0x3ee8bb1a	0.45455247
82	0xbea2899e	-0.3174562
83	0xbeb3ecee	-0.351417
84	0x3ea47a92	0.32124764
85	0xbd9fd585	-0.078043975
86	0xbf2ce0b6	-0.6753038
87	0xbde358ea	-0.111009434
88	0xbe74a7f5	-0.23892196
89	0xbe27a6e6	-0.1637226
90	0x3ecf1224	0.40443528
91	0xbe480248	-0.1953212
92	0xbeebdd12	-0.460671
93	0x3e377ae3	0.17917971
94	0x3e254b35	0.1614197
95	0xbdedc740	-0.116102695
96	0x3e949d2f	0.29026172
97	0xbf51ca87	-0.8194966
98	0x3ea786f3	0.32720146
99	0xbc9dc003	-0.019256597
100	0xbe3b33f6	-0.1828154
101	0x3efefd45	0.49802604
102	0xbd6f8278	-0.058474034
103	0x3e8cd1ca	0.27503806
104	0xbdfbbe7b	-0.12292191
105	0x3edcedc1	0.43150142
106	0x3ecb3ebd	0.39696303
107	0xbb8fc296	-0.00438721
108	0xbe4069b0	-0.18790317
109	0xbee14f9a	-0.44006044
110	0x3d802c11	0.06258405
111	0x3e0889eb	0.13333862
112	0xbe5159c5	-0.204444
113	0xbfcaec01	-1.5853273
114	0xbdc8efc5	-0.098113574
115	0xbe8356c5	-0.25652137
116	0x3d862e06	0.06551747
117	0xbe9c7c70	-0.30563688
118	0x3de63c3c	0.112419575
119	0x3e368041	0.17822362
120	0xbe8d58ea	-0.276069
121	0x3ebaca2e	0.36482376
122	0xbe243ba0	-0.1603837
123	0x3ec8260e	0.39091533
124	0x3ec5f536	0.38663644
125	0xbdc39c96	-0.09551351
126	0x3f049364	0.517874
127	0x3f0a6bc4	0.5407069
128	0x3e0ab53e	0.13545701
129	0xbf4ed98e	-0.8080071
130	0x3ebaae70	0.3646121
131	0xbde3d9ad	-0.11125503
132	0x3ed21b3c	0.41036403
133	0x3eb5b685	0.35490814
134	0x3e0766d5	0.13222821
135	0xbc9551b6	-0.01822744
136	0xbe47a793	-0.19497518
137	0x3ee96650	0.4558587
138	0x3f10c5cf	0.5655183
139	0x3e86c550	0.26322412
140	0xbea55291	-0.32289556
141	0x3d3efda2	0.0466286
142	0x3dabf155	0.0839564
143	0xbda09ee2	-0.078428045
144	0x3d9657f3	0.07340994
145	0xbf94f486	-1.1637123
146	0xbd8db6ef	-0.069196574
147	0xbdc2f038	-0.09518474
148	0xbe6b2077	-0.22961603
149	0x3e83153f	0.25602147
150	0x3ee4ca42	0.4468556
151	0x3cb81367	0.02247019
152	0xbd47b181	-0.048753265
153	0x3df0bfac	0.117553085
154	0xbe0d2ca4	-0.1378656
155	0x3e1446df	0.1448016
156	0x3e26f56d	0.1630456
157	0x3e96c5a4	0.29447663
158	0x3eb0a56f	0.34501216
159	0xbdcf690f	-0.1012746
160	0xbce4b1cf	-0.027916817
161	0xbea08be3	-0.31356725
162	0x3ee6f76f	0.45110652
163	0xbe6ccd4d	-0.23125191
164	0xbecd1099	-0.40051726
165	0xbf010682	-0.50400555
166	0x3f094c35	0.5363191
167	0x3ea26100	0.3171463
168	0xbdfc98d5	-0.12333838
169	0xbb8f65ee	-0.0043761646
170	0xbf142802	-0.5787355
171	0x3e024ae5	0.12723882
172	0x3e23ed85	0.16008575
173	0x3d833ca3	0.0640805
174	0x3e497757	0.19674431
175	0x3e1e8e80	0.15484047
176	0x3ed34c06	0.4126894
177	0xbf9ae102	-1.2099917
178	0xbd0fd4aa	-0.03511492
179	0xbdec9e66	-0.115536496
180	0x3e21410c	0.1574747
181	0x3e8e27e6	0.27764815
182	0x3da5fead	0.08105216
183	0x3ef41b6a	0.47677165
184	0xbe8d213c	-0.27564418
185	0xbee99cdf	-0.45627496
186	0xbdf647f4	-0.12025443
187	0xbe280f7e	-0.1641216
188	0x3eead76d	0.45867482
189	0x3e4255c0	0.18978024
190	0x3e32c20d	0.17456837
191	0x3eec8834	0.46197665
192	0x3e4d75b7	0.20064436
193	0xbf7017d5	-0.93786365
194	0xbb04633c	-0.002020075
195	0xbd5f8f2e	-0.054579906
196	0x3e330c23	0.17485099
197	0x3ee5a319	0.44850996
198	0x3eae64d6	0.34061307
199	0x3eb72570	0.3577075
200	0xbdc9b3cf	-0.09848749
201	0x3e36077f	0.17776297
202	0xbe97b989	-0.2963374
203	0xbe458068	-0.19287264
204	0xbe144eb7	-0.14483152
205	0xbd93495a	-0.07191725
206	0xbe6c4405	-0.23072822
207	0xbe3e044f	-0.18556331
208	0xbd1dcdec	-0.03852646
209	0x3ef6a234	0.48170626
210	0xbe601d4b	-0.21886174
211	0xbeab974e	-0.33513874
212	0xbeb9c293	-0.3628126
213	0xbedb511d	-0.42835322
214	0x3f0114fb	0.5042264
215	0xbed7f535	-0.42179266
216	0xbe45438d	-0.1926405
217	0x3eb14439	0.34622362
218	0x3e6159c2	0.22006896
219	0x3d9881ad	0.07446609
220	0x3de340de	0.11096357
221	0xbcc0db11	-0.023541959
222	0x3d1fce39	0.03901503
223	0xbe924bdd	-0.28573504
224	0x3e8484e2	0.25882632
225	0x3e748cae	0.2388179
226	0x3e304b58	0.17216241
227	0xbea0a304	-0.3137437
228	0x3f0043dc	0.50103545
229	0x3eb3c0d0	0.35108042
230	0x3d37c7f5	0.04486843
231	0xbcbb671b	-0.022876313
232	0xbed52fd6	-0.41638058
233	0x3ca5a9f3	0.02022264
234	0xbe18f6c9	-0.14937891
235	0xbe9a72e4	-0.3016578
236	0xbd74c798	-0.05976066
237	0x3e99552d	0.29947796
238	0x3f30d2e5	0.690718
239	0xbe5ad41a	-0.21369973
240	0xbecc03e1	-0.3984671
241	0xbe897ec3	-0.26854524
242	0xbdb6b88f	-0.089219205
243	0x3e1b4e91	0.1516669
244	0xbeb4de10	-0.3532567
245	0xbebd4c53	-0.36972293
246	0xbe61495d	-0.22000642
247	0x3dcea43d	0.1008992
248	0xbd80d1c2	-0.06290008
249	0x3e4fc149	0.20288576
250	0xbe91bf5a	-0.28466302
251	0xbc261591	-0.010136978
252	0xbe793eee	-0.24340412
253	0x3ecceeda	0.4002598
254	0x3e5ddc2d	0.21666022
255	0x3f11bff5	0.5693353

main.0.bias f4 [32]
0	0xbdc15b4f	-0.09441244
1	0xbedb44ba	-0.42825872
2	0x3ec6c1b6	0.38819665
3	0xbd8f4485	-0.06995491
4	0xbdde3e1d	-0.10851691
5	0x3ee594d8	0.4484012
6	0x3eb837fe	0.3598022
7	0x3e94fd9f	0.29099748
8	0x3d3b5b67	0.045741465
9	0xbe183c4c	-0.14866751
10	0x3ec957fe	0.39324945
11	0xbaa69206	-0.0012708313
12	0xbe80be9f	-0.25145432
13	0x3d46afa1	0.048507337
14	0xbede8da0	-0.43467426
15	0x3e88f8d0	0.2675233
16	0xbea34151	-0.3188577
17	0x3e931bdf	0.287322
18	0xbe17b0dc	-0.1481356
19	0x3ea65432	0.3248611
20	0x3e7974d7	0.24360977
21	0x3cbdf66d	0.023188794
22	0xbd03af4f	-0.03214961
23	0x3e157074	0.14593679
24	0xbe88599c	-0.26630867
25	0x3ef7d614	0.48405516
26	0x3bcd6bfb	0.006268976
27	0x3ef2b347	0.47402403
28	0xbe89b75a	-0.268977
29	0x3dfd3236	0.123630926
30	0x3e68a126	0.22717723
31	0xbd77fd08	-0.060544044

main.2.weight f4 [32, 32]
0	0x3e0d959b	0.13826601
1	0x3eb903fd	0.36135855
2	0x3e163c89	0.1467153
3	0x3ea92d12	0.33042198
4	0xbca83065	-0.020530889
5	0xbdd34456	-0.103157684
6	0xbe0f8a75	-0.14017661
7	0x3d03b1e2	0.032152064
8	0xbdb17fe1	-0.08666969
9	0x3dcfcc97	0.10146444
10	0xbecd2529	-0.40067413
11	0xbd33c987	-0.043893363
12	0x3e189cb7	0.14903532
13	0x3e44999f	0.19199227
14	0x3f1ab5af	0.6043348
15	0x3ce4df4b	0.027938506
16	0x3db184e3	0.08667924
17	0xbd9c0a6d	-0.07619176
18	0x3e43974e	0.19100687
19	0x3ea37710	0.31926775
20	0x3ead24a5	0.3381702
21	0x3ebeebdb	0.37289318
22	0x3e9328de	0.28742117
23	0xbb0d7a7e	-0.0021587904
24	0x3e4a26d4	0.19741374
25	0xbe068c28	-0.13139403
26	0x3e80274f	0.2502999
27	0x3c100875	0.008791079
28	0x3ea25d2f	0.31711718
29	0x3e58a2b5	0.21155818
30	0x3e205ed4	0.15661174
31	0x3e2615d4	0.16219264
32	0x3eb723a6	0.35769385
33	0x3ee9d811	0.45672658
34	0x3e2d920e	0.16950247
35	0x3e70857d	0.23488422
36	0x3d349716	0.0440894
37	0xbeb498a2	-0.352727
38	0x3c895446	0.016763818
39	0xbe938ffd	-0.28820792
40	0xbe573a35	-0.21018298
41	0xbbbf3eea	-0.0058363574
42	0xbf101871	-0.56287295
43	0xbcbba70d	-0.022906804
44	0x3d4b2a00	0.0496006
45	0x3e3fba45	0.187234
46	0x3f15cd35	0.58516246
47	0xbdb3eafc	-0.08785054
48	0xbbb3e30f	-0.005489714
49	0xbe8920f7	-0.26782963
50	0x3dd36b9e	0.10323261
51	0xbd82cf64	-0.06387213
52	0x3e7953bb	0.24348347
53	0x3d5c4258	0.053774208
54	0x3e0f2b2c	0.13981313
55	0xbd6696d6	-0.056296192
56	0x3e8be11b	0.2732018
57	0xbe5e972f	-0.2173736
58	0x3e5a1070	0.21295333
59	0xbe36b640	-0.1784296
60	0x3df2a941	0.11848689
61	0x3e8a6b09	0.27034786
62	0x3dbf5f80	0.09344387
63	0xbeb88943	-0.36042222
64	0x3e87c8e2	0.2652045
65	0x3e34169a	0.17586747
66	0xbc79422f	-0.015213533
67	0x3d9e53a5	0.07730798
68	0x3eb0419b	0.34425053
69	0xbe80b9e6	-0.2514183
70	0x3e010bf7	0.1260222
71	0x3e0e8203	0.13916783
72	0xbdd0bda5	-0.10192422
73	0x3ebfc5e7	0.37455675
74	0x3e23a6b2	0.15981558
75	0xbeb7ef23	-0.35924634
76	0x3e26d511	0.16292216
77	0xbe25e5c7	-0.16200934
78	0x3ec9f66e	0.39445823
79	0xbe413c53	-0.18870668
80	0x3eb9d0ea	0.362922
81	0x3e092a0d	0.13394947
82	0x3db74939	0.08949513
83	0xbe847839	-0.25872973
84	0x3c3b05f2	0.011414992
85	0xbea5295c	-0.32258117
86	0x3e063612	0.13106564
87	0xbd74ad1d	-0.059735406
88	0x3dcc2103	0.09967234
89	0x3e0186db	0.126491
90	0xbd497201	-0.04918099
91	0xbd567cdf	-0.05236518
92	0x3e5ed2b8	0.2176007
93	0x3dc6f84d	0.09715328
94	0x3ea35d8b	0.31907305
95	0xbb736097	-0.003713643
96	0xbd56fb37	-0.05248567
97	0xbe859214	-0.2608801
98	0xbe0bd9d1	-0.13657309
99	0xbcf787c0	-0.030216098
100	0x3b8c8ca1	0.004289225
101	0x3e8d64f9	0.276161
102	0xbc22db23	-0.009939942
103	0x3e8be059	0.273196
104	0xbe118730	-0.14211726
105	0x3e180d7a	0.14848891
106	0x3e9d7afa	0.30757886
107	0x3e3a921e	0.18219802
108	0x3e96b398	0.29433894
109	0x3b210df4	0.0024574967
110	0xbe148380	-0.14503288
111	0x3d021126	0.031754635
112	0xbd5f287c	-0.05448197
113	0xbe1256a3	-0.14290862
114	0xbe95414e	-0.29151386
115	0xbeb80f84	-0.35949337
116	0x3ca369f6	0.019947987
117	0xbd6e3ce6	-0.058163546
118	0x3e0e7aed	0.1391408
119	0x3dc26832	0.0949253
120	0xbe00e859	-0.12588634
121	0x3eb9b621	0.36271766
122	0x3da91c23	0.0825732
123	0xbc9710d0	-0.018440634
124	0x3e04e228	0.12976897
125	0xbea00974	-0.31257212
126	0xbe07e772	-0.13271883
127	0xbe6ca4e0	-0.2310977
128	0xbd8a134e	-0.06741963
129	0xbe0059d0	-0.12534261
130	0x3f0781bd	0.5293234
131	0x3e7b9758	0.24569452
132	0x3d1dee24	0.038557187
133	0x3e405569	0.18782581
134	0xbd6761a6	-0.05648961
135	0x3db8dcd2	0.09026493
136	0x3e4540e0	0.19263029
137	0x3ded8310	0.11597264
138	0x3e14362e	0.14473793
139	0xbed8cd3d	-0.42344084
140	0x3dbf3cdb	0.09337779
141	0x3d80f3b0	0.0629648
142	0x3e427827	0.18991147
143	0xbe4b2080	-0.19836617
144	0x3e7ca29a	0.24671403
145	0x3ed27fc7	0.4111311
146	0xbe6d8f8f	-0.23199295
147	0xbd59e8d9	-0.053200576
148	0xbc9822cf	-0.018571286
149	0xbdc9c0d4	-0.09851232
150	0xbd28a449	-0.0411723
151	0x3e43ec14	0.19133025
152	0xbd8543b3	-0.06507053
153	0x3c86cae9	0.016454177
154	0x3dbf03f8	0.09326929
155	0x3e1aca39	0.15116204
156	0x3dee3349	0.116308756
157	0xbc301ac3	-0.010748568
158	0x3dd436eb	0.10362037
159	0xbe86974d	-0.26287308
160	0x3bf6fa6c	0.007537177
161	0x3e89cf8c	0.26916158
162	0x3eb3fc54	0.3515345
163	0x3ea5a40f	0.3235173
164	0x3e136d20	0.14397097
165	0xbe63941f	-0.22224472
166	0xbd434900	-0.04767704
167	0xbde2d1ae	-0.110751495
168	0xbda694fd	-0.08133886
169	0x3e3c086c	0.18362588
170	0xbd79ac6e	-0.060955457
171	0xbe0ab6d8	-0.13546312
172	0x3e2a4ed8	0.16631639
173	0x3e65ebb0	0.22453189
174	0x3e9f904a	0.3116477
175	0xbe4c5a91	-0.19956423
176	0x3ea6c977	0.3257558
177	0xbd813728	-0.06309348
178	0x3dc7847b	0.097420655
179	0x3e826b43	0.2547246
180	0xbd61e164	-0.05514659
181	0x3e0a8ebe	0.13531014
182	0x3d484865	0.048897166
183	0xbe00b82a	-0.12570253
184	0x3e7c5c26	0.24644527
185	0x3db40df5	0.087917246
186	0x3e7dae23	0.24773459
187	0xbd047c9a	-0.03234539
188	0x3e97f15c	0.2967633
189	0x3e683ec0	0.22680187
190	0x3d1b065c	0.03784786
191	0x3df95f13	0.12176337
192	0x3d807e9c	0.06274149
193	0xbdec01b3	-0.115237616
194	0x3da7c6fb	0.081922494
195	0xbc88ce73	-0.016700005
196	0xbdda5fec	-0.10662827
197	0x3e979f08	0.2961352
198	0xbea694cb	-0.32535395
199	0xbe1bcef8	-0.15215671
200	0x3ea35c67	0.31906435
201	0xbe77252e	-0.24135277
202	0xbeb078a0	-0.3446703
203	0x3e81cd1c	0.253518
204	0xbde6ab92	-0.11263193
205	0x3e1b06b1	0.15139271
206	0xbee16638	-0.440233
207	0x3ea78ba4	0.32723725
208	0xbd89e86d	-0.06733785
209	0x3eb0b4ab	0.3451284
210	0x3e0fa2e9	0.14026989
211	0x3e99b386	0.30019778
212	0x3e0ba4f3	0.13637142
213	0x3ece25fb	0.40263352
214	0xbd891882	-0.066941276
215	0xbd575282	-0.05256892
216	0x3d27e006	0.04098513
217	0xbe7b8eea	-0.24566236
218	0x3d82437b	0.06360527
219	0xbda925a0	-0.082591295
220	0xbeef8f5a	-0.46789056
221	0xbe52b873	-0.20578174
222	0x3d95d43f	0.07315873
223	0x3ece12b2	0.40248638
224	0x3d0b2d3b	0.033978682
225	0xbe48a406	-0.1959382
226	0x3da03f50	0.07824576
227	0x3e8e73fa	0.27822858
228	0xbe4c6cb0	-0.19963336
229	0x3e872147	0.26392576
230	0x3db8f1dd	0.09030507
231	0xbe3c4f5e	-0.18389651
232	0x3dbdb09a	0.092622
233	0xbe4a798c	-0.19772929
234	0xbe486ac1	-0.19571973
235	0x3dd3d0c1	0.10342551
236	0x3df35a0b	0.11882409
237	0x3e89ced3	0.26915607
238	0xbe87cb00	-0.26522064
239	0x3e739372	0.23786715
240	0xbd995e6b	-0.07488712
241	0x3e3f98ba	0.18710604
242	0x3dd214e5	0.102578916
243	0x3ed8e352	0.42360932
244	0x3e884bbc	0.2662028
245	0x3e7185e9	0.23586239
246	0xbe839663	-0.25700673
247	0xbdf4066d	-0.11915288
248	0x3e11359e	0.1418061
249	0xbe23868b	-0.15969293
250	0xbd8d7575	-0.06907169
251	0x3e36db6d	0.17857142
252	0x3e176831	0.1478584
253	0x3e4176b8	0.18892944
254	0x3b9d1537	0.004793789
255	0x3df53eb2	0.11974849

main.2.bias f4 [32]
0	0x3df00c17	0.11721056
1	0xbe38470b	-0.1799585
2	0x3e37f55b	0.1796469
3	0x3d18942f	0.037250694
4	0x3e125398	0.14289701
5	0xbe03556a	-0.12825552
6	0xb9fd47ee	-0.00048309512
7	0x3b6e6ef7	0.0036382058
8	0xbd008f06	-0.031386398
9	0x3e437c87	0.19090472
10	0xbdc9686c	-0.0983437
11	0x3d49c902	0.04926396
12	0x3dc1465b	0.09437247
13	0x3d637617	0.05553254
14	0xbe158a7f	-0.14603613
15	0xbd0519a1	-0.032495145
16	0x3bba1c90	0.0056796744
17	0xbdac3371	-0.08408249
18	0x3d7559d6	0.059900127
19	0x3e2efbac	0.17088193
20	0x3d0a3f85	0.033751983
21	0x3e7a3acf	0.24436496
22	0xbe56be29	-0.20970978
23	0x3e96e797	0.29473564
24	0x3e3d1cef	0.18468069
25	0xbcb16c79	-0.02165817
26	0x3dce2b68	0.10066873
27	0x3e5e7128	0.21722853
28	0xbdc98909	-0.098405905
29	0x3e80fea7	0.25194284
30	0x3e35c827	0.17752133
31	0xbe20839a	-0.15675202

main.4.weight f4 [4, 32]
0	0xbe2de2f6	-0.1698111
1	0xbe092382	-0.13392451
2	0xbec2ad98	-0.38023067
3	0x3da4b052	0.08041443
4	0xbf0a3be7	-0.53997654
5	0xbe9c8c18	-0.30575633
6	0x3f286f1f	0.6579456
7	0x3e2a9fd7	0.16662537
8	0xbe633a20	-0.22190142
9	0x3de58b92	0.112082615
10	0x3e9d2bd6	0.30697507
11	0xbdcf154f	-0.10111486
12	0x3e8241dc	0.25440872
13	0x3df7108a	0.120637015
14	0xbecb92e9	-0.3976052
15	0xbe5d1602	-0.21590427
16	0xbf2a615d	-0.66554815
17	0x3f0e0b8c	0.5548637
18	0xbd705616	-0.058675848
19	0x3e411c85	0.18858536
20	0x3cbf4ecd	0.023353005
21	0x3d83d197	0.064364605
22	0xbe87e58d	-0.2654232
23	0x3e2db639	0.16964044
24	0x3dd26f62	0.10275151
25	0xbecd2c8c	-0.4007305
26	0xbe80edbc	-0.25181377
27	0x3e3dd637	0.18538748
28	0xbeb83c60	-0.35983562
29	0x3e8c9f47	0.2746527
30	0xbdd3270a	-0.103101805
31	0xbf2997ab	-0.6624705
32	0xbe8706a8	-0.26372266
33	0xbed4c415	-0.4155585
34	0xbda51ec6	-0.0806251
35	0x3e6bdea6	0.23034152
36	0x3cecb7da	0.028896261
37	0xbe9eb632	-0.3099838
38	0x3f059070	0.5217352
39	0xbd05bbc6	-0.032649778
40	0xbe2bafb0	-0.16766238
41	0x3d8d79b2	0.06907977
42	0x3e1000b3	0.14062767
43	0x3de0e9ea	0.109821156
44	0xbe9faa1f	-0.3118448
45	0xbe5142b3	-0.204356
46	0x3e731304	0.23737723
47	0xbe724a9d	-0.23661275
48	0x3d4f8e21	0.050672654
49	0x3da4a2c1	0.08038855
50	0x3da3a350	0.07990134
51	0x3e477c4d	0.1948101
52	0xbe806c95	-0.25082842
53	0x3e4dd817	0.20101963
54	0xbcf7d562	-0.030253116
55	0xbd526df8	-0.051374406
56	0xbe5ed09d	-0.21759267
57	0xbbf9e61e	-0.007626309
58	0xbe74fdd7	-0.23924957
59	0x3cd8d67c	0.026469462
60	0xbe8c8ba9	-0.27450302
61	0x3e98eddd	0.29868975
62	0x3ea4e0e3	0.32202825
63	0xbdba9c23	-0.09111812
64	0xbeb16229	-0.34645203
65	0xbea7aaf4	-0.32747614
66	0x3f05bffb	0.52246064
67	0x3e94026d	0.289081
68	0xbbfff6c7	-0.0078114006
69	0xbea276fd	-0.31731406
70	0xbd88677f	-0.06660365
71	0xbeddca95	-0.4331862
72	0x3d500a86	0.050791286
73	0x3ec33efa	0.38133985
74	0x3cd6b50b	0.026209375
75	0x3e02fc3d	0.12791534
76	0xbde1d33a	-0.110266164
77	0xbf0c9508	-0.54914904
78	0xbed9a646	-0.4250967
79	0xbe9519ff	-0.29121396
80	0x3e92c1e9	0.28663567
81	0x3ee265ee	0.4421839
82	0xbdb899cd	-0.0901371
83	0xbdaef6da	-0.08543177
84	0xbf00838d	-0.5020073
85	0x3e95cc2e	0.2925734
86	0xbe984b91	-0.29745153
87	0x3eaab954	0.3334452
88	0xbe980665	-0.2969238
89	0x3e340138	0.1757859
90	0xbe787c9a	-0.24266282
91	0x3e2169c7	0.15763007
92	0xbe742ab0	-0.23844409
93	0x3e6ddc4a	0.23228565
94	0x3e0f986c	0.14022988
95	0xbe23a290	-0.15979981
96	0xbe7d2509	-0.24721159
97	0xbe548a29	-0.20755829
98	0xbe992db1	-0.29917672
99	0x3ef8444a	0.484896
100	0x3db8fba1	0.090323694
101	0xbe4adb55	-0.19810231
102	0x3f03a93a	0.51430094
103	0x3d299978	0.041406125
104	0xbe7f165a	-0.2491087
105	0x3eaa7b67	0.33297274
106	0x3ecd7860	0.401309
107	0xbd649f24	-0.05581583
108	0x3dd8bfd6	0.10583465
109	0xbea678a9	-0.3251393
110	0x3dfed6d8	0.12443322
111	0xbe5f8931	-0.21829678
112	0xbe4b95c0	-0.19881344
113	0xbe0dfb87	-0.13865481
114	0xbe930416	-0.28714055
115	0x3e6847f5	0.226837
116	0x3ca98512	0.020693336
117	0x3de6454e	0.112436876
118	0xbe44cce6	-0.19218788
119	0x3e06a34f	0.13148235
120	0x3c2b8c0c	0.0104704015
121	0xbe829627	-0.25505182
122	0xbe47ad55	-0.19499715
123	0x3cf21105	0.029549131
124	0xbee6753f	-0.45011327
125	0x3e4e84d4	0.20167857
126	0xbec3b4a1	-0.38223746
127	0x3e095552	0.13411453

main.4.bias f4 [4]
0	0x3e16726a	0.14692083
1	0xbe228d9a	-0.15874329
2	0x3c964827	0.018344952
3	0xbdbe9cb1	-0.0930723
