log/dqn/ddqn_5.pth (torch, 7895 bytes, 6 tensors)

main.0.weight f4 [32, 8]
0	0x3d8454ad	0.06461463
1	0x3ebded06	0.37094897
2	0x3f4ba1d0	0.7954378
3	0xbf1a768e	-0.6033715
4	0xbf3c52b5	-0.735637
5	0x3b1b8ab6	0.0023733801
6	0x3dd4ab8f	0.10384285
7	0xbd84ed81	-0.06490613
8	0x3e4821f6	0.19544205
9	0x3f17430b	0.59086674
10	0xbf2295cb	-0.63509816
11	0x3f9ed4ef	1.2408732
12	0xbf0de4f3	-0.55427474
13	0xbe8923d4	-0.26785147
14	0xbd69de8f	-0.057097014
15	0x3e01fc8e	0.12693998
16	0xbd80f8e7	-0.06297474
17	0x3e3ec2b8	0.18628967
18	0x3ca80d90	0.02051428
19	0x3e8ce2c3	0.27516755
20	0x3ecef47f	0.4042091
21	0xbea5b602	-0.32365423
22	0xbeb9a85a	-0.36261255
23	0x3f46e61e	0.7769488
24	0x3f3e82a3	0.74418086
25	0xbe20f7b8	-0.15719497
26	0x3e9553f0	0.29165602
27	0xbe96d794	-0.29461348
28	0xbe31a20e	-0.17346975
29	0xbe41a5bb	-0.18910877
30	0x3e8f202b	0.2795423
31	0x3e3f84f2	0.18703058
32	0xbf725516	-0.9466108
33	0x3ed031e6	0.4066307
34	0xbf1f4da4	-0.62227845
35	0xbf7d2ab0	-0.9889326
36	0xbf0fa6ea	-0.56114066
37	0x3f681aa6	0.9066566
38	0x3e118fce	0.14215013
39	0xbdaeb17a	-0.08529945
40	0xbe353975	-0.176977
41	0x3f372101	0.71534735
42	0x3e319189	0.17340674
43	0x3f09dc33	0.5385162
44	0xbf787dfa	-0.97067225
45	0xbe0bc18a	-0.13648048
46	0x3eb87bdd	0.36032
47	0xbf5128a1	-0.8170262
48	0xbe37d04e	-0.17950556
49	0x3f19d6d4	0.60093427
50	0xbf2b7200	-0.66970825
51	0xbfa54e43	-1.2914509
52	0x3f7d87cb	0.9903533
53	0xbe32b2b7	-0.17450987
54	0xbb0407d9	-0.002014628
55	0xbeb193f2	-0.34683186
56	0x3d8e9387	0.06961732
57	0x3e3d44e0	0.18483305
58	0x3f419911	0.75624186
59	0xbf0e89ef	-0.5567922
60	0x3f839f45	1.028298
61	0x3f29a899	0.66272885
62	0x3dd7ef03	0.10543635
63	0x3f05e757	0.5230612
64	0xbe35fc8a	-0.17772117
65	0xbf12da28	-0.5736413
66	0xbf848c13	-1.0355247
67	0xbf690f3c	-0.9103887
68	0x3f0a3ce7	0.5399918
69	0x3e0d2375	0.13783057
70	0x3e3f3b6a	0.18675008
71	0xbe07cf23	-0.1326261
72	0xbe7f52e2	-0.24933961
73	0xbf39c6d4	-0.7256901
74	0x3f83bcff	1.0292052
75	0x3f80cbcf	1.0062197
76	0x3e52b1d0	0.20575643
77	0x3f0aacca	0.54169905
78	0x3edb7f9a	0.4287079
79	0x3e8b776f	0.27239558
80	0xbdc233aa	-0.094825104
81	0xbea4b02f	-0.32165667
82	0xbda1cf92	-0.07900919
83	0xbf999996	-1.1999996
84	0x3dcfedd6	0.101527855
85	0x3eb9dcd5	0.36301294
86	0xbd2f38f1	-0.042778913
87	0xbf859164	-1.0434995
88	0x3b969233	0.004595065
89	0x3ca8001d	0.020507867
90	0xbebdb668	-0.37053227
91	0xbf1ffdab	-0.6249644
92	0x3ebcf129	0.3690274
93	0xbe485170	-0.19562316
94	0x3ee49ee7	0.44652483
95	0xbd19afcd	-0.037521172
96	0x3e1cface	0.1533005
97	0x3e8271ad	0.25477353
98	0x3ec54ad0	0.3853364
99	0xbf790bab	-0.9728343
100	0x3ea6cc2c	0.32577646
101	0xbe52e832	-0.20596388
102	0x3f0b6e9f	0.5446567
103	0x3d805d18	0.06267756
104	0x3f40ef19	0.75364834
105	0xbe1fbb97	-0.15598904
106	0x3ea6cee1	0.3257971
107	0xbf16a53b	-0.5884587
108	0x3f1b696a	0.60707724
109	0x3eade825	0.33966175
110	0x3ea12666	0.31474608
111	0x3df45e46	0.11932044
112	0xbf499e3b	-0.78757066
113	0x3f2652e5	0.64970237
114	0xbf409afe	-0.752365
115	0x3f945bc4	1.1590505
116	0x3ea0cd76	0.31406754
117	0x3dd7e98c	0.105425924
118	0xbd98d915	-0.0746328
119	0xbd9fcad7	-0.078023605
120	0xbeba8795	-0.36431566
121	0xbcd36fc7	-0.025810136
122	0x3e28ba33	0.1647728
123	0xbe805f6e	-0.25072807
124	0x3f955c4b	1.166879
125	0x3ee0bf66	0.43896025
126	0xbf3e7c71	-0.7440863
127	0x3c48636e	0.012230737
128	0x3eef4ea0	0.46739674
129	0xbddfa08a	-0.10919292
130	0xbf9e13db	-1.234981
131	0xbec928aa	-0.39288837
132	0xbf5aca25	-0.854647
133	0xbf0ca87d	-0.5494459
134	0x3eb3a5dd	0.3508748
135	0x3b1670f3	0.0022955507
136	0x3ed78dd8	0.42100406
137	0xbeaa2c4d	-0.33236924
138	0x3f1a8a37	0.6036715
139	0xbf778922	-0.96693623
140	0xbedfc38c	-0.43703878
141	0x3d41142e	0.047138385
142	0x3d6f7539	0.0584614
143	0xbd9f60a0	-0.07782102
144	0xbe782330	-0.24232173
145	0xbedba8c1	-0.42902187
146	0x3b988648	0.0046546794
147	0xbea442f9	-0.32082346
148	0xbf3470c9	-0.70484596
149	0xbf139c0a	-0.5765997
150	0xbdfa501b	-0.1222231
151	0x3ed1045f	0.40823647
152	0xbee7fccb	-0.45310053
153	0x3f7ac8aa	0.9796244
154	0x3edc33a2	0.43008143
155	0xbed5097f	-0.41608807
156	0x3ed88dd2	0.422957
157	0x3c4acf75	0.012378563
158	0xbf387824	-0.7205832
159	0xbefe262d	-0.496385
160	0xbea68eb9	-0.32530764
161	0xbfb54470	-1.416151
162	0x3edcf6df	0.43157098
163	0xbe6dc1f4	-0.23218518
164	0xbe56cb93	-0.20976095
165	0xbec734e3	-0.38907537
166	0x3e532b7c	0.20622057
167	0x3e3bcce6	0.18339881
168	0xbf124bf4	-0.57147145
169	0xbba957dd	-0.005167945
170	0x3e9a2f29	0.30114105
171	0xbe176129	-0.14783157
172	0x3f08f564	0.53499436
173	0x3e9a5781	0.30144885
174	0xbe492ce0	-0.19646025
175	0xbf2e926e	-0.68192184
176	0xbe8828c2	-0.26593596
177	0x3da88ea9	0.08230335
178	0x3ecac8f7	0.3960645
179	0xbf22cad8	-0.63590765
180	0xbf8591f5	-1.0435168
181	0x3f666b44	0.90007424
182	0xbec8e9fb	-0.39241013
183	0x3e4db907	0.20090114
184	0x3ed0a4a6	0.40750617
185	0x3f101a88	0.56290483
186	0x3f772bfb	0.96551484
187	0x3db4aa46	0.088215396
188	0xbf231fe3	-0.6372053
189	0xbf1068e4	-0.5641005
190	0x3e1408ce	0.14456484
191	0x3e216311	0.15760447
192	0xbcc003a1	-0.02343923
193	0x3ed66975	0.41877332
194	0x3eb60f72	0.3555866
195	0xbef0668e	-0.46953243
196	0xbfe0c022	-1.7558634
197	0xbf54ac3b	-0.830753
198	0xbf7c50cc	-0.98560786
199	0xbf3a10f4	-0.7268212
200	0xbf271edc	-0.6528146
201	0xbed247bb	-0.4107035
202	0xbf1fc215	-0.6240552
203	0xbf6a8c40	-0.91620255
204	0xbed13cfe	-0.40866846
205	0x3dc9101f	0.09817528
206	0x3dda5265	0.10660247
207	0xbf883e9f	-1.064411
208	0x3f0ad433	0.5423004
209	0x3e800a22	0.2500773
210	0x3e8dc6bc	0.27690685
211	0xbed14eb8	-0.4088037
212	0xbf53ed81	-0.8278428
213	0x3f8f5312	1.1197226
214	0x3e171f53	0.14758043
215	0xbfd27e7a	-1.6444848
216	0xbe765959	-0.24057521
217	0x3dd73c6e	0.10509573
218	0xbdf18547	-0.11792999
219	0xbe95dbd4	-0.29269278
220	0x3f01c1b6	0.50686204
221	0x3e8436e9	0.25823143
222	0x3ed872da	0.42275125
223	0x3e34500c	0.1760866
224	0x3c78c612	0.015183942
225	0x3e89ffd4	0.26952994
226	0x3eab877d	0.33501807
227	0xbe10ff01	-0.14159776
228	0xbf574e82	-0.8410417
229	0x3f0c2aaa	0.547526
230	0xbeb29343	-0.34877977
231	0xbf61e206	-0.8823551
232	0x3eac7476	0.33682603
233	0x3dbc3b60	0.091910124
234	0xbf88bffc	-1.0683589
235	0xbef419ec	-0.47676027
236	0xc0034181	-2.050873
237	0xbe7d89ae	-0.24759552
238	0x3e82edbb	0.25572
239	0x3f1e43b2	0.61822045
240	0xbe0c5b9e	-0.13706824
241	0xbbb6bc07	-0.005576614
242	0xbedca7ba	-0.43096715
243	0xbecb5235	-0.39711156
244	0x3f3ba757	0.73302215
245	0x3eac13a5	0.33608738
246	0x3e878071	0.2646518
247	0xbdf4bd12	-0.11950125
248	0x3e2d0db2	0.16899756
249	0x3f2a7c20	0.6659565
250	0xbf1df257	-0.61697906
251	0xbe8cffd7	-0.2753894
252	0x3f9bed46	1.2181785
253	0xbee3ee9d	-0.44517985
254	0xbf95476f	-1.1662425
255	0xbe923433	-0.2855545

main.0.bias f4 [32]
0	0x3e7d89a0	0.24759531
1	0x3eb4d677	0.35319874
2	0x3eb8bc01	0.36080936
3	0x3e9c20ec	0.30493867
4	0xbd858329	-0.065191574
5	0x3f3351a9	0.7004648
6	0x3ea004a8	0.31253552
7	0x3ec270fc	0.37976825
8	0xbf1b67a0	-0.60704994
9	0xbe3ede1c	-0.18639416
10	0x3eb8cb78	0.36092734
11	0x3e9029ab	0.2815679
12	0x3e292e3a	0.1652154
13	0x3e912208	0.28346276
14	0x3e3e8b4a	0.18607822
15	0xbe7927f4	-0.24331647
16	0x3ef6d486	0.48209018
17	0x3ddcaae2	0.10774781
18	0x3dbbb0bb	0.09164568
19	0xbe9cccaf	-0.3062491
20	0x3f666c85	0.9000934
21	0x3e3af11c	0.18256038
22	0x3ecc6fe2	0.3992911
23	0x3e9fcc07	0.31210348
24	0x3f0e70a5	0.5564063
25	0xbe9db920	-0.30805302
26	0x3c143ab4	0.009047199
27	0x3ddc461a	0.10755558
28	0xbe85e012	-0.26147515
29	0x3e242c35	0.16032489
30	0x3eb27bcc	0.34860075
31	0x3e6766a5	0.2259775

main.2.weight f4 [32, 32]
0	0x3d9cf7b0	0.0766443
1	0x3f250144	0.64455056
2	0x3f1c43e9	0.6104112
3	0xbd3bb473	-0.045826387
4	0xbdb2d01f	-0.08731102
5	0xbdef91eb	-0.116977535
6	0x3c98d2a5	0.01865513
7	0xbe7e11aa	-0.24811426
8	0xbe574209	-0.21021284
9	0xbf2d36a5	-0.67661506
10	0xbe8e4b28	-0.27791715
11	0x3ddc4c1b	0.107567035
12	0x3e9d5c51	0.30734494
13	0x3d42b1fd	0.047533024
14	0x3d6fcb1d	0.058543313
15	0x3ebc7fba	0.36816198
16	0x3dbf0611	0.09327329
17	0x3f0c9c22	0.5492574
18	0x3f5f0072	0.87110054
19	0xbf912533	-1.1339477
20	0xbe2923df	-0.1651759
21	0xbd26fc76	-0.04076811
22	0xbe219555	-0.15779622
23	0xbe114831	-0.14187695
24	0x3eaa88e7	0.33307573
25	0x3ec19d08	0.37815118
26	0xbea6c266	-0.3257019
27	0xbd2b7b03	-0.04186536
28	0xbf322148	-0.69582033
29	0x3e29ff11	0.16601206
30	0x3e63918e	0.22223493
31	0xbf020525	-0.507891
32	0xbd241b42	-0.040065058
33	0x3dbe1f26	0.09283285
34	0x3dedb632	0.116070166
35	0xbe0f83dd	-0.14015146
36	0xbe0a23d6	-0.13490233
37	0xbdec190b	-0.11528214
38	0xbe2ee2c1	-0.17078687
39	0x3cc6bbb8	0.024259433
40	0xbd0c4d15	-0.0342532
41	0xbdbb0c9c	-0.091332644
42	0xbd8c0b90	-0.06838143
43	0xbc905ba8	-0.01762183
44	0xbdfa9e78	-0.12237257
45	0xbe03d596	-0.12874445
46	0x3d440b50	0.04786235
47	0x3e2abb13	0.16672926
48	0xbdf47e96	-0.11938207
49	0xbe2b79c5	-0.1674567
50	0xbdf4354a	-0.119242266
51	0xbda0216e	-0.07818876
52	0xbdd9e37d	-0.10639093
53	0xbd772138	-0.060334414
54	0xbdb35a1f	-0.087574236
55	0xbe22f89c	-0.1591515
56	0x3d9e55c7	0.077312045
57	0xbcd530b8	-0.026024207
58	0x3db26037	0.08709758
59	0xbcb8e3a8	-0.022569492
60	0x3e0dc823	0.13845877
61	0x3dff17de	0.12455724
62	0xbe2114df	-0.15730618
63	0x3c46eb39	0.012141042
64	0x3ea7468b	0.32671008
65	0x3f3e3a92	0.7430812
66	0x3de42b46	0.11141066
67	0xbb779d81	-0.0037783089
68	0x3e39029b	0.180674
69	0xbef4cd5a	-0.4781292
70	0x3e88f7c2	0.26751524
71	0xb9f9ce8d	-0.00047646873
72	0x3f873083	1.056168
73	0xbc4f2506	-0.012643104
74	0xbf010106	-0.50392187
75	0x3d16ace4	0.036785975
76	0xbe0d6098	-0.13806379
77	0x3e40de50	0.18834805
78	0x3f9b5c1a	1.2137482
79	0x3e1f1df4	0.1553877
80	0xbd511c79	-0.051052544
81	0x3cda31dc	0.026635103
82	0x3eab1e56	0.33421582
83	0xbfc2f62a	-1.5231373
84	0xbe8c043b	-0.27346978
85	0x3f274997	0.65346664
86	0xbd2026b8	-0.039099425
87	0xbc411abf	-0.011786162
88	0xbf0a3691	-0.5398951
89	0x3f41dca1	0.7572728
90	0x3f04b776	0.5184244
91	0x3e62dacd	0.22153778
92	0x3e855db9	0.26048067
93	0xbe73f088	-0.23822224
94	0x3e8220f0	0.25415754
95	0xbee0bae9	-0.438926
96	0xbf6483e4	-0.8926375
97	0xbf201fc2	-0.6254846
98	0x3e9df51c	0.30851066
99	0x3e3ce7e8	0.1844784
100	0x3db7cd7a	0.089747384
101	0xbd2aa2d4	-0.04165919
102	0x3f1b56c8	0.6067929
103	0x3e2b7dbd	0.16747184
104	0xbf42c755	-0.76085407
105	0x3e8d525a	0.27601892
106	0x3e2be844	0.16787821
107	0x3e994ddb	0.29942212
108	0x3d48556e	0.048909597
109	0x3dfe5ba2	0.12419821
110	0xbdc3726a	-0.09543307
111	0xbe2af23d	-0.16693969
112	0x3ebf7ac2	0.37398344
113	0xbee3c9fb	-0.44490036
114	0xbea7efc3	-0.3280011
115	0x3ef243d6	0.4731738
116	0x3c6bc688	0.014390595
117	0x3cfbdc3a	0.03074466
118	0xbe9ac193	-0.3022581
119	0xbf2a706a	-0.6657778
120	0xbf26e42a	-0.651919
121	0xbf35808d	-0.7089928
122	0x3cc15e92	0.023604665
123	0x3e17f6ee	0.1484029
124	0x3eeb698d	0.45978966
125	0x3d918190	0.0710479
126	0x3d315a1f	0.043298837
127	0x3f400850	0.75012684
128	0x3e95ed15	0.29282442
129	0x3e329f55	0.17443593
130	0x3eaa4cb5	0.33261648
131	0x3e6b539e	0.22981116
132	0x3c874eac	0.016517006
133	0xbf388954	-0.72084546
134	0xbe133cde	-0.14378688
135	0x3e967d54	0.29392493
136	0x3fab5c9e	1.338764
137	0xbe108b46	-0.14115629
138	0xbc59a1c6	-0.013283199
139	0xbeac5236	-0.33656472
140	0xbdf73305	-0.12070278
141	0x3e872bad	0.2640051
142	0x3dae1415	0.08499924
143	0x3c84a650	0.016192585
144	0xbe98aaf8	-0.2981794
145	0x3ecf54c7	0.40494367
146	0x3f5d06f1	0.86338717
147	0xbee228a0	-0.4417162
148	0xbf1ad01e	-0.6047381
149	0x3b1550a7	0.0022783668
150	0x3e67b036	0.22625813
151	0x3e27c198	0.16382444
152	0x3ec10ae6	0.37703627
153	0x3eb2e9e9	0.34944084
154	0x3ed37d70	0.4130664
155	0x3e7c8727	0.24660932
156	0x3e9302f4	0.2871319
157	0xbdef37cd	-0.11680565
158	0x3d6aaec5	0.05729558
159	0xbe513424	-0.20430046
160	0xbb5549dd	-0.0032545247
161	0x3db33eb2	0.087521926
162	0x3d9d05c5	0.07667116
163	0xbdc38f23	-0.095487855
164	0xbd9aad0f	-0.075525396
165	0xbdc98c3b	-0.098412
166	0xbe4b88c3	-0.19876389
167	0xbe32021c	-0.17383617
168	0x3e01f2f6	0.12690338
169	0x3e0eb437	0.13935934
170	0xbc8c90c7	-0.017158879
171	0x3e0c7d37	0.1371964
172	0x3d564204	0.05230905
173	0x3b212980	0.0024591386
174	0x3c4888c3	0.012239638
175	0x3caab374	0.020837523
176	0xbe331367	-0.1748787
177	0xbdfc3e39	-0.123165555
178	0xbe040446	-0.12892255
179	0xbe1a44c6	-0.15065297
180	0xbd3edef4	-0.046599343
181	0x3de25bd8	0.11052674
182	0xbd8fe662	-0.07026364
183	0xbe3c0f77	-0.18365274
184	0xbe2684c0	-0.16261578
185	0x3d0bf168	0.03416577
186	0xbe20c8ae	-0.15701553
187	0x3d1410a9	0.0361487
188	0xbde84a93	-0.11342349
189	0xbdab671a	-0.083692744
190	0xbbb02107	-0.005375031
191	0x3d381186	0.044938587
192	0x3ec5b80b	0.38616976
193	0x3e1ebc34	0.15501481
194	0xbe051bf4	-0.12998945
195	0x3dad9297	0.084752254
196	0x3df824e4	0.12116411
197	0xbf4bcd58	-0.79610205
198	0x3ea6a638	0.3254869
199	0x3e1b6fe6	0.15179405
200	0x3fab0543	1.3360981
201	0x3e904cd0	0.28183603
202	0xbe996f5f	-0.29967782
203	0x3e3d9097	0.18512188
204	0x3edb23be	0.42800707
205	0x3e8b0cc3	0.27158174
206	0x3f5c05a2	0.85946095
207	0x3f13d8a6	0.57752454
208	0xbeaf1c98	-0.34201503
209	0x3ef16841	0.47149852
210	0x3ec51450	0.3849206
211	0xbe36c96b	-0.17850272
212	0xbc59d0ce	-0.013294412
213	0x3eabd472	0.3356052
214	0xbe1274f2	-0.14302424
215	0x3ead2e6c	0.3382448
216	0xbedfd21c	-0.43714988
217	0x3ec033c2	0.37539488
218	0x3f0ea514	0.5572064
219	0x3e9ac8d0	0.30231333
220	0x3db8b37f	0.09018611
221	0xbd00ad54	-0.0314153
222	0x3e4b3e8e	0.19848081
223	0xbf061277	-0.52371925
224	0x3f58d239	0.84695774
225	0xbf704f96	-0.9387144
226	0xbe97a286	-0.29616183
227	0x3e81e770	0.25371885
228	0xbc47660c	-0.012170326
229	0x3e46af58	0.19402826
230	0xbee8f5ea	-0.45500118
231	0xbed31d82	-0.4123345
232	0xbfc19f0a	-1.512666
233	0x3e97766e	0.29582542
234	0xbfd7be69	-1.6854984
235	0x3de7b3df	0.113136046
236	0xbe425564	-0.18977886
237	0xbdbcf8b3	-0.09227123
238	0xbe300cbe	-0.17192361
239	0xc0183b28	-2.3786106
240	0xbf0aa26f	-0.54154104
241	0xbed14203	-0.40870675
242	0xbf51cbaf	-0.8195142
243	0xbeb2249a	-0.3479355
244	0xbf8b67d6	-1.0891063
245	0xbedd747e	-0.4325294
246	0xbea72204	-0.3264314
247	0x3cfdf0a4	0.030998535
248	0x3e990e86	0.29893893
249	0x3e890732	0.26763302
250	0x3f62f1c2	0.88650143
251	0xbe2e226c	-0.17005318
252	0xbe9ed56a	-0.31022197
253	0xbfec26e5	-1.844937
254	0x3e764494	0.24049598
255	0x3da189af	0.07887589

main.2.bias f4 [32]
0	0xbe156399	-0.14588775
1	0xbe14da40	-0.14536381
2	0xbe3a4d78	-0.18193614
3	0x3eb12274	0.34596598
4	0xbcc0e1d4	-0.023545183
5	0xbde7e694	-0.11323276
6	0xbd1af3a3	-0.037830006
7	0xbe2750af	-0.16339372
8	0x3d0254c3	0.031819116
9	0x3cc32b59	0.02382438
10	0xbe689e8b	-0.2271673
11	0x3e99d12a	0.30042392
12	0xbdf94746	-0.121717975
13	0xbd88b4b1	-0.06675089
14	0xbddca0f8	-0.1077289
15	0x3eb78ca2	0.35849482
16	0x3ea4e125	0.32203022
17	0x3e09e98b	0.13467996
18	0x3e797808	0.24362195
19	0x3e0ce25e	0.13758227
20	0xbeea0009	-0.45703152
21	0x3cc47ed5	0.02398626
22	0xbe45bade	-0.19309565
23	0xbe31face	-0.1738083
24	0x3ebe34be	0.37149614
25	0x3dd48d79	0.10378546
26	0xbe2a66ca	-0.16640773
27	0x3e16fc72	0.14744738
28	0xbd551d95	-0.052030165
29	0x3df2e221	0.11859537
30	0x3e4dbf58	0.20092523
31	0xbdf52803	-0.11970522

main.4.weight f4 [4, 32]
0	0xbef1dd2f	-0.47239062
1	0x3da2eb5e	0.07955049
2	0xbed64c8e	-0.41855282
3	0x3f59a377	0.8501505
4	0xbf2b871e	-0.6700305
5	0xbdec66f7	-0.115430765
6	0xbe91ef91	-0.28503087
7	0xbf8cc10f	-1.0996417
8	0x3f319e6a	0.69382346
9	0xbf056122	-0.5210134
10	0xbe91568d	-0.28386346
11	0xbe9c2255	-0.30494943
12	0x3e235ef4	0.1595419
13	0x3d41adc0	0.04728484
14	0xbf0410b5	-0.5158799
15	0xbf037f0f	-0.5136575
16	0x3fa6292e	1.2981317
17	0xbd864907	-0.065568976
18	0x3dcf90bf	0.1013503
19	0xbef621a2	-0.48072535
20	0xbefeecc2	-0.49790007
21	0x3eaa2f43	0.33239183
22	0x3c832c3b	0.016012302
23	0xbed03712	-0.40667015
24	0x3fbdc732	1.4826415
25	0x3f9f26b5	1.2433687
26	0xbec47b6d	-0.38375416
27	0x3f954561	1.1661798
28	0xbdb52b91	-0.088462
29	0xbe9f7cc4	-0.31149876
30	0x3fb2ca66	1.3968017
31	0x3d0f5e40	0.035001993
32	0xbf18e099	-0.5971771
33	0x3dd8a9b2	0.10579242
34	0xbe9f0dd8	-0.3106525
35	0x3f7481d4	0.955106
36	0xbed8ac23	-0.4231883
37	0xbd4406aa	-0.047857918
38	0xbeda5faf	-0.42651126
39	0xbfc68672	-1.550978
40	0x3f40a97a	0.752586
41	0xbec46e95	-0.38365617
42	0xbe9ebf51	-0.31005338
43	0x3e8a5fac	0.27026117
44	0xbd18f6c7	-0.03734472
45	0xbe1ed07e	-0.15509221
46	0xbd614a8a	-0.055002727
47	0xbd87801c	-0.06616232
48	0x3fee861d	1.8634678
49	0x3f106c20	0.56414986
50	0x3e035bcb	0.12827985
51	0xbf0e96af	-0.55698675
52	0xbe4ce75b	-0.2001013
53	0xbd460fc9	-0.048354898
54	0xbec0b312	-0.3763662
55	0xbed856d9	-0.4225376
56	0x3f9e0db7	1.2347935
57	0x3f98edef	1.1947612
58	0xbf58e24e	-0.84720314
59	0x3fac5ed5	1.346644
60	0xbf4169cc	-0.7555206
61	0x3e7654fb	0.24055855
62	0x3f8df021	1.1088907
63	0xbe3132bf	-0.17304514
64	0x3d3b01ae	0.0456559
65	0x3dd25ce5	0.102716245
66	0xbf2e730c	-0.681443
67	0x3e8047c6	0.2505476
68	0xbf0179e8	-0.5057664
69	0xbe06a1ec	-0.13147706
70	0xbee90412	-0.45510918
71	0xbf329ad2	-0.6976749
72	0x3f6925f9	0.91073567
73	0xbebcbe24	-0.36863816
74	0xbe45255e	-0.19252536
75	0xbebb81dd	-0.36622515
76	0x3ec93443	0.39297685
77	0x3dc193f7	0.0945205
78	0x3f087b68	0.53313303
79	0xbf1cea8a	-0.6129538
80	0x3fa201c3	1.2656788
81	0xbe80e012	-0.25170952
82	0xbd741642	-0.05959154
83	0xbefd434d	-0.4946541
84	0xbef8b224	-0.4857341
85	0x3f2cc32a	0.67485297
86	0x3eaf6561	0.34257033
87	0xbdf221cb	-0.11822852
88	0x3f8abf01	1.083954
89	0x3f9b3ac2	1.2127306
90	0xbef4e901	-0.47834018
91	0x3fc7be32	1.5604918
92	0xbf152f10	-0.58274937
93	0xbf909314	-1.1294885
94	0x3fa36973	1.2766556
95	0x3dca014a	0.09863527
96	0xbf3997b9	-0.72497135
97	0xbd6f9a76	-0.058496915
98	0x3e2e2a83	0.17008404
99	0x3f885daa	1.0653584
100	0xbd812938	-0.0630669
101	0xbe1c2652	-0.15248993
102	0xbeb662c1	-0.35622218
103	0xbf65c016	-0.89746225
104	0x3f843841	1.0329667
105	0xbf76fa3c	-0.9647558
106	0xbef925a8	-0.48661542
107	0x3efea9fa	0.49739057
108	0xbf1270e1	-0.5720349
109	0x3cf27720	0.029597819
110	0xbd62f13f	-0.05540585
111	0xbee2e2bc	-0.4431361
112	0x3f9d4b76	1.2288654
113	0x3f877817	1.0583524
114	0xbf4afc39	-0.7929111
115	0xbe3b7a8e	-0.1830847
116	0xbea14e6a	-0.31505138
117	0x3e8500f7	0.259773
118	0x3f0df7a3	0.5545599
119	0xbeb419f5	-0.35176054
120	0x3f8ff0c0	1.1245346
121	0x3f8aca21	1.0842935
122	0xbf0b3f9f	-0.54393953
123	0x3f978ab9	1.183921
124	0xbf12267b	-0.57089967
125	0xbfa0a485	-1.2550207
126	0x3f97106f	1.180189
127	0xbe0ac756	-0.13552603

main.4.bias f4 [4]
0	0xbe7ff463	-0.2499557
1	0x3d4f4f82	0.050612934
2	0xbd53a233	-0.051668357
3	0x3ed9f55b	0.42570004
