log/dqn/dqn_2.pth (torch, 7895 bytes, 6 tensors)

main.0.weight f4 [32, 8]
00000000: 4ca9 063f 3330 ccbe 7dcb f63e 139c 68bd
00000010: 70b9 74bf 764e 95be 1837 053e fd73 0dbe
00000020: 1687 5c3e 1134 eabe 3a0c 61be 6b34 0ebf
00000030: b876 803e 1246 00be 5aed 723d 4fd5 7c3e
00000040: 55b4 37bf 4938 e7be d49a 08bf 8ae1 78bf
00000050: 66ab 983e 4ff0 1abf 6282 bd3e eb94 99bc
00000060: e86b 3c3e 3e8e be3e d5d6 89bf 643f c5bf
00000070: deb7 163e 7b31 e23e bdc8 80be 2aa7 a6be
00000080: 02b2 ef3e 5f72 393e 6af2 243e c5c7 75be
00000090: ee0d aabd aeb6 8dbf e82d fb3e bb69 f73e
000000a0: 1f44 abbe 8ada fcbe fddc 143e 5a40 d73e
000000b0: 851d 25be 0d97 b4be d83c 05be 82e4 233f
000000c0: ab60 763e 2564 ed3f 227d 883f 34e6 643e
000000d0: efae 22bf b41a 8fbe fa56 943d 842e 92bd
000000e0: aa14 b83e 54a6 283d 6fcc 453f 873e 3abe
000000f0: e73d 35bf c888 b6bf 4353 a83e a98a 723e
00000100: 21d4 8b3e dab9 99bf 354b cf3e 62f6 51bf
00000110: b8de 58be 0c59 893e 2047 a43e 54bc 3a3f
00000120: 3a3d 45be c5da b2bd 9991 2ebf 49d0 bdbd
00000130: 32a8 293f 0d92 843a 17e9 f23e 74f8 9a3e
00000140: d1b2 f63e 4304 083f 7874 603d 5d88 763e
00000150: 97af a9bf 7659 6cbf e12f 253d 61c6 073d
00000160: 6e00 00bf ed30 a33c d30d 063f b476 c4bd
00000170: 5d33 2b3e e433 213f 6191 19bf 63fb 87be
00000180: 672c 733d ac8f 363d c851 f23d c2b1 103e
00000190: ef5f 01c0 74f1 b7bd 11de 82be 46a5 7ebe
000001a0: a883 963d c266 043f 0170 9f3c df2d 703f
000001b0: e26c 3bbf 6b80 86bf 7749 70bf 6284 a73d
000001c0: f940 823e 5937 063f 9995 a9bd 4822 60bf
000001d0: a518 203f f21f 4ebd 34e9 42be 28d2 81bc
000001e0: 854f e5bd 9d7e 2f3e aabc 3cbf dc08 c03e
000001f0: f381 4abe db56 783c f506 ca3e c206 93be
00000200: 283a 0d3e 3f50 8f3e 2c47 35be 0f1b bd3f
00000210: 0793 21bf 6a3c 61bf a1b7 bf3e c53c d23d
00000220: b078 efbe 4931 673e 8c4f d73e 359b 603e
00000230: bc23 8c3f bbd2 36bf 2158 12be adf5 06bf
00000240: f518 1abe db62 84bf 0c8b b0be 369c bcbe
00000250: d959 123f 3ebc eb3e be7b 163f f1dc 9dbb
00000260: 35dc 9bbb a035 783e 017e edbe fa80 0ebd
00000270: 251d 3b3f ac26 c63e ca95 e13d ef31 253f
00000280: 09d2 403f 8245 3a3f 102e b33f 40d0 b33e
00000290: 1240 eabf db5a 8e3e 3838 b4be 0c57 dd3e
000002a0: 0daf ea3d b2ce 8fbf a2aa 0b3e 8a79 b2bf
000002b0: eb9f 11bf 7f46 17be 7a4d 903e ab2a 253d
000002c0: 1a15 b2be 91ae bdbd bb24 06bf 63df 51bd
000002d0: e185 9e3e 7ab9 6ebe 0b7d 09bf 4cba 033f
000002e0: 32f3 483e ac33 673f dc1e b8bd f2d7 b33f
000002f0: 2d62 a93d 5414 a8bc 019e 243e a054 633e
00000300: 406e 53bf bb2b 45be 3ec5 b2be eabe 7fbd
00000310: 3f5c f5be e100 97be 5fbc 323f 3e77 f13e
00000320: 1a36 cdbe 9942 0d3f 47f7 353f 789e 1fbf
00000330: 8cf1 453f 91f2 6b3e bf19 c3be bfeb 963d
00000340: b55f cc3e beb1 233f 7f34 c5be 4d77 dbbf
00000350: c0c3 0cbf 20a5 1cbf 5f9d cebe 58ef edbe
00000360: 2fe9 1c3f 0afc 5e3e 2e05 c8bf e26e a1be
00000370: 5af6 973e fec3 1b3e bd18 9dbe 3dd7 31be
00000380: 46fc 123d 7654 babd e1a4 dd3d 74ab c73e
00000390: ccb4 ea3e 0291 613f ae88 143d 8732 b43d
000003a0: c60a 5abf 4bb2 1ebe 2894 c8be 5f8f 2ebf
000003b0: b2b7 823f 8706 1b3f 7180 f63e 927f f3be
000003c0: 69ea 61bb 227a 0bbf 1b9a 093c 5f8c 38bf
000003d0: 2484 c9be a30c 72be 2a7a 763d eba7 5bbe
000003e0: 9960 45be 6e33 b43e 4d63 5bbf 6e17 5b3e
000003f0: ff46 1fbd 55d7 7d3f 9bfa b43c c628 6c3d
0.52602077 -0.39880523 0.48202124 -0.05678947 -0.95595455 -0.29161423 0.13009298 -0.13813777
0.21535906 -0.4574285 -0.2197732 -0.55548733 0.25090575 -0.1252673 0.059308387 0.24690746
-0.7175954 -0.4516013 -0.5336125 -0.97219145 0.29818267 -0.6052293 0.37013537 -0.018747767
0.18400538 0.37217897 -1.0768687 -1.540997 0.14718577 0.44178376 -0.2515315 -0.3254941
0.46815497 0.18110035 0.16108099 -0.24001987 -0.08303438 -1.1071374 0.4905846 0.48322853
-0.3345041 -0.49385482 0.14537425 0.42041284 -0.16124542 -0.35271493 -0.13011491 0.6402055
0.24060313 1.8546187 1.0663188 0.2235344 -0.6354818 -0.2795006 0.07243152 -0.071377784
0.35953265 0.041174248 0.77265066 -0.18187915 -0.7079758 -1.4260492 0.32876024 0.23685707
0.2731028 -1.2009842 0.40487066 -0.82016575 -0.2117871 0.2682575 0.32085514 0.72943616
-0.19261637 -0.08733133 -0.68190914 -0.09268243 0.6627227 0.0010114327 0.47443458 0.3026768
0.481833 0.531315 0.054798573 0.24075456 -1.3256711 -0.92324007 0.040328864 0.033148173
-0.50000656 0.01992079 0.52364844 -0.09592953 0.16718812 0.62969804 -0.59987456 -0.2655898
0.059368517 0.04457061 0.11832005 0.14130309 -2.0214803 -0.089816004 -0.25560048 -0.24867734
0.0734933 0.51719296 0.019462587 0.93819994 -0.73213017 -1.050794 -0.938621 0.08179547
0.25440195 0.52428204 -0.082804866 -0.8755231 0.62537605 -0.050323434 -0.19034272 -0.01584728
-0.11196808 0.17138143 -0.7372538 0.3750676 -0.19776134 0.015157427 0.39458433 -0.28716093
0.13791716 0.2799091 -0.17702931 1.4773883 -0.6311497 -0.8798281 0.37444785 0.10265497
-0.46771765 0.22577395 0.42052877 0.21934207 1.0948405 -0.714153 -0.14291431 -0.5271862
-0.15048583 -1.0342668 -0.34481084 -0.3683793 0.57168347 0.46042055 0.58782566 -0.004817598
-0.0047564753 0.24239206 -0.46385196 -0.03479097 0.73091346 0.3870138 0.11014898 0.6452932
0.7532049 0.7276231 1.3998432 0.3511982 -1.8300803 0.27803692 -0.35199142 0.43230474
0.114591695 -1.1234953 0.1363931 -1.3943341 -0.5688464 -0.14772986 0.2818411 0.040323894
-0.34781724 -0.092618115 -0.52399796 -0.05123843 0.30961516 -0.23312941 -0.53706425 0.5145614
0.19624022 0.9031322 -0.08990261 1.4050276 0.08270679 -0.020517506 0.16075899 0.2220025
-0.82590103 -0.19254963 -0.3491611 -0.06243793 -0.4792194 -0.29492858 0.6981868 0.47161287
-0.4008034 0.55179745 0.7108044 -0.6235118 0.77321696 0.2304175 -0.3810558 0.07369184
0.3991677 0.6394309 -0.38516614 -1.7145783 -0.5498619 -0.6118946 -0.4035444 -0.46471667
0.6129331 0.21775833 -1.5626581 -0.3152991 0.2968014 0.15211484 -0.30682936 -0.17367263
0.035885118 -0.09098141 0.10822464 0.38997996 0.45841062 0.8811189 0.03626316 0.087987
-0.8517269 -0.15497701 -0.39175534 -0.68187517 1.0212309 0.60556835 0.48144868 -0.47558266
-0.0034471995 -0.54483235 0.008398558 -0.7208919 -0.39358628 -0.23637633 0.0601751 -0.21450774
-0.1927513 0.35195488 -0.85698396 0.21395656 -0.038886067 0.99156696 0.022092154 0.057656072

main.0.bias f4 [32]
00000000: fb49 e03e bc31 1b3f 96c3 083f 7dfc 803d
00000010: 6f3e 483e eed6 c63d 7a86 b83e 4e31 343f
00000020: 294e 883e 84b9 243c 4f7d b93d 7d96 1bbf
00000030: 8442 fdbc 22bd 313e f653 bc3e 1910 17be
00000040: e4e7 19be 1f91 1b3f 7e56 a9be 9e55 6b3d
00000050: fca3 903d f726 193e e558 d43e f69f 873f
00000060: 94d9 ad3e 2e78 a4bc 5a05 b63e 877f 0e3c
00000070: cf20 993e cd0a c33c 0a82 3c3f 08dc 123e
0.43806443 0.60622764 0.5342344 0.06298158 0.19555067 0.09708963 0.36040097 0.70387733
0.2662213 0.010053996 0.09057104 -0.607765 -0.030915506 0.17357305 0.36782807 -0.14752235
-0.15029866 0.6076831 -0.330738 0.057454698 0.070625275 0.1495627 0.4147407 1.0595691
0.3395506 -0.020076837 0.35550958 0.008697397 0.29907843 0.023808861 0.73635924 0.14341748

main.2.weight f4 [32, 32]
00000000: 029e 9bbf 7578 08bf 90da 9cbf 0a38 8b3e
00000010: 7308 a8bf 0d56 21bf 804f 743e db7f 1cbf
00000020: 3a94 b73e fbc4 ad3e a240 543e 49f7 963f
00000030: dbb5 5dbe cf10 323f 2b02 b43e 7359 e1be
00000040: feeb 053e 9979 143e f979 353f a6ca 883e
00000050: 60d8 2f3e 077a df3d eb2d 273f 8f17 433e
00000060: 4a92 ecbd 4cf4 e3bd a9d3 d73e 094b 69bd
00000070: ea8b 04be 5311 153f c503 c3bf 2479 a53e
00000080: 912d cf3d 6ca7 8ebd 85ec 27be 80e7 cd3d
00000090: aac2 0ebd 8a22 d33c fd64 d0bd 4a36 c0bd
000000a0: 3f73 963a 2fda 2cbe 6037 0cbe 5235 b5bc
000000b0: a3b4 c03d e263 22be 10a5 903d 7f3c 5ebd
000000c0: 29a2 1cbe f22f a6bd 02c8 ad3d 49e2 40be
000000d0: 6444 66bd 80c5 e13d f568 78bd 07c1 ba3b
000000e0: a72f cb3b 546f 76bc 7bac 2ebe e5f1 87bd
000000f0: 22cc 9a3c b7d4 37be 079b e93d e980 0dbe
00000100: d1bd a7be a779 263d dfdc 70be 52ab 043f
00000110: 763a f5be 09bd 4abf 6aaf 22bd 4e79 71be
00000120: f83c fe3e 6843 043e 8f35 753e c2c5 9e3f
00000130: 7903 0cbf 7f3c fb3e becf c13e fcb9 3fbf
00000140: d36a 88be 4d35 d9be 53de 203f 956d 823d
00000150: fef5 c83d befd 563f 4a89 033f 5aad c9be
00000160: 7c97 64be 95fd 1cbe a464 bb3e 7ea4 a23e
00000170: 3933 d3bd d98a 2e3f 07fe fbbe ea37 963e
00000180: d70f 19bf 06a3 96be 229e a3be 6bb7 213f
00000190: 59bb 27bf f811 00c0 d154 c03e f225 12bf
000001a0: 1967 113f 051d 7f3e a053 5b3e eaed 563f
000001b0: e5da d0be 5d9d 3dbd 0d51 303f ad32 9abd
000001c0: 8548 3f3f f05c b2be 840d a73d 6579 d5be
000001d0: 6e3e 223e 009a 753f dcad 96be f60b 94be
000001e0: b132 ab3e 9ec5 f1bc ca60 a83e f3a2 8dbf
000001f0: 3d06 8cbd 93af 193f 8422 a3bd f043 1a3e
00000200: d76a 07be 184e 0c3e a58d 163f 9300 3cbe
00000210: d820 f63d 65d0 5e3e ebbf c83d 69d7 ca3d
00000220: 67b7 e7bd c7b9 ac3e 4a3c 26bf dd6a afbd
00000230: 6f7d 883f ce31 f4be 9e89 c0bc d1db b13f
00000240: ed2a 2ebf 7796 f83e d7f8 39bf de35 fabf
00000250: 9c1b 6abd 17a1 023e 6ac5 98bf f4b8 0fbe
00000260: 347c 9fbe fa88 d93e e858 bebd c813 0a3f
00000270: 029c 95bd 50b9 0b3f 627f e93e f204 453e
00000280: 43da 0cbb c7ce 89bd 2dd3 98be 9acc 9ebe
00000290: a43c 58be 6739 6abf f20c b13e 48c5 cf3d
000002a0: faa9 c7be 7fa8 1f3f 1b49 ca3e 4db5 84bf
000002b0: e343 b9be 0a38 af3d f206 a5bd 70c9 003d
000002c0: a348 b83e 6bd2 443d 9d63 023f 3a9c f23d
000002d0: ffe6 dc3e 36f3 9bbf ca1b 1abe f474 d43e
000002e0: 7db1 b73e 57e8 0dbe 7244 e0bd c3c1 013e
000002f0: ce32 08be 3965 183e 5e09 5ebe 252a 953c
00000300: 9bf0 f3be 64aa e0bd 092e 02bf 35d0 1a3f
00000310: b412 8abe b6ec 20bf 33a9 d93c 0857 09bc
00000320: 6b11 773e 6983 8b3e 965e a7bd c0ef 923f
00000330: 777f d5be 8695 ec3e 8b29 443e ad4e 17bf
00000340: e26f 81bf e304 b8be f8ac 933e 198c c63e
00000350: 4e7c c53e 7fea 243f 391c f93e 7fa3 6cbe
00000360: bbb9 2a3e 204b 67be 7db5 c83e c08f ca3e
00000370: b093 d13d b804 4a3f 0ebe c1be 775e 153f
00000380: 35c7 ff3e 4666 ca3e 377c 5d3e 3463 d63e
00000390: 3698 213a 9beb 2abf 148d 16be 1a70 273e
000003a0: 31b5 f4bc 708e 7b3e 542d a1bf 6950 1bbf
000003b0: 520d 573e c673 58bf 5a62 a43e b11d 3bbf
000003c0: defb 0b3e acaf 8dbf 1182 75bd 471e 18bf
000003d0: 7795 91bd 3bf2 a23e 498f bcbe e911 c1bf
000003e0: 2a64 3abe 268e 3fbf 8ec0 893e 6e8d a33e
000003f0: 38de 79be e77f 003f 0642 7f3e 0a31 833e
-1.2157595 -0.533088 -1.22542 0.27191192 -1.3127578 -0.6302193 0.23858452 -0.6113259
0.35855275 0.33939347 0.2072778 1.1794215 -0.21651404 0.695569 0.35157904 -0.44013557
0.13078305 0.14499511 0.7088924 0.26717108 0.17172384 0.10911947 0.6530444 0.19051956
-0.1155134 -0.1113058 0.4215367 -0.056956325 -0.12943998 0.5822956 -1.5235525 0.32318985
0.10116113 -0.06965527 -0.16398819 0.10053921 -0.034853615 0.025773305 -0.10175512 -0.09385355
0.0011478438 -0.16880105 -0.13692999 -0.022120152 0.09409454 -0.15858415 0.07062733 -0.054256912
-0.15296234 -0.081146136 0.08485414 -0.18836321 -0.056217566 0.11023998 -0.06064697 0.00569928
0.006200749 -0.015041191 -0.17057984 -0.066379346 0.018896166 -0.17952238 0.11406522 -0.13818707
-0.32762006 0.04064336 -0.23521756 0.51823914 -0.47896165 -0.79194695 -0.03971807 -0.2358143
0.4965589 0.12916338 0.23946212 1.2404101 -0.546928 0.49069592 0.37853807 -0.74893165
-0.26644 -0.42423478 0.6283924 0.06368557 0.09812544 0.8398093 0.5138136 -0.3939007
-0.22323412 -0.15331109 0.3660022 0.31766123 -0.10312504 0.68180615 -0.49217245 0.29339534
-0.59789795 -0.29421252 -0.31956583 0.631705 -0.65520245 -2.0010967 0.3756471 -0.5708915
0.5679794 0.24913414 0.21418619 0.8395678 -0.40792003 -0.04629265 0.68873674 -0.07529197
0.7472003 -0.3483653 0.08156875 -0.4169418 0.15844128 0.9593811 -0.2942952 -0.28915375
0.33437112 -0.029513177 0.32886344 -1.1065353 -0.06837127 0.6003353 -0.07965568 0.15064979
-0.1322435 0.13701665 0.5880988 -0.18359594 0.12017983 0.21759184 0.098022304 0.099043675
-0.11314278 0.33735487 -0.64935744 -0.085653044 1.0663279 -0.47694248 -0.023503121 1.3895208
-0.6803425 0.48552296 -0.72645324 -1.9547689 -0.057155237 0.12756763 -1.1935246 -0.14035398
-0.31149447 0.42487317 -0.09294301 0.53936434 -0.07305147 0.5457964 0.45604998 0.19240168
-0.0021492399 -0.06728893 -0.29848614 -0.31015474 -0.21116883 -0.9149384 0.3458019 0.1014505
-0.3899687 0.6236648 0.395089 -1.0367829 -0.36184606 0.085556105 -0.08057965 0.031442106
0.35992917 0.048052233 0.5093325 0.11846204 0.43144986 -1.2183597 -0.15049663 0.41495478
0.358776 -0.13858162 -0.10950555 0.1267157 -0.1330063 0.14882363 -0.21683261 0.018208573
-0.47644505 -0.109699994 -0.50851494 0.6047395 -0.26967394 -0.6286119 0.026569938 -0.008382566
0.24127738 0.27248695 -0.08172338 1.1479416 -0.4169881 0.46207827 0.19156472 -0.59104425
-1.0112269 -0.35941228 0.28842902 0.3877876 0.385714 0.6442031 0.48654345 -0.23109244
0.16672413 -0.22587252 0.39200965 0.39562798 0.10233247 0.7891345 -0.37840313 0.58347267
0.4995667 0.39531153 0.21629415 0.4187256 0.0006164344 -0.66765755 -0.14702255 0.16351357
-0.029871555 0.24566054 -1.2591958 -0.6066957 0.21001175 -0.84551656 0.32106286 -0.7309218
0.13670298 -1.1069236 -0.059938494 -0.594212 -0.07108586 0.31825432 -0.36828068 -1.5083591
-0.18202272 -0.74826276 0.2690472 0.3194384 -0.24401176 0.50195163 0.2492753 0.2562335

main.2.bias f4 [32]
00000000: 7e0f 053e 8a48 35be f302 debd ea4b a7bd
00000010: 9c41 ae3e 7347 bf3e 5818 153e 5047 a2be
00000020: 3bcb 1c3b dea1 683e 821e 0e3e 9587 ba3e
00000030: 9e86 243e 1461 263c 5a47 edbd c371 ee3e
00000040: a54a 113e a33b 99be c0e6 05be 8e52 893e
00000050: f3fa f53e 07e4 9c3d 3847 f83d a233 ce3d
00000060: f035 19be 6195 bcbb a23a d1bd 2785 3c3e
00000070: 2d99 923e 9bf9 04be 0332 94bc 7822 e03e
0.12994191 -0.17703453 -0.10840406 -0.08168776 0.3403443 0.373592 0.14560068 -0.31695032
0.0023924846 0.22717997 0.13878825 0.36431566 0.16066977 0.010154981 -0.11585875 0.46571168
0.14188631 -0.29928312 -0.13076305 0.26820797 0.48043022 0.0766068 0.12122959 0.10068442
-0.14961982 -0.005755112 -0.102162614 0.18410169 0.2863249 -0.12985842 -0.018090254 0.43776298

main.4.weight f4 [4, 32]
00000000: 740f 50bf 98ea e73d fb24 09bf 41a6 31bf
00000010: 9826 853f 9c7f 85bd 6cf7 c4be 57dc cc3c
00000020: 89d5 f0be e98e 18bf e5d4 133d d810 843f
00000030: 1d74 1fbf bd04 763f bb00 0fbf d057 933f
00000040: d7e0 7f3f ed3f 3d3f 68e1 41be e743 643f
00000050: e188 753f 213b 80bf 5948 7f3f 2a1a d53f
00000060: 11fb 5ebf abb8 cebe 1f85 7d3e 05d5 adbd
00000070: bd7a 16bf f957 4fbe ad4f 48bf c053 0dbf
00000080: 04e4 fabe 6bc7 0e3e 286b 1fbf 2f3b 5dbf
00000090: 7214 8d3f a961 353e 244a 34bf 6119 a3be
000000a0: e70a c4be ab3e 2cbf 966c 6dbe e322 cf3f
000000b0: e31d e0bd c478 2f3f d5cf fbbe 8c88 4d3f
000000c0: 43f1 5e3f 2144 693e 6954 c73e ffce 8e3d
000000d0: bf8e 5e3f 5bce 7abf dfb5 403f 04e8 1540
000000e0: 5bdd d5be e2db cabe 45cf c93e 2c8c 7a3e
000000f0: c26b 0dbe 53fe efbe 1e4f 71be 8ecc 43bf
00000100: 312f 75be 0be9 453c a4b3 b4be 7943 35be
00000110: 02e6 ae3f 8031 60bf a634 b8be 2f0f 75bf
00000120: 2ff3 06bf e216 0dbe 7e8b dfbe b45a 823f
00000130: 1387 073f 638c 2b3f cf0b 0ebf c313 663f
00000140: 981f 623f c41e 6cbf f28c 7b3f 4f1d 7c3f
00000150: b649 343f 5709 5ebf 91f9 543f 382b dd3f
00000160: f8da b5be 5d54 41bf 8ccc 7d3d 8a9f 04bf
00000170: f1ea 583e 5c43 edbe f19d 94be cc29 46bf
00000180: cfd0 03bf bf0c c5bd 4162 04bf d9f2 a4be
00000190: 180a 933f 6a68 df3e 21b2 89be b118 fcbe
000001a0: 157e 5fbe b876 14bf 1e45 2cbf 27c8 cd3f
000001b0: 8f28 a73e 9baf 953f ca70 00bf 5223 6c3f
000001c0: 5e08 803f 7295 1a3f a64b 383e 9eef e73e
000001d0: 2b9c 013f 6898 4bbf d22f 6b3f 9293 1640
000001e0: 2ddf 77bf abd4 bfbe 1e92 1d3f ccf0 f0be
000001f0: be7d 03bf e6ab f4be c2e2 04be 81c5 51bf
-0.8127358 0.11324042 -0.5357205 -0.6939431 1.0402403 -0.0651848 -0.38470018 0.02500741
-0.47037914 -0.59593064 0.036091704 1.031764 -0.6228655 0.9610098 -0.5586049 1.1511173
0.99952453 0.7392567 -0.18933642 0.8916611 0.95911986 -1.0018045 0.9971977 1.664861
-0.87101847 -0.40375265 0.24757813 -0.08487896 -0.58781034 -0.20248403 -0.78246576 -0.5520592
-0.49002087 0.1394326 -0.6227288 -0.8641843 1.1021864 0.17713036 -0.7042563 -0.318553
-0.38289568 -0.67283124 -0.23185953 1.6182522 -0.109432004 0.6854365 -0.49182 0.8028648
0.87086886 0.22779895 0.38931587 0.06973075 0.86936563 -0.97971123 0.75277513 2.342286
-0.41770443 -0.39620882 0.39415947 0.24467534 -0.13810638 -0.4687372 -0.23565337 -0.76484
-0.23943783 0.012079488 -0.35293305 -0.1770152 1.3663943 -0.8757553 -0.35977668 -0.95726293
-0.5271482 -0.1377826 -0.43661112 1.018393 0.5294048 0.6701109 -0.5548677 0.89873904
0.8832946 -0.92234445 0.9826194 0.9848222 0.70424974 -0.86733 0.8319331 1.7278814
-0.35518622 -0.75519353 0.06196265 -0.5180594 0.21183373 -0.46340454 -0.2902675 -0.77407527
-0.5149049 -0.09621572 -0.51712424 -0.32216528 1.1487455 0.4363435 -0.26893714 -0.49237588
-0.2182544 -0.5799365 -0.67292964 1.6076707 0.3264813 1.1694216 -0.501721 0.92241395
1.0002553 0.60384285 0.17997608 0.453 0.5062892 -0.7952943 0.91869843 2.352757
-0.96824914 -0.3746694 0.6155108 -0.47058713 -0.5136374 -0.47787398 -0.12977126 -0.8194199

main.4.bias f4 [4]
00000000: de46 283e bcae 47be 8939 493d 14e4 1dbe
0.16433284 -0.1950025 0.049127135 -0.15419036
