log/dqn/dqn_1.pth (torch, 7895 bytes, 6 tensors)

main.0.weight f4 [32, 8]
0.22135125 -0.6955712 -0.033195075 -0.72175133 -0.31995636 -0.20106502 0.45720798 0.3681484
-0.18259904 0.28635132 -0.39121717 -0.387972 -0.34640992 -0.116962805 -0.325868 0.2094039
-0.50863487 -0.11756336 1.8554713 0.029764717 -0.5671796 0.012187138 0.36155024 0.30125502
0.7606457 -0.12671202 0.047325622 -1.9323027 -0.85413224 -1.0117934 0.23186457 -1.0817285
-1.2801561 -0.41622084 -0.58571404 -0.8570287 -0.47727168 -0.43652803 -0.28657913 -0.985606
0.46606326 0.30090836 0.2884128 0.6526156 0.43938 -0.12242375 -0.5625525 -0.45401254
-0.107986905 0.04625708 0.8465237 0.09473175 -1.3008833 -0.6525857 -0.066547275 0.22302409
-0.052915707 0.026707668 0.11266445 0.1097957 0.42317984 0.5486676 0.4805005 -0.70108867
1.2433423 -0.21638659 -0.09429189 -0.14796221 -1.2941593 -0.34545097 0.009025319 -0.0561311
0.541895 0.17131014 -1.1409217 0.90135163 0.5511153 0.67615706 0.029640041 -0.08172852
0.4539385 0.020455826 0.7405887 -0.4978658 -0.22975282 0.48548627 0.5117895 0.22713117
-0.86123735 0.47805804 -0.16956599 0.15788426 -0.9338528 -0.019617025 0.06746093 -0.25623468
1.0178087 -0.29020166 0.79350185 -0.82315403 0.78905237 0.57680196 -0.19553883 0.05364107
0.102075726 0.5349702 -0.53849965 -0.87365144 0.1629777 0.348021 -0.22531636 -0.3296257
0.043157354 -0.7808028 0.5987158 -1.5981966 0.26531744 0.1014789 -0.098540656 -0.083271205
0.43976024 -0.28414047 -0.85856986 -0.80933744 -0.44228896 0.13104913 0.27809432 -0.10578775
-0.059394877 0.75945145 -0.072771676 -1.713676 0.36197108 -0.32782182 0.15110914 -0.14217372
-0.20141657 -0.5201368 -0.6707467 0.2731629 -0.24651495 -0.14723952 0.5557962 -0.5799379
0.040318802 0.0108932145 0.32001495 -0.014504965 0.14750682 -0.18484205 0.8288698 0.11837283
-1.0439061 0.036729485 0.01709173 -0.36229125 -0.90110844 -0.4903899 -0.3465199 0.058733996
-0.25718665 0.13956958 1.0292118 -0.50736815 0.92013043 1.499392 0.09934532 -0.3992124
-0.30142242 -0.10362104 -0.4796088 -0.0013667201 0.3718235 -0.61669964 -0.07321926 0.16997701
0.32722667 -0.13116767 -0.7857453 -0.12188462 0.3162187 0.9232643 -0.1569036 -0.44365647
-0.1573779 -0.20169713 0.27520317 -0.39017475 -0.069503404 0.11723314 0.11896527 0.13098189
0.3779649 -0.1989279 -0.66585636 0.50387675 -1.0198401 -0.9817817 0.4852591 0.25611556
-0.39141592 0.026607644 -0.5363936 0.053615667 0.649229 0.49750143 0.35079822 0.04855544
-0.08867706 -0.27445826 -0.21169548 0.03764732 0.7634174 -0.008158159 0.06968484 0.85740566
-0.6920548 0.11523841 -0.2730378 -0.37441936 -0.43496612 -1.2529345 -1.2069186 0.22647248
0.94031805 0.31072983 -0.2265956 0.7643453 0.55169976 0.08525966 0.30308136 0.39672074
-0.21232702 0.0058562374 0.30546206 -0.12345787 1.7973726 0.34873223 0.33769545 0.15987454
-0.114943124 -0.79083854 -0.18504544 -0.36906597 0.6979092 0.60170966 -0.67873055 -0.26780653
-1.5589442 -0.21529886 -0.21494704 -0.3910394 0.46222574 0.12420026 0.19878514 -0.13100909
00000000: e7a9 623e f410 32bf 8ff7 07bd b2c4 38bf
00000010: 52d1 a3be fde3 4dbe 2a17 ea3e f27d bc3e
00000020: 3efb 3abe a49c 923e 9e4d c8be 44a4 c6be
00000030: a45c b1be 328a efbd 2cd8 a6be fa6d 563e
00000040: e535 02bf 0fc5 f0bd 1580 ed3f 23d5 f33c
00000050: af32 11bf 90ac 473c 1d1d b93e 193e 9a3e
00000060: adb9 423f ccc0 01be 83d8 413d b255 f7bf
00000070: 69a8 5abf 7282 81bf e86d 6d3e 1476 8abf
00000080: 28dc a3bf e61a d5be 5bf1 15bf 3c66 5bbf
00000090: f45c f4be 9a80 dfbe 80ba 92be ad50 7cbf
000000a0: d89f ee3e a910 9a3e d8aa 933e d111 273f
000000b0: 6af6 e03e 4eb9 fabd 7103 10bf 5574 e8be
000000c0: 3d28 ddbd 1078 3d3d c7b5 583f b802 c23d
000000d0: 5883 a6bf db0f 27bf f049 88bd 6d60 643e
000000e0: 24be 58bd 0aca da3c 9fbc e63d 91dc e03d
000000f0: 07ab d83e 7b75 0c3f 2904 f63e 8c7a 33bf
00000100: d725 9f3f 7294 5dbe 1b1c c1bd 6883 17be
00000110: 03a7 a5bf f3de b0be eede 133c b9e9 65bd
00000120: a1b9 0a3f ed6b 2f3e b909 92bf fbbe 663f
00000130: e415 0d3f a118 2d3f accf f23c 4861 a7bd
00000140: a16a e83e fa92 a73c 3997 3d3f 44e8 febe
00000150: 5344 6bbe a891 f83e a304 033f 1395 683e
00000160: 0d7a 5cbf 06c4 f43e b5a2 2dbe 69ac 213e
00000170: fa10 6fbf e2b3 a0bc f528 8a3d 3131 83be
00000180: 8e47 823f 5095 94be f022 4b3f 39ba 52bf
00000190: 56ff 493f 4ba9 133f 553b 48be bdb6 5b3d
000001a0: 140d d13d cff3 083f 1ddb 09bf 9fa7 5fbf
000001b0: a0e3 263e cf2f b23e 55b9 66be b3c4 a8be
000001c0: c4c5 303d b1e2 47bf 7045 193f b591 ccbf
000001d0: b0d7 873e 2bd4 cf3d afcf c9bd 188a aabd
000001e0: 4128 e13e dc7a 91be 3ccb 5bbf bd30 4fbf
000001f0: b373 e2be be31 063e 6162 8e3e 3fa7 d8bd
00000200: 0b48 73bd 696b 423f 5109 95bd bc59 dbbf
00000210: 4654 b93e 43d8 a7be 5bbc 1a3e fd95 11be
00000220: 2540 4ebe af27 05bf 0eb6 2bbf 02dc 8b3e
00000230: 6a6e 7cbe f5c5 16be a948 0e3f cf76 14bf
00000240: 5425 253d 7479 323c 00d9 a33e 3ca6 6dbc
00000250: 070c 173e 3c47 3dbe d030 543f 746d f23d
00000260: b79e 85bf a871 163d f503 8c3c 3d7e b9be
00000270: 0baf 66bf 6314 fbbe 0e6b b1be 0f93 703d
00000280: f8ad 83be 54eb 0e3e 36bd 833f e1e2 01bf
00000290: ab8d 6b3f 14ec bf3f 8f75 cb3d 9165 ccbe
000002a0: 0a54 9abe 4537 d4bd 498f f5be 8423 b3ba
000002b0: a65f be3e 07e0 1dbf fbf3 95bd 740e 2e3e
000002c0: 418a a73e d150 06be 9b26 49bf a59e f9bd
000002d0: 6be7 a13e 0d5b 6c3f 56ab 20be f126 e3be
000002e0: ac27 21be b189 4ebe 6ee7 8c3e fcc4 c7be
000002f0: cd57 8ebd ee17 f03d 10a4 f33d 1e20 063e
00000300: 9e84 c13e c1b3 4bbe 9075 2abf 11fe 003f
00000310: 1f8a 82bf 0c56 7bbf e173 f83e 9421 833e
00000320: ab67 c8be 46f8 d93c 1751 09bf 1a9c 5b3d
00000330: df33 263f 82b8 fe3e d39b b33e 12e2 463d
00000340: 529c b5bd cb85 8cbe b3c6 58be 1434 1a3d
00000350: 536f 433f cda9 05bc edb6 8e3d f07e 5b3f
00000360: 812a 31bf 1e02 ec3d 9ccb 8bbe e5b3 bfbe
00000370: e1b3 debe 2860 a0bf 4f7c 9abf 67e8 673e
00000380: afb8 703f fb17 9f3e ad08 68be 22ac 433f
00000390: 323c 0d3f 9e9c ae3d 7b2d 9b3e fb1e cb3e
000003a0: 416c 59be aee5 bf3b 8665 9c3e 7bd7 fcbd
000003b0: 4e10 e63f 088d b23e 6be6 ac3e 27b6 233e
000003c0: 4d67 ebbd 6574 4abf 8d7c 3dbe 37f6 bcbe
000003d0: 2daa 323f a509 1a3f 49c1 2dbf f01d 89be
000003e0: 7c8b c7bf 4e77 5cbe 141b 5cbe 5136 c8be
000003f0: daa8 ec3e b55c fe3d 558e 4b3e 3f27 06be

main.0.bias f4 [32]
-0.25847283 0.6303269 0.20072 0.4052644 -0.12895972 0.24280047 0.26610562 -0.23538737
-0.14013505 0.24723662 -0.22563858 -0.21414979 0.025893217 0.7093379 0.8865916 0.55243665
0.22379705 0.29690862 0.24261223 -0.39126328 -0.0333575 0.17233206 -0.35982117 0.42752716
0.011760397 0.11319579 -0.26208475 -0.056235816 0.04540421 0.13276836 -0.32487997 -0.078756995
00000000: 8d56 84be 1b5d 213f 8b89 4d3e d17e cf3e
00000010: 040e 04be b0a0 783e ff3e 883e 6309 71be
00000020: 907f 0fbe 992b 7d3e cd0d 67be 154a 5bbe
00000030: 031e d43c 2b97 353f abf7 623f 7d6c 0d3f
00000040: 0e2b 653e 6804 983e 576f 783e a953 c8be
00000050: e0a1 08bd d177 303e 7b3a b8be d7e4 da3e
00000060: aeae 403c 32d3 e73d f92f 86be 8757 66bd
00000070: c4f9 393d 6ef4 073e ab56 a6be 594b a1bd

main.2.weight f4 [32, 32]
-0.057727113 0.018362839 0.13226134 0.15203068 0.6071084 -0.35215893 0.3417961 0.8338097
0.87099236 0.5358081 0.42922717 0.39516488 0.7523623 -0.097643845 -0.36154467 0.01766814
-0.14896016 -0.8112698 0.042798333 -0.03127471 0.20752189 -0.5360159 0.083235815 -0.048039086
-1.0924577 0.46774444 0.28213784 -0.44709152 0.039439272 -0.48207015 0.6881835 0.47699422
-0.77054465 -0.19174768 -0.30113077 -0.24563183 -0.56339806 0.12460307 0.45425427 0.6813149
-0.86670035 -0.3642472 0.730839 -0.031507548 -0.6820435 0.16376415 -3.3414314 -0.080979005
-0.102173574 0.12570235 0.46691287 0.04042674 0.72606725 -0.16597122 0.72518307 0.47753292
-1.1962433 0.3817604 -0.26652318 -0.042644482 -0.5894736 -0.5654497 0.0056578186 -0.63222927
-0.7433024 0.22677633 0.6849583 0.0682406 0.2738426 -0.23710997 0.047258407 -0.66997707
-0.5741568 0.022704711 -0.93303335 0.25184703 -0.21482721 0.12281906 0.53893065 0.014472475
-0.0846745 0.25964713 -0.3058705 -0.16728336 0.22216228 -0.10355888 -0.5881198 -0.18120651
0.2747377 -0.36617693 -0.69737333 -0.23556761 0.21490894 1.3847176 -1.2807972 -0.21958692
-0.04427693 -0.43736973 -0.10331895 -0.0738565 0.017757928 -0.27426437 -0.39525527 0.2606915
-0.4010304 0.17220616 -0.04347091 -0.21506807 -0.19461997 -0.13244663 -0.13044487 -0.13204679
-0.2377582 0.1533767 -0.21435757 -0.14036399 -0.026357511 -0.30754587 -0.06153721 -0.3072011
-0.26797515 0.011490415 -0.42658725 -0.17056623 -0.1732021 -0.11964244 0.24498074 0.21289182
-0.16233431 0.22704804 0.39712715 -0.020755542 0.058250915 -0.4211909 -0.015121953 -0.31531468
-0.76305133 -0.39811572 -0.081032164 0.5878082 -0.4062106 0.3215829 0.40286663 0.27153647
-0.0587722 0.29045716 -0.16178541 -0.13263743 -0.3114151 -0.15999325 -0.77450496 0.09480476
-0.17618488 -0.11151177 -0.012931917 -0.3083302 0.39533383 1.0623629 -0.75900364 -0.8876906
-0.6090514 0.26119214 0.5198028 -0.109864965 -0.10772867 0.099624686 0.0083629815 -0.5946101
-0.7386357 -0.26592505 -0.39080036 0.40089723 -0.5335275 0.35601726 0.3433392 0.09883559
0.020401007 0.5481558 -0.07108377 -0.14572056 -0.27814752 -0.3958401 -0.6287826 0.04247035
0.12711 -0.101801336 -0.23180504 -0.51592284 0.25589937 0.90641314 -0.19424365 -0.8806253
-0.28048906 0.14081587 0.5482445 -0.38334855 0.34035498 -0.7749853 0.35477382 0.051727086
-0.15782812 -0.12650812 0.05212005 0.29018137 -0.60115117 0.027302222 0.5460344 0.0895016
-0.34022686 0.33115473 0.064934656 0.15890324 0.010787243 0.21639632 -1.1087853 0.32874194
-0.25050157 -0.34666696 0.16026466 0.62095875 -0.28269473 0.27609223 0.18835801 -0.0045411545
-0.14419967 -0.03427249 0.11344427 0.7128102 -0.119595155 0.09806221 -0.4961997 0.40783763
0.11420468 -0.2539818 -0.13962527 0.69062436 -0.60331 0.35719815 0.17275847 0.15754548
0.18293671 0.48914695 -0.4779844 -0.22834294 0.49810758 -0.14803499 -0.39979532 -0.26228157
-0.09173169 0.06212711 -1.7562535 -0.14512123 0.04448986 0.8418841 0.010138592 -0.09151557
00000000: 4473 6cbd aa6d 963c 846f 073e eead 1b3e
00000010: 756b 1b3f 2d4e b4be e6ff ae3e 8d74 553f
00000020: 5bf9 5e3f b82a 093f aac3 db3e 0d53 ca3e
00000030: d19a 403f 7ff9 c7bd 621c b9be c6bc 903c
00000040: 0389 18be 61af 4fbf 4e4d 2f3d e919 00bd
00000050: 9e80 543e 5738 09bf 8a77 aa3d a2c4 44bd
00000060: a7d5 8bbf 337c ef3e 5f74 903e 2ee9 e4be
00000070: 138b 213d e6d1 f6be cb2c 303f 9638 f43e
00000080: 6a42 45bf 8159 44be d02d 9abe e986 7bbe
00000090: db3a 10bf e52f ff3d 0494 e83e a76a 2e3f
000000a0: 13e0 5dbf 9c7e babe 4418 3b3f 0f0e 01bd
000000b0: 679a 2ebf cab1 273e 03da 55c0 52d8 a5bd
000000c0: 6140 d1bd 1eb8 003e 340f ef3e 8296 253d
000000d0: 8bdf 393f 5cf4 29be 99a5 393f 327f f43e
000000e0: 801e 99bf 1976 c33e ba75 88be fbab 2ebd
000000f0: bee7 16bf 50c1 10bf 3965 b93b c7d9 21bf
00000100: 1149 3ebf 0e38 683e 6d59 2f3f bac1 8b3d
00000110: 1935 8c3e f5cc 72be 0892 413d 9e83 2bbf
00000120: f1fb 12bf 3bff b93c 46db 6ebf 18f2 803e
00000130: aafb 5bbe 8f88 fb3d 5cf7 093f f61d 6d3c
00000140: d369 adbd 78f0 843e 0f9b 9cbe 544c 2bbe
00000150: 827e 633e ae16 d4bd 058f 16bf 338e 39be
00000160: 6baa 8c3e 8b7b bbbe 0f87 32bf a338 71be
00000170: 1711 5c3e 6d3e b13f 2af1 a3bf 65db 60be
00000180: ba5b 35bd edee dfbe e398 d3bd 1442 97bd
00000190: 1379 913c 616c 8cbe e65e cabe 5b79 853e
000001a0: db53 cdbe d056 303e 8e0e 32bd ce3a 5cbe
000001b0: 754a 47be 17a0 07be 5793 05be 4637 07be
000001c0: e376 73be c80e 1d3e 8d80 5bbe 94bb 0fbe
000001d0: b5eb d7bc a776 9dbe 710e 7cbd 7649 9dbe
000001e0: 0a34 89be 4b42 3c3c a569 dabe eaa8 2ebe
000001f0: e45b 31be 1807 f5bd 3bdc 7a3e 5000 5a3e
00000200: f73a 26be 487f 683e 4054 cb3e 8707 aabc
00000210: 8398 6e3d 55a6 d7be 11c2 77bc ed70 a1be
00000220: 5557 43bf d3d5 cbbe 31f4 a5bd 997a 163f
00000230: d6fa cfbe 84a6 a43e 8944 ce3e d406 8b3e
00000240: 1ebb 70bd cdb6 943e 13ab 25be 1bd2 07be
00000250: cd71 9fbe 45d5 23be f545 46bf ff28 c23d
00000260: cf69 34be 4860 e4bd 64e0 53bc 75dd 9dbe
00000270: 3269 ca3e 82fb 873f 104e 42bf b13f 63bf
00000280: cbea 1bbf faba 853e cc11 053f e200 e1bd
00000290: d9a0 dcbd 0708 cc3d e304 093c 5e38 18bf
000002a0: 3b17 3dbf 5427 88be fc16 c8be 6742 cd3e
000002b0: 4295 08bf e547 b63e 28ca af3e 506a ca3d
000002c0: 0320 a73c f053 0c3f 5e94 91bd c537 15be
000002d0: 5a69 8ebe 8eab cabe e5f7 20bf 64f5 2d3d
000002e0: 2029 023e 387d d0bd 4d5e 6dbe 8513 04bf
000002f0: 3e05 833e b10a 683f cfe7 46be a970 61bf
00000300: 439c 8fbe 0932 103e c059 0c3f 4346 c4be
00000310: 0243 ae3e 7065 46bf eaa4 b53e c8df 533d
00000320: b29d 21be 588b 01be d57b 553d a792 943e
00000330: 0be5 19bf e9a8 df3c e9c8 0b3f 9d4c b73d
00000340: 3732 aebe 1d8d a93e 76fc 843d 88b7 223e
00000350: fabc 303c ff96 5d3e adec 8dbf dd50 a83e
00000360: be41 80be 557e b1be 6b1c 243e 27f7 1e3f
00000370: 5dbd 90be f65b 8d3e ece0 403e f7cd 94bb
00000380: 14a9 13be 4f61 0cbd 7855 e83d bb7a 363f
00000390: 4eee f4bd d7d4 c83d e30d febe 18d0 d03e
000003a0: 25e4 e93d e709 82be edf9 0ebe c2cc 303f
000003b0: 8672 1abf ade2 b63e 99e7 303e 9a53 213e
000003c0: c353 3b3e 7871 fa3e 5fba f4be bbd2 69be
000003d0: f507 ff3e 7c96 17be f9b1 ccbe c549 86be
000003e0: d3dd bbbd ff78 7e3d eacc e0bf a99a 14be
000003f0: 003b 363d b785 573f 561c 263c 846c bbbd

main.2.bias f4 [32]
-0.15545587 0.2691127 0.34608343 -0.16103727 0.2135946 0.40854722 0.0028260094 0.24170062
-0.102195986 -0.18175447 0.16110314 0.013792625 -0.048739955 0.10877679 -0.026010724 0.040544435
-0.12795644 -0.24746732 0.112032965 0.4589756 0.055518128 0.31091037 -0.19716394 0.06756109
0.28252774 0.20922334 0.25563088 0.24003811 0.024520526 0.18908933 0.13091494 0.27356058
00000000: d32f 1fbe 24c9 893e d931 b13e f4e6 24be
00000010: 8bb8 5a3e 1a2d d13e 9234 393b 5e80 773e
00000020: 214c d1bd d81d 3abe 39f8 243e 76fa 613c
00000030: 8ca3 47bd 5ec6 de3d 7114 d5bc ec11 263d
00000040: 0307 03be 1368 7dbe 8a71 e53d dafe ea3e
00000050: fa66 633d a52f 9f3e 58e5 49be 785d 8a3d
00000060: 7aa7 903e a53e 563e 0de2 823e 8dcc 753e
00000070: 45df c83c a2a0 413e 910e 063e 2210 8c3e

main.4.weight f4 [4, 32]
0.11664395 -0.7331421 0.60448265 0.10595015 0.74635756 0.7548635 0.6010325 0.38914767
-0.30616656 -0.14306235 -0.46736145 0.84448206 -0.41629708 -0.69887894 -0.5063872 1.331856
0.9378816 1.2092024 -0.35733372 -0.73714423 -0.24484351 -0.5186733 0.38192555 -0.32790217
1.6584916 -0.29164955 0.58917636 0.8822207 1.1925822 -1.3462198 1.3114679 0.9007619
0.38976705 -1.3508738 0.5504692 0.48391807 0.78983843 0.63020766 0.40513018 0.4052404
-0.53203726 -0.22587189 -0.51457983 0.24648337 -0.5585354 -1.0063016 -0.88107425 2.0992439
0.9695678 1.2100173 -0.5069793 -0.6539791 -0.12845674 -0.5209189 0.8087289 0.01438038
2.4083083 0.48815557 1.0051922 0.5101174 1.3740746 -1.5192657 1.1375407 0.6229901
-0.23609747 -0.44701403 0.5074222 -0.06104698 1.0305762 0.69519776 1.081136 0.8620471
0.13681436 -0.32591385 -0.5180149 -0.024396911 -0.8022806 -0.15617563 -0.50510776 0.6315117
1.0817691 1.0528069 0.040848073 -0.7851788 -0.5048036 -0.84257764 -0.60128105 -0.41193545
1.7658592 -0.6144287 0.49130422 0.54689133 1.2125074 -1.0863582 0.93671083 0.75166005
0.023892349 -1.0509487 0.8312564 0.37550128 0.4182945 0.4284673 0.45118088 0.76470137
-0.4148143 -0.291936 -0.34337345 1.2507424 -0.62237704 -0.6145931 -0.4584486 1.5354644
1.0230191 1.0358394 -0.41283616 -0.11477611 -0.4122382 -0.28360406 -0.317517 -0.35424858
2.353901 -0.70165163 0.6700218 1.1648437 1.2970625 -0.9330691 1.2660408 0.8802933
00000000: 06e3 ee3d 33af 3bbf 60bf 1a3f 64fc d83d
00000010: 4a11 3f3f bc3e 413f 44dd 193f 5d3e c73e
00000020: ddc1 9cbe f07e 12be 004a efbe fa2f 583f
00000030: e424 d5be bbe9 32bf 97a2 01bf 427a aa3f
00000040: 0219 703f 25c7 9a3f 72f4 b6be 7cb5 3cbf
00000050: 42b8 7abe c6c7 04bf bf8b c33e cbe2 a7be
00000060: 7449 d43f 1753 95be 43d4 163f 37d9 613f
00000070: 89a6 983f ee50 acbf 2ede a73f 5598 663f
00000080: 8c8f c73e 6fe9 acbf 8deb 0c3f 1cc4 f73e
00000090: da32 4a3f 4a55 213f 396d cf3e ab7b cf3e
000000a0: 9833 08bf f64a 67be 81bb 03bf 2366 7c3e
000000b0: 2dfc 0ebf 7ece 80bf 158e 61bf 035a 0640
000000c0: 9835 783f d9e1 9a3f 65c9 01bf 2d6b 27bf
000000d0: 2a8a 03be f15a 05bf db08 4f3f af9b 6b3c
000000e0: b921 1a40 87ef f93e 23aa 803f 0e97 023f
000000f0: ade1 af3f 4c77 c2bf ef9a 913f 477c 1f3f
00000100: 89c3 71be 06df e4be 6ce6 013f 660c 7abd
00000110: ece9 833f 7bf8 313f aa62 8a3f 1eaf 5c3f
00000120: 1019 0c3e 2ede a6be a09c 04bf 08dc c7bc
00000130: 4362 4dbf 81ec 1fbe be4e 01bf c0aa 213f
00000140: 6977 8a3f 60c2 863f 4f50 273d 7a01 49bf
00000150: cf3a 01bf 2bb3 57bf 8eed 19bf 34e9 d2be
00000160: ad07 e23f 334b 1dbf 3a8c fb3e 1201 0c3f
00000170: 7133 9b3f c90d 8bbf 48cc 6f3f cb6c 403f
00000180: e3b9 c33c 7d85 86bf 38cd 543f b441 c03e
00000190: b22a d63e 1160 db3e 2e01 e73e 78c3 433f
000001a0: 8a62 d4be a378 95be a5ce afbe 5418 a03f
000001b0: 1a54 1fbf f955 1dbf c6b9 eabe 198a c43f
000001c0: 4af2 823f 6396 843f 435f d3be bd0f ebbd
000001d0: e310 d3be 8d34 91be 9791 a2be 1260 b5be
000001e0: 50a6 1640 719f 33bf 8c86 2b3f 9919 953f
000001f0: 2506 a63f 9edd 6ebf a00d a23f e75a 613f

main.4.bias f4 [4]
-0.02582333 -0.055012025 -0.025087913 -0.12911776
00000000: 738b d3bc 4a54 61bd 2b85 cdbc 7237 04be
