log/dqn/dqn_3.pth (torch, 7895 bytes, 6 tensors)

main.0.weight f4 [32, 8]
-0.025675582 -2.7411346 -0.73556787 0.0070863785 -0.5133788 0.004734099 0.19074476 -0.008755444
0.04203093 -3.5957751 0.4013134 0.2861596 -0.45683798 -0.3088484 -0.069528885 0.13916157
0.040712688 0.38573506 -0.44613567 0.13107659 -0.26805457 -0.28718027 0.2572149 -0.5276674
0.11712779 0.16619527 -1.1372128 -0.03775794 0.44674778 -0.06792317 0.4550291 -0.37911245
-0.1711502 -1.7580781 -0.03553494 -0.36423227 0.2562844 -0.26406536 0.1702918 0.39157358
-0.05082116 -0.19885316 -0.68638194 0.828823 0.27032557 -0.18258604 -0.06304084 0.29351947
0.26097876 -0.018917704 -0.74488115 -0.8709063 0.25826585 0.08615991 -0.65403223 0.522973
-0.3062776 0.16724724 -0.30996814 -0.3385313 -0.42998928 0.28148502 -1.0107211 0.32726008
-0.07687296 -0.03205643 0.072084576 0.015980955 1.1187141 -0.07045451 -0.037825678 0.23338604
-0.11017018 0.0137835 -1.3351706 -0.5551517 -0.3325972 -0.1273976 -0.19291575 0.17014839
-0.25497183 0.41983315 -0.49673992 -0.44272557 0.47664094 -0.02390715 -0.65623754 -0.10244601
-0.02922962 0.01001048 -0.10490537 -0.08424234 -0.98131704 0.14436895 -0.0994132 -0.49869728
-0.34894538 -2.0447419 0.48838028 0.13444676 0.14376573 0.46120608 0.20719466 0.33014336
-0.09015352 0.40088105 0.6544597 0.2101128 -0.45344 -0.21350166 -0.40921468 0.38541695
-0.10390696 -1.867447 -0.15650707 0.2745661 -0.0859795 -0.21669494 -0.38792855 -0.059395
-0.4493482 -0.0014572943 -0.33259135 0.6055106 0.084060274 -0.21184847 0.6985588 0.55372214
-0.23800464 -3.5654073 0.123099014 0.52225614 0.54193753 0.1615702 0.17882991 0.001403814
0.1249538 0.5048859 0.5609912 0.4967536 0.017927239 0.2548962 0.21400858 -0.2332554
0.21780019 -2.8525152 0.039291516 -0.21747793 -0.395243 0.36452574 0.40564474 0.40830743
0.023524813 0.060597498 -0.50620264 0.3499466 0.097615406 0.4903644 -0.08148594 -0.13296124
-0.11330601 -0.04604074 0.20577458 -0.6011349 -0.62837714 -0.08265024 0.45497984 0.62533396
-0.07420452 -0.043046985 -0.9488294 0.42150673 0.26067704 0.009972315 -0.07341297 0.048489004
-0.09370616 -3.5825765 -0.20202468 -0.5285064 0.071078055 -0.011288942 0.28340456 0.4418976
-0.10156486 0.03762138 0.10294963 -0.4266999 1.0763781 0.016461961 0.12887868 0.38650963
-0.042212524 -2.9333284 -0.1163271 -0.3277278 0.39634988 0.30259794 0.32909438 0.36624748
-0.0285838 0.1264915 -0.3137908 -0.3264026 -0.07197176 -0.2580929 -0.2566833 -0.21016662
-0.00023157161 0.26380852 0.016611649 -0.7729811 -0.26768613 -0.5440518 0.45076817 -0.32941744
0.0900637 0.42213774 0.3012412 0.2718248 0.17166327 0.06744019 -0.13573049 -0.43390134
-0.096772105 0.027769761 0.6998502 -0.45471692 0.8983107 0.29129773 0.16457175 0.1436574
-0.31607553 0.101328515 0.16885251 -0.9637352 0.00842874 0.25997162 0.69088095 -0.30514398
0.031124389 -0.10132765 -0.08076539 0.25331116 -0.7850688 -0.36603138 -0.2972155 0.2650649
0.2534807 0.1831649 -0.22627026 0.500216 -0.5240245 0.62946844 -0.024071338 0.54045355
00000000: 9955 d2bc c06e 2fc0 2d4e 3cbf da34 e83b
00000010: cb6c 03bf 8020 9b3b 9852 433e fe72 0fbc
00000020: a028 2c3d 2e21 66c0 f378 cd3e 8383 923e
00000030: abe6 e9be 6121 9ebe 2965 8ebd 5f80 0e3e
00000040: 59c2 263d 117f c53e e56b e4be f138 063e
00000050: 733e 89be 4b09 93be acb1 833e 3615 07bf
00000060: b2e0 ef3d 182f 2a3e 3090 91bf 12a8 1abd
00000070: 20bc e43e 4e1b 8bbd 93f9 e83e 071b c2be
00000080: ff41 2fbe b408 e1bf 168d 11bd a77c babe
00000090: b537 833e 9333 87be f960 2e3e 557c c83e
000000a0: d929 50bd 2aa0 4bbe bab6 2fbf be2d 543f
000000b0: 1d68 8a3e d6f7 3abe 8e1b 81bd 2f48 963e
000000c0: 029f 853e 4df9 9abc 88b0 3ebf b7f3 5ebf
000000d0: 6c3b 843e 9b74 b03d a86e 27bf 8fe1 053f
000000e0: 6bd0 9cbe dc42 2b3e 25b4 9ebe f953 adbe
000000f0: 8e27 dcbe ce1e 903e 4f5f 81bf a28e a73e
00000100: 926f 9dbd 9a4d 03bd 14a1 933d 7eea 823c
00000110: 0632 8f3f 744a 90bd 19ef 1abd c0fc 6e3e
00000120: e7a0 e1bd 30d4 613c dfe6 aabf 6c1e 0ebf
00000130: 2e4a aabe 8474 02be b58b 45be 613b 2e3e
00000140: ab8b 82be 5ff4 d63e b254 febe edac e2be
00000150: 480a f43e edd8 c3bc 2fff 27bf 37cf d1bd
00000160: f572 efbc ff02 243c a0d8 d6bd 3f87 acbd
00000170: 9837 7bbf 74d5 133e 2699 cbbd 4055 ffbe
00000180: f8a8 b2be 0ddd 02c0 fb0c fa3e 69ac 093e
00000190: 5337 133e 3423 ec3e d62a 543e 8d08 a93e
000001a0: 69a2 b8bd 4840 cd3e ac8a 273f cf27 573e
000001b0: 4a29 e8be 2ea0 5abe 9684 d1be 5f55 c53e
000001c0: 2ccd d4bd 8108 efbf 6443 20be ee93 8c3e
000001d0: 0516 b0bd 47e5 5dbe 929e c6be 2c48 73bd
000001e0: f810 e6be af02 bfba 6a49 aabe be02 1b3f
000001f0: cb27 ac3d ceee 58be c0d4 323f bcc0 0d3f
00000200: 7db7 73be a22f 64c0 561b fc3d 94b2 053f
00000210: 6bbc 0a3f a972 253e 301f 373e 2e00 b83a
00000220: c7e7 ff3d 3440 013f 1f9d 0f3f 7d56 fe3e
00000230: 25dc 923c c181 823e 1125 5b3e 81da 6ebe
00000240: 0307 5f3e 9c8f 36c0 24f0 203d 89b2 5ebe
00000250: 4a5d cabe 1ea3 ba3e abb0 cf3e ac0d d13e
00000260: 1cb7 c03c 1535 783d 7f96 01bf 332c b33e
00000270: 96ea c73d 0b11 fb3e 1ae2 a6bd fe26 08be
00000280: fb0c e8bd 3795 3cbd 92b6 523e fae3 19bf
00000290: 53dd 20bf 8744 a9bd 1ef3 e83e e315 203f
000002a0: 8af8 97bd 0952 30bd 7ce6 72bf bbcf d73e
000002b0: 7677 853e ec62 233c 8a59 96bd 689c 463d
000002c0: 04e9 bfbd ef48 65c0 8fdf 4ebe 324c 07bf
000002d0: 5f91 913d 41f5 38bc 671a 913e 6740 e23e
000002e0: 3d01 d0bd e018 1a3d 41d7 d23d 6978 dabe
000002f0: c2c6 893f 3cdb 863c c6f8 033e 97e4 c53e
00000300: 0ae7 2cbd a7bb 3bc0 e73c eebd f0cb a7be
00000310: 5fee ca3e 1eee 9a3e 0f7f a83e ca84 bb3e
00000320: 9328 eabc fd86 013e 30a9 a0be 3e1e a7be
00000330: ee65 93bd c124 84be fe6b 83be eb35 57be
00000340: 08d2 72b9 e911 873e 2715 883c 17e2 45bf
00000350: 280e 89be fb46 0bbf 16cb e63e 67a9 a8be
00000360: 5173 b83d 7022 d83e 493c 9a3e 9f2c 8b3e
00000370: 7fc8 2f3e 151e 8a3d effc 0abe 5128 debe
00000380: 7430 c6bd 697d e33c 6229 333f a8d0 e8be
00000390: b1f7 653f fa24 953e 7f85 283e ed1a 133e
000003a0: a7d4 a1be 5385 cf3d ace7 2c3e 5ab7 76bf
000003b0: b318 0a3c 001b 853e 93dd 303f d53b 9cbe
000003c0: 93f8 fe3c df84 cfbd 5368 a5bd 00b2 813e
000003d0: 45fa 48bf 7768 bbbe a12c 98be 96b6 873e
000003e0: 39c8 813e 948f 3b3e 64b3 67be 280e 003f
000003f0: 7826 06bf d824 213f 4131 c5bc 2a5b 0a3f

main.0.bias f4 [32]
-0.37957412 -0.8709289 0.47165617 -0.06712729 -0.23263265 0.384684 0.33386648 0.13065499
0.0735434 -0.07200269 0.37500027 -0.01558796 -0.6014842 0.15216307 -0.6914068 0.4412264
-0.80373514 0.47793013 -0.5839807 0.33402228 0.09291871 0.04284679 -0.32069713 -0.10891325
-0.68372744 0.5504382 -0.06214315 0.68907523 -0.1944961 0.061257333 0.12185157 0.029969588
00000000: 8a57 c2be 32f5 5ebf eb7c f13e 087a 89bd
00000010: 4137 6ebe 4df5 c43e 8cf0 aa3e 6cca 053e
00000020: ec9d 963d 2576 93bd 0900 c03e a564 7fbc
00000030: defa 19bf a3d0 1b3e 0900 31bf 6de8 e13e
00000040: 96c1 4dbf 42b3 f43e c27f 15bf f804 ab3e
00000050: 2a4c be3d 1e80 2f3d 6a32 a4be e90d dfbd
00000060: c308 2fbf 85e9 0c3f d189 7ebd 3c67 303f
00000070: fc29 47be f8e8 7a3d 518d f93d c882 f53c

main.2.weight f4 [32, 32]
0.32424253 0.90370053 0.11623833 0.38861018 -0.2720917 -0.24607974 0.02842652 0.28681475
-0.06282825 0.1182108 -0.42570314 -0.33751747 0.42244887 0.21457043 0.93011796 -0.041092753
0.99809915 -0.018474694 0.29474863 0.4500697 0.23166944 0.46172556 0.45884126 0.009239635
0.5521791 -0.1634304 0.24335642 -0.049454097 0.43338713 0.19079286 0.33151332 0.1011259
0.73458624 1.1226424 0.06800848 0.82178634 0.027581315 -0.4321485 0.14829148 -0.61621916
0.036912605 0.29705307 -0.925728 -0.08363701 0.36732087 -0.0038399964 1.0196351 -0.09320074
1.2791421 -0.6149265 0.42242825 -0.11873187 0.14085725 0.27233347 0.56397927 0.21562879
0.6076699 -0.4085648 0.117795974 -0.6374477 0.47608387 0.3459003 0.08472573 -0.78612417
0.42342135 0.07288977 0.14632747 0.10249864 0.40095684 -0.334608 0.041144244 -0.16808933
0.03265504 0.67566234 0.15756509 -0.33942086 0.34513244 -0.2522291 -0.0066378675 -0.0022176255
1.856484 0.2591513 0.553871 -0.35530594 0.25610924 -0.5769156 0.2726732 0.11578722
0.116497315 -0.04015185 -0.075347714 -0.00083790213 0.41929686 -0.035139542 0.32358858 -0.44427404
-0.117845714 -0.6342282 -0.08494643 0.20229283 0.5571792 0.13055417 0.07787592 0.45580095
-0.20361733 0.46069056 0.29159233 0.298049 0.7771978 0.26229653 -0.28654146 -0.04810553
-0.85879314 0.0003603257 -1.43561 -0.22578402 0.060610887 -0.15696342 0.08006334 0.08307526
-0.40587834 0.53856206 0.18459846 0.0802055 0.103979826 -0.3340631 -0.05955213 -0.026356144
0.044456463 0.12135643 0.4534905 0.14044884 0.12517126 -0.0546352 0.00073637237 0.0728902
0.27605027 0.2890095 0.016906062 -0.31697792 -0.084668644 -0.028201569 0.40347588 -0.1087199
0.019669848 0.46406323 -0.19866286 0.2143088 0.11250467 -0.18367201 -0.09516699 0.38859567
-0.30329347 0.020276213 0.26803848 0.028800122 0.33449456 0.14808658 0.42900524 -0.27034593
0.18153666 0.84436285 0.47959557 0.3788727 -0.124557406 -0.6287589 0.18294495 0.011977782
-0.07754007 0.05320261 -0.041556258 -0.33290446 0.4466942 0.1625712 0.5853919 -0.31823966
1.3461436 0.046025626 0.3351638 0.3624484 -0.028579503 -0.098540574 0.35604608 -0.13132454
0.5702825 0.078929946 0.28567392 -0.08157884 0.50790465 0.28160572 0.1859057 -0.031010458
-0.08724967 -0.53868264 0.04284322 -0.047420945 -0.022256171 0.55347234 -0.7486821 -0.6306927
0.043303974 -0.3927997 -0.06231935 0.10054754 0.42695937 0.038608953 -0.5581923 0.37373197
-0.28387547 0.33778292 0.46806347 0.31439847 0.18485022 0.4618585 0.06303748 -0.05242718
0.27540734 -0.30679697 -0.070588514 0.117312714 -0.51025814 -0.16994946 -0.17881379 0.38634062
0.103838526 0.12468459 -0.038937464 0.26228818 -0.15014645 0.33908242 0.2822137 0.06396149
-0.014138491 -0.24360782 -0.19989505 -0.4106369 0.11886921 0.4704953 0.35273415 0.232434
-0.27091447 0.12736951 0.062186196 0.19272573 0.27455568 0.47404823 0.050676256 -0.2001047
0.7802096 -0.079860814 -0.016102325 0.10307186 -0.10924486 0.013516837 0.006560788 -0.1359439
00000000: 1e03 a63e eb58 673f 5d0e ee3d eaf7 c63e
00000010: 9a4f 8bbe 54fc 7bbe bcde e83c 62d9 923e
00000020: 19ac 80bd 8118 f23d c3f5 d9be 17cf acbe
00000030: 384b d83e 5ab8 5b3e 361c 6e3f e050 28bd
00000040: 6d83 7f3f 3e58 97bc 4be9 963e 896f e63e
00000050: c13a 6d3e 4b67 ec3e 3eed ea3e d761 173c
00000060: 9c5b 0d3f 4c5a 27be 6d32 793e 6190 4abd
00000070: ebe4 dd3e 345f 433e 1dbc a93e 191b cf3d
00000080: d80d 3c3f bfb2 8f3f 0848 8b3d 9760 523f
00000090: 36f2 e13c 9142 ddbe b9d9 173e 8ac0 1dbf
000000a0: ac31 173d 5717 983e 83fc 6cbf e149 abbd
000000b0: 7b11 bc3e 73a8 7bbb 6783 823f 08e0 bebd
000000c0: eeba a33f d36b 1dbf 8448 d83e b229 f3bd
000000d0: e23c 103e 4b6f 8b3e f260 103f cbcd 5c3e
000000e0: 4190 1b3f 682f d1be 043f f13d c62f 23bf
000000f0: 44c1 f33e d819 b13e af84 ad3d 6f3f 49bf
00000100: afca d83e 3b47 953d ded6 153e cfea d13d
00000110: 374a cd3e bd51 abbe de86 283d 9c1f 2cbe
00000120: 4bc1 053d 35f8 2c3f be58 213e 92c8 adbe
00000130: 33b5 b03e 2c24 81be 7882 d9bb 9555 11bb
00000140: 45a1 ed3f 7baf 843e 7dca 0d3f a9ea b5be
00000150: c020 833e beb0 13bf d29b 8b3e da21 ed3d
00000160: 2596 ee3d 4476 24bd e74f 9abd a9a6 5bba
00000170: 14ae d63e 7bee 0fbd 67ad a53e e377 e3be
00000180: 1859 f1bd c85c 22bf 65f8 adbd da25 4f3e
00000190: 4ca3 0e3f feaf 053e 697d 9f3d be5e e93e
000001a0: 1081 50be a2df eb3e 974b 953e e199 983e
000001b0: 6ff6 463f bb4b 863e 90b5 92be 4e0a 45bd
000001c0: ded9 5bbf 19ea bc39 12c2 b7bf ed33 67be
000001d0: 1f43 783d 05bb 20be 40f8 a33d 5d23 aa3d
000001e0: 49cf cfbe 34df 093f 6107 3d3e c842 a43d
000001f0: 60f3 d43d 520a abbe efec 73bd d7e8 d7bc
00000200: fb17 363d b889 f83d e82f e83e d2d1 0f3e
00000210: e52c 003e 29c9 5fbd 1d09 413a 7547 953d
00000220: 7656 8d3e 0ef9 933e 957e 8a3c ee4a a2be
00000230: c166 adbd fa06 e7bc 6494 ce3e 8aa8 debd
00000240: a922 a13c b299 ed3e 476e 4bbe c473 5b3e
00000250: d968 e63d 8414 3cbe e9e6 c2bd 03f6 c63e
00000260: 4849 9bbe 4d1a a63c 573c 893e 3cee eb3c
00000270: df42 ab3e 02a4 173e 93a6 db3e c86a 8abe
00000280: bfe4 393e 2a28 583f 8d8d f53e 9afb c13e
00000290: f417 ffbd 58f6 20bf ec55 3b3e 753e 443c
000002a0: 54cd 9ebd fbea 593d e536 2abd 7472 aabe
000002b0: 1ab5 e43e 1179 263e 3edc 153f 4ff0 a2be
000002c0: 6f4e ac3f 5e85 3c3d 979a ab3e d692 b93e
000002d0: 901f eabc a4cf c9bd ac4b b63e f179 06be
000002e0: 09fe 113f 06a6 a13d da43 923e cf12 a7bd
000002f0: 0a06 023f a02e 903e 105e 3e3e a509 febc
00000300: f4af b2bd 1be7 09bf 5f7c 2f3d 773c 42bd
00000310: 9352 b6bc 5db0 0d3f a1a9 3fbf 1475 21bf
00000320: 825f 313d 0b1d c9be 9342 7fbd deeb cd3d
00000330: 6b9a da3e 6c24 1e3d b1e5 0ebf cc59 bf3e
00000340: 2058 91be e2f1 ac3e 04a6 ef3e d6f8 a03e
00000350: 6049 3d3e b878 ec3e cb19 813d e2bd 56bd
00000360: 3102 8d3e 7e14 9dbe b690 90bd a641 f03d
00000370: 47a0 02bf 3b07 2ebe f61a 37be 70ce c53e
00000380: 4ba9 d43d a25a ff3d e47c 1fbd a34a 863e
00000390: febf 19be 369c ad3e 507e 903e 3efe 823d
000003a0: 21a5 67bc 5474 79be 4ab1 4cbe 003f d2be
000003b0: b371 f33d c3e4 f03e 9299 b43e 2e03 6e3e
000003c0: 4db5 8abe 276d 023e f4b6 7e3d e559 453e
000003d0: 9092 8c3e 73b6 f23e e891 4f3d 3fe8 4cbe
000003e0: d1bb 473f 118e a3bd 06e9 83bc 5717 d33d
000003f0: c5bb dfbd b975 5d3c e1fb d63b e134 0bbe

main.2.bias f4 [32]
0.0389176 -0.3906219 0.10290552 0.07756997 0.14053784 -0.18029197 0.051523883 -0.0077563375
-0.17595534 0.11534553 -0.1506261 0.04926396 0.07072678 0.0758222 -0.16154143 -0.23856425
-0.12315251 0.0025676265 0.06730993 0.27905774 -0.0159275 0.12719464 -0.099558845 0.3416871
0.3330168 -0.31856886 0.019475427 0.23487742 -0.1715548 0.27820396 0.4971655 -0.36944997
00000000: 1068 1f3d 98ff c7be 21c0 d23d 01dd 9e3d
00000010: 27e9 0f3e 759e 38be b50a 533d e028 febb
00000020: a32d 34be 473a ec3d ba3d 1abe 02c9 493d
00000030: 34d9 903d ab48 9b3d 1e6b 25be 304a 74be
00000040: 6237 fcbd a045 283b cad9 893d a8e0 8e3e
00000050: 637a 82bc 503f 023e 82e5 cbbd 9df1 ae3e
00000060: 2e81 aa3e 751b a3be ee8a 9f3c b583 703e
00000070: 10ac 2fbe c070 8e3e 7a8c fe3e 8c28 bdbe

main.4.weight f4 [4, 32]
-0.13917644 -0.46192184 -0.8506619 0.10799023 -0.45221797 -0.31765196 0.69016415 0.22157559
-0.34603825 0.86248106 1.3798138 -0.10111486 1.1817847 -0.14367683 -1.0865899 -0.2976821
-0.9459039 0.84245926 -0.34006357 0.82134163 -0.27901623 0.6319271 -0.26041353 0.032176744
0.021431176 -1.0307732 -0.24742118 0.42820898 -1.1603749 0.18638204 -0.24862199 -0.3801101
-0.32439548 -1.5976706 -0.38418683 0.6050318 -0.2698579 -0.52293646 0.8552826 0.13654673
-0.42753497 0.09101503 2.2727108 0.109821156 1.1862725 -0.0865658 0.40375525 -0.30416372
0.5661488 0.89840966 0.40026614 0.6697815 -0.25829265 0.5436309 0.05367971 -0.12754178
-0.6276657 -0.42503276 -0.31296545 0.54339623 -0.9822351 0.6688713 0.253952 -0.085157566
-0.301193 -0.80306816 0.5973962 0.24028406 -0.037058674 -0.4391538 -0.039626785 -0.54326195
0.08490769 0.35586023 0.8141165 0.12791534 -0.5905244 -0.8516921 -0.8695871 -0.36613482
0.80815125 0.63287115 -0.24947898 0.38066295 -0.64179486 0.4889191 -0.9421378 0.67965245
-0.49189988 0.27032927 -0.25827068 0.4954698 -0.872678 0.6189935 0.24676527 -0.4380077
-0.28850922 -1.0082341 -0.69910616 1.0388899 0.09100562 -0.4347102 0.7845784 -0.09512637
-0.24498014 0.8010654 0.50706136 -0.05581583 0.07126325 -1.1433975 0.06961123 -0.31516626
-1.0645734 -0.01793478 -0.50653654 0.5759452 -0.32897198 0.66978353 -0.19079465 0.34416205
-0.06127672 -0.60021675 -0.23113196 0.21648622 -1.067802 0.6654926 -0.90243673 0.33817998
00000000: 4584 0ebe 0581 ecbe fac4 59bf fb29 dd3d
00000010: 1d89 e7be 47a3 a2be 99ae 303f b6e4 623e
00000020: ed2b b1be 8fcb 5c3f bd9d b03f 4f15 cfbd
00000030: b944 973f 0520 13be 6115 8bbf ca69 98be
00000040: c226 72bf 69ab 573f d01c aebe 7243 523f
00000050: 37db 8ebe f9c5 213f ec54 85be c3cb 033d
00000060: 6f90 af3c 60f0 83bf fa5b 7dbe 353e db3e
00000070: 2a87 94bf efda 3e3e c396 7ebe cb9d c2be
00000080: 2a17 a6be 7880 ccbf 23b4 c4be 5de3 1a3f
00000090: d12a 8abe 2adf 05bf cdf3 5a3f e8d2 0b3e
000000a0: dde5 dabe 1766 ba3d 1874 1140 eae9 e03d
000000b0: c7d7 973f 6949 b1bd 02b9 ce3e 59bb 9bbe
000000c0: 21ef 103f 2dfe 653f afef cc3e cd76 2b3f
000000d0: ef3e 84be 652b 0b3f 41df 5b3d 509a 02be
000000e0: b3ae 20bf e59d d9be 023d a0be 041c 0b3f
000000f0: c273 7bbf 263b 2b3f ff05 823e 1767 aebd
00000100: f835 9abe e095 4dbf f5ee 183f 060d 763e
00000110: d6ca 17bd c4d8 e0be b24f 22bd 3713 0bbf
00000120: 15e4 ad3d 5033 b63e f069 503f 3dfc 023e
00000130: 9b2c 17bf 7e08 5abf 439d 5ebf 0676 bbbe
00000140: 00e3 4e3f d803 223f 6b77 7fbe 41e6 c23e
00000150: ab4c 24bf 9b53 fa3e f12f 71bf b4fd 2d3f
00000160: 4dda fbbe 9968 8a3e 0e3c 84be 38ae fd3e
00000170: d367 5fbf 5c76 1e3f 09b0 7c3e 8c42 e0be
00000180: 7bb7 93be d10d 81bf 9ff8 32bf 58fa 843f
00000190: 2861 ba3d 5692 debe 21da 483f 9dd1 c2bd
000001a0: 13dc 7abe 9f12 4d3f c6ce 013f 249f 64bd
000001b0: 78f2 913d d95a 92bf 5590 8e3d 795d a1be
000001c0: f143 88bf f6eb 92bc 61ac 01bf 2571 133f
000001d0: 046f a8be ef76 2b3f ac5f 43be 0236 b03e
000001e0: 4cfd 7abd cea7 19bf dbad 6cbe 90ae 5d3e
000001f0: bcad 88bf b95d 2a3f 1806 67bf ed25 ad3e

main.4.bias f4 [4]
0.16266927 -0.13129689 0.04527095 -0.0771721
00000000: c692 263e b172 06be 086e 393d 680c 9ebd
