log/dqn/dqn_4.pth (torch, 7895 bytes, 6 tensors)

main.0.weight f4 [32, 8]
-0.6824984 0.463158 -0.48450002 1.0103502 0.07805954 -0.16015132 0.25752515 0.2704867
0.50621516 0.037643705 0.07690535 -0.03356124 0.03683261 1.0919564 -0.45722723 -0.19706324
0.3623728 -0.058884278 -0.20969261 -0.6959192 -0.45400897 -0.43191507 0.45115218 0.24625833
0.027491193 0.21829006 -0.32129782 0.28655463 1.0396596 1.2155201 0.25949544 -0.03629888
0.3380112 0.07190879 -1.1334444 -0.33481768 -0.5074963 -0.07223565 -0.11027514 0.5427314
-0.5152336 0.93068314 -0.62888193 0.7146401 0.2795094 0.06431758 -0.89755213 -0.24403147
0.095923245 0.571191 0.15183961 -1.0908098 0.57309866 0.35738084 -0.3928005 -0.77401847
-1.4558095 0.015883608 0.4668156 -0.34036627 -0.059757467 0.49289438 0.068166584 0.16503271
-0.14114632 -0.04396406 -0.49139723 -0.44397554 -1.0703851 -0.74771523 -0.20807195 -0.46836224
-1.0374022 0.113575906 0.103460304 0.20480995 -1.4036195 0.21133825 0.05541933 0.17242818
-0.32066587 -0.0776769 -0.5081011 0.07243236 0.07000866 -0.32123065 -0.16438441 0.39369038
1.0766443 0.023353383 -0.28938547 -0.44500867 -0.2610042 -0.19520485 -0.17806125 0.3963503
0.39881313 0.12357441 -0.28620827 -0.011979028 -1.1595058 -0.7932155 0.11291016 -0.08011168
0.96133006 0.10134152 0.44937786 -0.12009316 0.31913105 0.06857737 0.1164612 0.23091316
-0.070077986 -0.32481438 0.027400834 -0.57663846 0.09589923 0.6299314 0.32980695 -1.0700477
-1.2380189 -0.30142418 -0.19909915 0.10514045 0.8249667 0.0075168354 0.37589467 0.14917436
1.0181084 0.160401 -0.6157783 2.1762183 0.70672053 -0.6562822 -0.9871619 0.2110839
0.17268363 -1.2838088 0.34733 -0.31791136 -0.083557844 0.73486036 0.13627446 -1.0281106
0.19784196 -0.48274517 0.67589426 -0.17022555 -0.79095674 -0.44045192 0.34485373 0.5132609
-0.13639608 0.36223364 -0.11192437 0.2971587 -1.0893105 -0.69260114 -0.63680524 0.29550624
0.43422988 -1.3013664 -0.13139252 -0.52725756 0.66114485 -0.021395326 -0.32120013 0.46830812
0.04388361 0.03972453 0.22850071 -0.102558285 -1.5561035 -0.49423578 -0.3885187 -0.037525263
0.3593455 0.8782499 0.33656234 -0.60892236 0.30207974 0.53038645 -0.09082183 -0.6397505
0.029543212 -0.30796313 0.5539281 -0.40235773 1.0735333 -0.24044462 0.38101393 -0.3439238
-0.9823146 -0.15612802 0.10612814 0.0022176255 -0.7828201 0.28494447 -0.59949076 0.35850164
0.44460717 0.22830671 2.2486014 -0.31041023 -0.24018124 -0.21885026 0.26836503 0.22721586
0.25807443 -0.15220092 0.55288833 -0.08612916 1.5338553 1.1052299 -0.3708601 -0.050290313
-0.19575797 0.23090348 -0.38491398 0.81495464 0.09778218 0.4879828 0.32793215 0.016845878
0.10071446 0.1185817 -0.3835807 0.6258912 -0.1693815 0.7888622 0.21944174 -0.027472824
-0.3637276 -0.11455744 0.78646916 1.3721012 -1.5022633 -0.069507994 0.5712769 -0.37076083
-0.5244687 -0.7589401 -0.17860602 -1.6294658 0.15933801 0.19482599 0.21155109 0.34578037
-0.5128684 0.14366536 -0.30289596 -0.46738118 0.13121629 0.2599951 -0.49311036 0.20751794
00000000: 37b8 2ebf 0c23 ed3e 6310 f8be 2853 813f
00000010: aedd 9f3d b5fe 23be 56da 833e 3c7d 8a3e
00000020: 5197 013f 4930 1a3d 8d80 9d3d 8377 09bd
00000030: cadd 163d 3ac5 8b3f b019 eabe f2ca 49be
00000040: ed88 b93e a430 71bd a9b9 56be c327 32bf
00000050: dd73 e8be f923 ddbe 6bfd e63e 252b 7c3e
00000060: 3635 e13c 6e87 5f3e 2681 a4be 4ab7 923e
00000070: 9113 853f 2a96 9b3f 96dc 843e 22ae 14bd
00000080: ce0f ad3e ea44 933d b514 91bf 396d abbe
00000090: 47eb 01bf 49f0 93bd efd7 e1bd 72f0 0a3f
000000a0: 59e6 03bf 4041 6e3f 68fe 20bf a7f2 363f
000000b0: db1b 8f3e efb8 833d fac5 65bf 63e3 79be
000000c0: 6873 c43d 9339 123f d87b 1b3e a89f 8bbf
000000d0: 98b6 123f 9ffa b63e 261d c9be 1326 46bf
000000e0: f757 babf 571e 823c 7402 ef3e 7d44 aebe
000000f0: 3fc4 74bd a75c fc3e ec9a 8b3d 56fe 283e
00000100: a988 10be a813 34bd 6b98 fbbe c350 e3be
00000110: 6102 89bf 446a 3fbf d010 55be 2dcd efbe
00000120: 98c9 84bf 7c9a e83d ffe2 d33d b3b9 513e
00000130: cea9 b3bf 0e69 583e 61ff 623d 0391 303e
00000140: 512e a4be 1115 9fbd ea12 02bf 6b57 943d
00000150: b360 8f3d 5878 a4be 6354 28be c991 c93e
00000160: 7bcf 893f 984f bf3c 552a 94be 2dd8 e3be
00000170: 58a2 85be c8e3 47be b055 36be 6dee ca3e
00000180: 3c31 cc3e 9514 fd3d e489 92be af43 44bc
00000190: b06a 94bf 2c10 4bbf 713d e73d 9811 a4bd
000001a0: ba19 763f 258c cf3d db14 e63e 67f3 f5bd
000001b0: 2565 a33e 4b72 8c3d 3683 ee3d 8074 6c3e
000001c0: 0c85 8fbd 124e a6be b777 e03c 949e 13bf
000001d0: d166 c43d 2f43 213f 75dc a83e 53f7 88bf
000001e0: 6777 9ebf 4554 9abe a6e0 4bbe e053 d73d
000001f0: 0531 533f c94f f63b 4475 c03e 2ac1 183e
00000200: 6051 823f 2940 243e a6a3 1dbf 2947 0b40
00000210: a3eb 343f 1c02 28bf a4b6 7cbf 6126 583e
00000220: fad3 303e d953 a4bf 3dd5 b13e 47c5 a2be
00000230: 6020 abbd cf1f 3c3f 888b 0b3e 2199 83bf
00000240: 1597 4a3e 602a f7be 6807 2d3f 9b4f 2ebe
00000250: 247c 4abf ea82 e1be ab90 b03e 1165 033f
00000260: 6aab 0bbe b076 b93e 9b38 e5bd 2f25 983e
00000270: 876e 8bbf 4f4e 31bf ab05 23bf 984c 973e
00000280: 6153 de3e 2d93 a6bf c38b 06be 5afa 06bf
00000290: ca40 293f 4045 afbc 5874 a4be 15c6 ef3e
000002a0: 4dbf 333d 30b6 223d 17fc 693e 140a d2bd
000002b0: 662e c7bf 790c fdbe eceb c6be 17b4 19bd
000002c0: 22fc b73e fcd4 603f e651 ac3e 56e2 1bbf
000002d0: 32aa 9a3e 68c7 073f cc00 babd b0c6 23bf
000002e0: 9b04 f23c 58ad 9dbe 3bce 0d3f d501 cebe
000002f0: 8a69 893f 1d37 76be 4214 c33e c816 b0be
00000300: f878 7bbf 06e0 1fbe b659 d93d 9555 113b
00000310: e666 48bf 3ee4 913e 3a78 19bf 878d b73e
00000320: 8da3 e33e 3cc9 693e 16e9 0f40 17ee 9ebe
00000330: 12f2 75be 481a 60be 2467 893e 46ab 683e
00000340: 5522 843e 8fda 1bbe 178a 0d3f 7c64 b0bd
00000350: 5f55 c43f 2c78 8d3f 60e1 bdbe 37fd 4dbd
00000360: c774 48be f671 6c3e 7213 c5be dea0 503f
00000370: 0642 c83d e2d8 f93e b9e6 a73e 5e00 8a3c
00000380: 6243 ce3d f6da f23d b164 c4be 683a 203f
00000390: 5872 2dbe e0f2 493f 56b5 603e b00e e1bc
000003a0: 813a babe 179d eabd 0b56 493f 03a1 af3f
000003b0: 2a4a c0bf 355a 8ebd 343f 123f 5dd4 bdbe
000003c0: 9543 06bf e649 42bf 7fe4 36be 5692 d0bf
000003d0: 8129 233e 7780 473e d9a0 583e 200a b13e
000003e0: 584b 03bf 031d 133e 2e15 9bbe 964c efbe
000003f0: 905d 063e 141e 853e f678 fcbe 957f 543e

main.0.bias f4 [32]
0.6335877 0.359777 0.45169038 0.23304555 -0.031973317 0.09967004 0.5786918 -0.36364356
0.31625712 -0.068643324 0.3231712 -0.17465761 -0.085918084 -0.2639727 -0.55120236 -0.42059016
0.3208571 -0.21770021 -0.34937674 0.052864544 0.6106983 0.022877444 0.40555903 0.5980012
-0.2578391 0.5371038 0.14454004 0.9018687 0.35574082 0.35161453 -0.19260764 -0.48055738
00000000: ce32 223f b134 b83e f643 e73e 7ea3 6e3e
00000010: 74f6 02bd ce1f cc3d 2525 143f 7d2f babe
00000020: 74ec a13e df94 8cbd b276 a53e 72d9 32be
00000030: d2f5 afbd 6e27 87be 991b 0dbf 9857 d7be
00000040: 6247 a43e ceec 5ebe 82e1 b2be 7e88 583d
00000050: b956 1c3f 7a69 bb3c 6fa5 cf3e 9b16 193f
00000060: 7d03 84be a27f 093f 4e02 143e dee0 663f
00000070: a923 b63e d206 b43e f03a 45be 9e0b f6be

main.2.weight f4 [32, 32]
-0.631565 0.53907603 -0.7937972 0.08333619 0.29306567 -0.28178877 0.30084038 0.29553887
0.060593784 1.4514356 -0.2000914 -0.39546287 0.2990143 -0.20560184 -0.5674093 -0.4654337
-0.26106912 -0.1735275 -1.3058091 -0.12751079 0.033607442 0.2029972 0.41923982 0.38627338
0.6511884 0.25348124 0.65638936 -0.46982473 -0.107191496 -0.5364352 -0.03823473 -0.4125356
-0.29990146 0.28370842 -0.046088092 -0.40319625 0.063038506 0.814653 0.014117655 0.87162715
0.18087232 -0.48232284 0.07583731 0.399147 0.7414926 0.48612005 0.38778275 1.0444744
-0.7123551 0.44797158 0.49640828 -0.040813982 -0.091812044 0.42971942 -0.008563863 -0.18561995
0.5254835 0.39869106 0.2835719 -0.31609607 0.121980555 -0.25476044 0.36384732 0.071869634
-0.75048274 0.31992263 -0.091938525 0.3868664 0.5118507 -0.53133494 -0.8397766 0.58521706
-0.17607619 0.035157412 0.34898815 0.5261442 -0.06408494 0.6594251 -0.5907794 0.21387814
-0.7118782 -0.69262004 0.036680516 0.022655547 0.6697862 -1.3822017 -0.5300134 0.14590538
0.67578214 0.033413857 0.55274445 -0.3587612 -0.29879004 -0.7718202 0.2089651 0.09464067
-0.39768228 -0.33702934 -0.6224663 -0.30027306 0.8350188 0.34638876 0.7877095 0.055698976
1.038164 1.1476128 -0.707054 -1.0736262 -0.707393 -0.10424308 -0.8421125 -0.7441046
0.36013508 -1.0851718 -2.1819904 -0.11530864 0.3666253 0.18928333 0.92285496 -0.21334295
0.33480394 -0.1034583 -0.17401887 -0.17735086 -0.83581364 0.11544005 -1.5061383 0.09038674
0.5965872 -0.09172124 -0.039809797 0.32262 -0.24066651 0.08713556 -0.067638956 0.50758326
-0.3077882 0.26845726 0.14624485 0.09498398 -0.029834205 0.49679276 0.31364945 0.7896265
-0.57826227 0.23043352 0.5183511 -0.14232285 -0.49368304 0.0439128 -0.15289211 -0.33567652
0.65742934 0.120499365 0.5341706 0.085715316 0.039742425 0.214835 -0.020673828 0.63092804
0.923866 0.46544796 -0.11584392 0.5797034 -0.33999005 -0.059334714 0.17344013 0.3007948
-0.12023686 -0.22010392 0.10105604 0.010929955 -0.11773935 0.28658557 0.02745907 -0.064248495
-0.24705099 -0.098363906 -0.42147547 -0.19200486 -0.010108947 0.20128891 -0.02670453 -0.4581212
0.41615137 -0.37746304 0.46438593 0.52656406 0.33191553 -0.348041 -0.31611484 0.8739063
-0.36292425 0.11321037 -0.016492695 0.007317406 -0.29372692 0.29426154 0.15166414 0.61189276
-0.0017536877 0.12322156 0.38576064 -0.4137042 0.18434013 0.84165287 0.3904257 0.85829866
0.08955224 0.849966 0.4405974 0.18135326 -0.3640514 0.676478 0.10987685 0.29114702
-0.19988883 0.29175165 0.74289954 -0.4193631 -0.25363532 0.17074521 0.63044655 0.0005904165
0.7315311 0.38961703 -0.46786278 0.5697862 -0.29383948 0.28128687 0.21643029 0.45604348
-0.55901617 0.14611633 0.3995317 -0.29180706 -0.29983214 0.6039815 0.2770911 0.96006435
0.31551906 0.45975092 -0.27258843 0.018310528 -0.48069558 -0.13578151 -0.07553927 0.19437377
0.5380696 0.0100117335 0.74151427 0.02480477 0.11399972 0.058766644 -0.30615473 0.7180844
00000000: 3eae 21bf e300 0a3f 4b36 4bbf 2aac aa3d
00000010: b40c 963e 9e46 90be c007 9a3e df50 973e
00000020: 3031 783d a4c8 b93f c3e4 4cbe 1c7a cabe
00000030: 6718 993e 4a89 52be bc41 11bf 534d eebe
00000040: daaa 85be 31b1 31be c124 a7bf 3092 02be
00000050: f5a7 093d 7fde 4f3e 9aa6 d63e a0c5 c53e
00000060: 48b4 263f 4bc8 813e 2209 283f de8c f0be
00000070: 3787 dbbd d153 09bf 059c 1cbd de37 d3be
00000080: af8c 99be 3b42 913e dec6 3cbd bd6f cebe
00000090: 551a 813d 198d 503f bd4d 673c f522 5f3f
000000a0: 9836 393e 05f3 f6be 9750 9b3d ff5c cc3e
000000b0: 76d2 3d3f bae4 f83e 768b c63e 56b1 853f
000000c0: e75c 36bf 885c e53e 3a29 fe3e 902c 27bd
000000d0: f407 bcbd 2f04 dc3e 724f 0cbc 2813 3ebe
000000e0: 1686 063f 3c21 cc3e 5630 913e 58d7 a1be
000000f0: f1d0 f93d f66f 82be 324a ba3e 6330 933d
00000100: a31f 40bf e6cc a33e 444a bcbd 5a13 c63e
00000110: a608 033f 9105 08bf 99fb 56bf c9d0 153f
00000120: 514d 34be 3801 103d 93ae b23e 63b1 063f
00000130: f73e 83bd 15d0 283f 523d 17bf df02 5b3e
00000140: a63d 36bf 8c4f 31bf 4f3e 163d 2098 b93c
00000150: 1c77 2b3f fceb b0bf f5ae 07bf 3868 153e
00000160: 0f00 2d3f f8dc 083d a980 0d3f 8caf b7be
00000170: 02fb 98be 0296 45bf f2fa 553e f8d2 c13d
00000180: 039d cbbe 1c8f acbe f459 1fbf 64bd 99be
00000190: cbc3 553f de59 b13e 54a7 493f 9c24 643d
000001a0: 8fe2 843f fae4 923f 7e01 35bf 956c 89bf
000001b0: b517 35bf 657d d5bd af94 57bf a47d 3ebf
000001c0: a063 b83e e9e6 8abf bba5 0bc0 f026 ecbd
000001d0: 50b6 bb3e 7dd3 413e 3940 6c3f 9376 5abe
000001e0: 6c6b ab3e f2e1 d3bd 0132 32be 779b 35be
000001f0: e2f7 55bf d56b ec3d 24c9 c0bf af1c b93d
00000200: f0b9 183f 58d8 bbbd 990f 23bd 732e a53e
00000210: 4871 76be 2174 b23d 4b86 8abd faf0 013f
00000220: 6a96 9dbe 3b73 893e 36c1 153e f686 c23d
00000230: dd66 f4bc 9f5b fe3e a996 a03e f624 4a3f
00000240: ff08 14bf c4f6 6b3e a8b2 043f 15bd 11be
00000250: 06c4 fcbe e8dd 333d c08f 1cbe cbdd abbe
00000260: 4a4d 283f 5fc8 f63d 68bf 083f 838b af3d
00000270: f4c8 223d b5fd 5b3e 295c a9bc 8084 213f
00000280: 7b82 6c3f 324f ee3e 943f edbd 7167 143f
00000290: 2d13 aebe f508 73bd 4a9a 313e c701 9a3e
000002a0: be3e f6bd ec62 61be 78f6 ce3d 8e13 333c
000002b0: 5421 f1bd 58bb 923e d8f1 e03c b794 83bd
000002c0: effa 7cbe 0473 c9bd a2cb d7be ec9c 44be
000002d0: ff9f 25bc ae1e 4e3e 75c3 dabc dd8e eabe
000002e0: cb11 d53e d642 c1be fec3 ed3e e7cc 063f
000002f0: d5f0 a93e 6e32 b2be ced9 a1be 53b8 5f3f
00000300: 35d1 b9be d7da e73d b01b 87bc dac6 ef3b
00000310: 6063 96be 73a9 963e d84d 1b3e 01a5 1c3f
00000320: ffdb e5ba 965b fc3d 6b82 c53e 09d1 d3be
00000330: a9c3 3c3e 9076 573f e1e5 c73e 76b9 5b3f
00000340: 2a67 b73d 5f97 593f fb95 e13e abb4 393e
00000350: f264 babe aa2d 2d3f 1d07 e13d 3911 953e
00000360: a8af 4cbe 7960 953e aa2e 3e3f c3b6 d6be
00000370: 7ddc 81be d5d7 2e3e f264 213f 2ec6 1a3a
00000380: 9f45 3b3f e27b c73e b68b efbe 82dd 113f
00000390: 2172 96be d504 903e e79f 5d3e 887e e93e
000003a0: af1b 0fbf 859f 153e 6b8f cc3e bc67 95be
000003b0: 9983 99be 889e 1a3f e2de 8d3e c7c6 753f
000003c0: b78b a13e 7964 eb3e b690 8bbe f6ff 953c
000003d0: bb1d f6be 4f0a 0bbe 55b4 9abd eb09 473e
000003e0: eebe 093f 4108 243c e1d3 3d3f 5f33 cb3c
000003f0: af78 e93d 4bb5 703d 50c0 9cbe 61d4 373f

main.2.bias f4 [32]
0.46428576 0.09994657 -0.28430218 0.5035985 -0.11336882 0.28115907 0.07473112 0.15843476
0.20923235 0.32859248 -0.07117297 0.16259842 -0.041067373 -0.1768648 0.13075323 0.26796645
-0.018392382 0.3148678 -0.12691839 0.0101745045 0.06645414 0.14160678 0.2454844 0.16061181
0.14269325 0.45289692 0.14911292 0.42416897 -0.2313034 0.098274335 0.24206091 0.15323153
00000000: ddb6 ed3e cab0 cc3d 0e90 91be d5eb 003f
00000010: e92d e8bd 15f4 8f3e a10c 993d b93c 223e
00000020: 0141 563e 463d a83e 22c3 91bd 3380 263e
00000030: 4336 28bd 0c1c 35be 2de4 053e e632 893e
00000040: 9fab 96bc 5a36 a13e e5f6 01be f7b2 263c
00000050: 1c19 883d 5e01 113e 4360 7b3e 6c77 243e
00000060: 2e1e 123e 1be2 e73e 0fb1 183e ad2c d93e
00000070: ccda 6cbe 0e44 c93d d1de 773e bae8 1c3e

main.4.weight f4 [4, 32]
1.3912423 -0.37732482 -0.63072854 2.0595253 -0.35099444 -0.83915156 -0.8841946 -0.44010454
-0.51168936 1.2600548 -0.5365116 0.101894274 -0.4596478 0.0074474365 1.4125707 -0.23859069
-0.636292 -0.5536887 -0.10197034 -0.4183667 -0.9794912 -0.2777701 0.7680107 1.0586554
0.105448864 1.1951798 -0.3533639 1.0799417 -0.8301427 -0.6409403 0.9947744 -0.31023157
1.1795937 -0.3445885 -0.31385654 2.1383798 -0.5624176 -0.24090101 -0.1552622 -0.4096349
-0.8934445 1.1136248 -0.3325123 -0.63646585 -0.29196388 -0.08381579 1.1035475 -0.27100223
-1.0784508 0.029230528 0.0915531 -0.48463535 -0.30389884 -0.47735104 1.000666 1.1916577
0.12459892 0.85756195 -0.42366174 0.9752694 -0.2376042 -0.6661146 1.0653356 -0.3033136
1.6638669 -0.18675992 1.1273158 1.9135209 -0.39343113 -0.51955354 -0.25080723 -0.8115341
-0.50942665 1.1694202 -0.9832926 -0.23951134 -0.28750384 0.122748256 1.4786257 -0.47051844
-0.63651574 -1.0720458 0.03603001 -0.3124703 -0.67362255 -0.51841223 0.7146453 1.4171246
0.40047383 1.0331192 -0.41422543 1.1503725 -0.54444605 -1.0803473 1.3617629 -0.43449584
1.1423609 -0.51325375 -1.0102348 2.404118 -0.20082025 0.014410636 -0.2873587 -0.43634465
-0.30104923 1.2688621 -0.53935665 -0.1421245 -0.5027027 0.06899473 1.368805 -0.5249329
0.013385602 -0.5309026 0.107151404 -0.2862424 -0.701828 -0.4343147 1.1795081 0.8820061
-0.8772223 1.1933182 -0.6662492 0.6941744 0.9413765 -0.80474705 0.8627804 -0.6691263
00000000: 3a14 b23f b830 c1be 6d77 21bf 43cf 0340
00000010: 8bb5 b3be a3d2 56bf 945a 62bf 6255 e1be
00000020: 13fe 02bf 7a49 a13f d358 09bf f2ad d03d
00000030: f556 ebbe a009 f43b 1ecf b43f 1e51 74be
00000040: 08e4 22bf 8bbe 0dbf d3d5 d0bd 2934 d6be
00000050: efbf 7abf e237 8ebe 599c 443f 0582 873f
00000060: 93f5 d73d a7fb 983f 1dec b4be 883b 8a3f
00000070: 3b84 54bf aa14 24bf 89a9 7e3f acd6 9ebe
00000080: edfc 963f e76d b0be ceb1 a0be 37db 0840
00000090: 9afa 0fbf c1ae 76be 0efd 1ebe aabb d1be
000000a0: c7b8 64bf 428b 8e3f 0d3f aabe 6def 22bf
000000b0: 4a7c 95be 9da7 abbd 0b41 8d3f cec0 8abe
000000c0: ad0a 8abf dc74 ef3c 3180 bb3d 2022 f8be
000000d0: a198 9bbe 5b67 f4be d315 803f 3d88 983f
000000e0: b82d ff3d 2e89 5b3f 31ea d8be 41ab 793f
000000f0: 844e 73be 7d86 2abf eb5c 883f ec4b 9bbe
00000100: 97f9 d43f fe3d 3fbe e24b 903f 41ee f43f
00000110: ce6f c9be 7601 05bf ce69 80be b3c0 4fbf
00000120: c969 02bf 90af 953f 10b9 7bbf 7642 75be
00000130: b433 93be 7063 fb3d 9b43 bd3f cbe7 f0be
00000140: b2f2 22bf cc38 89bf 3494 133d 1bfc 9fbe
00000150: 8772 2cbf aab6 04bf fff2 363f 5764 b53f
00000160: e80a cd3e 403d 843f 5b15 d4be 683f 933f
00000170: d160 0bbf d248 8abf 3f4e ae3f 3d76 debe
00000180: e238 923f 9964 03bf 604f 81bf 12dd 1940
00000190: d3a3 4dbe 971a 6c3c ae20 93be 9168 dfbe
000001a0: 2023 9abe 136a a23f 4713 0abf 1689 11be
000001b0: 20b1 00bf 1c4d 8d3d 0135 af3f 0162 06bf
000001c0: 494f 5b3c 3ce9 07bf 3272 db3d 5d8e 92be
000001d0: 00ab 33bf 7f5e debe 1ffa 963f 27cb 613f
000001e0: a491 60bf a7be 983f 4f8f 2abf 6ab5 313f
000001f0: 0dfe 703f e703 4ebf 2ddf 5c3f dc4b 2bbf

main.4.bias f4 [4]
0.042182397 0.08735127 -0.023776907 -0.010262505
00000000: 73c7 2c3d 39e5 b23d cac7 c2bc 1124 28bc
